XMFlib/PairProbML/models/mlp_a2p_111.pth (torch, 54382 bytes, 10 tensors)

net.0.weight f4 [128, 2]
00000000: 71b1 723c edbd a1bf 3340 023d 7da0 193f
00000010: 163b 24bb 8cd0 213d 7066 543c bee2 8b3f
00000020: 7cc6 d0bd 37d1 a9be f2a1 993e a736 9ebf
00000030: 29b0 583c c9c4 a03f 17e9 403e 3ac4 d6bf
00000040: 2fe2 2d3e c9e5 983f 1efe 8dbc 6cee be3e
00000050: 68f3 253d f116 5bc0 29a5 d53d 9703 e0bf
00000060: fe5b a83c b8ac d33f a852 893e 38e3 9bbf
00000070: 9523 8f3e ce86 8f3f 1442 7dba 0ebf fabf
00000080: 36c9 e43d d6d0 15c0 0f98 f03e e54b f0bf
00000090: 2fff 033c 515e 8dbf b64e 93bc 1431 ddbe
000000a0: 40ad aa3d 41ca ba3f 6764 8b3e 454e 7d3f
000000b0: efb8 a5be a729 833f bd31 2cbf b8ae a93d
000000c0: bc51 f83c 2cd3 0dbe ba65 40bf be46 253e
000000d0: c172 8cbb 3dae 293e 9b38 8a3c 32df e7bf
000000e0: b2a6 893d 52ef a43f 00fd 4d3d 1af2 c6bf
000000f0: 826a 11bd feb6 ecbe a337 bcbe 8fe1 58be
00000100: 0b0a e1be b32d 1cbf 9dbe 2bbc 217a 213f
00000110: 4e2e d63c 0f01 21c0 bf0d fcbe d60d 153f
00000120: 104d b5be b5cd 343e dce0 753d 2f1b 86bf
00000130: f6e6 063c 7ab7 c13f df35 a33e 050d 24c0
00000140: 3859 b33d 494a d93f 21f4 bcbe b0df 0c3f
00000150: 3081 523d efb0 11c0 e1e9 563a adcf 1abf
00000160: b127 0ebe 8f40 803c 055d 6f3c ddea e8bf
00000170: 6cb3 3b3e cf80 603f 687f 0dbc ae0e ebbf
00000180: 5dc0 62be 3fdd e8be 4790 cbbe 0428 e93e
00000190: 63c5 04be 6aa4 16bf 7843 043f 2ae5 a13f
000001a0: e1e9 d23e f020 943f bfa5 853c 9074 d33f
000001b0: 2600 173b ddbe 39be 5100 853c 820c f1bd
000001c0: fa70 073d b8e2 2cc0 a0e4 6abe 1604 aabe
000001d0: 69ed d6bd c5d0 35be 829f 0ebc 99c7 9d3e
000001e0: 82b2 f43c df38 31c0 84c5 00be b0a4 943e
000001f0: c56b ab3b 204d 613f d15f e93e 3f2e ce3f
00000200: 2aff 983d 9689 40bf 9270 b0bc bd67 0f3f
00000210: 9441 0e3e 0ecf 43bf f9bd d2be 6b45 113f
00000220: e75a 6a3e 3b1a 8fbf 7dc2 c8be 449d 593f
00000230: 1b09 873e 1553 d43f ec17 263d cf67 973f
00000240: 8347 12bc dcbb 0a40 3b67 60be d711 afbc
00000250: e90b c7bb cd94 04be 6fb9 ec3a 68eb ce3f
00000260: 4f16 00be a728 dc3d 2d4a d03c df81 1abf
00000270: 08d2 113b 2229 55bf 391f 333e 92f1 0ac0
00000280: c8a1 18bf cb51 b7bc 8ec6 8e3d 46f3 2ac0
00000290: 4d65 e2bb 1c06 1dbf 2bec 32be 5ba7 8a3f
000002a0: 9391 cd3b 5a2a 943f c14c 12bf 91c5 85be
000002b0: dc88 9e3e 5190 883f c409 10be 6637 753f
000002c0: e2ba ab3c 1ec7 da3f fd49 62be 54a5 dbbe
000002d0: 1966 fa3d 270e c73f 787f bf3c 3c93 c53f
000002e0: 475e e9be 3dab 773f 54f3 b73e 338a dcbf
000002f0: c535 083d d884 a83e eb93 3e3d d95d 4ebf
00000300: dc6e b03e 21d6 d0bf a161 18bf cb35 09be
00000310: 747e 0abc dcc0 82bf 852f 61be 2844 9a3e
00000320: c46d bd3b db5b 28bf b2fa e23c b696 d23f
00000330: 1b7e 55be c296 e3be 5f66 c13e 0903 c4bf
00000340: 7636 833e bbb1 ab3f 775b c23e 4e3b d6bf
00000350: 38d1 49be 8a99 ecbe 11c8 dbbe f31c d2bd
00000360: ddae e93b 649d 2ebf a24d 1e3d eb06 36c0
00000370: 5865 b93c 7183 02c0 ba59 a93c df54 92bf
00000380: 9b43 c83e 5256 ab3f 876a 1f3c af09 783f
00000390: 84a5 7e3c 77ef 7c3f f060 d7be a4d5 013d
000003a0: 7e94 ffbc 550a 3e3f ded4 c13d b2ac 9b3f
000003b0: 3b24 a4be 0203 03bf 730e 003e 90ca a43f
000003c0: 06a5 28be 59f7 043f e28f 9fbe b9c5 a9be
000003d0: 92f2 5f3d 3d66 e4bf c6bc d53b 21f2 5d3f
000003e0: ebd4 5fba 66d1 053f d577 11bf 2809 4e3f
000003f0: c7e6 25be 67a1 b03d 6543 013f 3893 cebf
0.014812813 -1.2636086 0.031799506 0.6001051 -0.0025059632 0.039505526 0.012963876 1.0928571
-0.10194108 -0.3316743 0.30006367 -1.2360429 0.013225594 1.2560054 0.18838917 -1.6778634
0.16980813 1.1945125 -0.017333087 0.37291276 0.040515333 -3.4232752 0.104318924 -1.7501096
0.020551678 1.6537085 0.26820874 -1.2178717 0.27956834 1.1213014 -0.00096610305 -1.9589555
0.111711904 -2.3408713 0.46991012 -1.8773161 0.008056446 -1.1044408 -0.017981868 -0.43201506
0.08333826 1.4592973 0.27225038 0.98947555 -0.32367656 1.0247086 -0.67263395 0.08285278
0.030312411 -0.13850087 -0.7515522 0.16140267 -0.0042861407 0.16570373 0.016872695 -1.8114989
0.06721248 1.2885535 0.050290108 -1.5542634 -0.035501964 -0.46233362 -0.36761197 -0.21179794
-0.43952975 -0.6100723 -0.0104824575 0.6307698 0.026145127 -2.5156896 -0.49229237 0.58224237
-0.35410357 0.17656596 0.060028896 -1.0477046 0.008233776 1.5134118 0.31877038 -2.5632946
0.087572515 1.6975795 -0.36905006 0.5502882 0.051392734 -2.2764242 0.0008198303 -0.6047314
-0.13882329 0.015655784 0.01460958 -1.8196675 0.18330163 0.87696546 -0.008636333 -1.8363855
-0.22143693 -0.45481297 -0.39758512 0.45538342 -0.12965922 -0.58844626 0.5166545 1.264806
0.4119406 1.1572552 0.016314385 1.6519947 0.002304086 -0.18139215 0.016235502 -0.11769964
0.033066727 -2.7013378 -0.22938776 -0.33206242 -0.10494501 -0.1775542 -0.008705022 0.30816343
0.029870275 -2.7690961 -0.12575346 0.29031897 0.005231353 0.8800831 0.45580915 1.6107863
0.07470544 -0.7520994 -0.021538053 0.5601767 0.13892204 -0.76487815 -0.41160563 0.5674655
0.22886239 -1.117988 -0.39210883 0.85005593 0.26374134 1.6587855 0.040550157 1.1828555
-0.008928183 2.167716 -0.2191438 -0.021370811 -0.006074418 -0.12947388 0.0018060635 1.616559
-0.1250851 0.10749941 0.025425995 -0.6035442 0.0022250433 -0.8326589 0.17492379 -2.1709943
-0.5962186 -0.02237787 0.06971465 -2.6710982 -0.0069090487 -0.6133745 -0.17472903 1.0832323
0.0062734573 1.1575425 -0.5714837 -0.26127294 0.3096379 1.0669042 -0.14066225 0.95787656
0.020963136 1.7092016 -0.22098537 -0.42899573 0.12226505 1.5551194 0.023376212 1.5435557
-0.4557974 0.96745664 0.35927832 -1.7229675 0.033254404 0.32913852 0.046527784 -0.8061195
0.3445958 -1.6315347 -0.5952397 -0.13399427 -0.008453 -1.0215106 -0.21990784 0.30130124
0.0057809073 -0.6576516 0.027707431 1.6452243 -0.20848887 -0.44450957 0.37773415 -1.5313426
0.25627488 1.3413614 0.37960407 -1.6736848 -0.19708717 -0.4621089 -0.42926076 -0.10259428
0.007131441 -0.6820891 0.038648255 -2.8441722 0.022631332 -2.0392725 0.020672668 -1.1432151
0.3911408 1.3385718 0.009729988 0.96889776 0.015542392 0.98802894 -0.42066145 0.031697884
-0.031198736 0.74234515 0.09464429 1.2162077 -0.32058892 -0.51176465 0.12505512 1.2874317
-0.16469201 0.5193992 -0.3116446 -0.33158663 0.054674692 -1.7843701 0.0065227477 0.86697584
-0.0008538502 0.5227264 -0.56823474 0.8048272 -0.16201316 0.08624535 0.5049346 -1.6138678

net.0.bias f4 [128]
00000000: d2e2 a13f 03ca cdbf 0f66 b73f 5348 45bf
00000010: ab6f 043f ff09 ac3e c41f 32bf f26e 073f
00000020: fd8a 12bf 6891 b03f ab45 90bf de34 3a3f
00000030: 50ce f33e 8dfd 2d3f e613 84bf 8e51 9dbf
00000040: 9c34 9ebe c190 803e a2ab 993f 6823 babe
00000050: 9a0e 5dbf 72cb ac3c 3f56 a6bd a5ad e6be
00000060: dbe7 adbf b3e3 b93e d894 14bf 0cf8 153f
00000070: 07e4 2abe 4fbf 953e 3892 023f 1101 a1be
00000080: b044 32bf 3e92 04bf deae 7f3d baf2 2bbf
00000090: 7a66 27bf a779 843f 638c fabe eaca 11bf
000000a0: 5fcd fcbe ddf3 863f 3af2 d6be 926f 903f
000000b0: 8843 9dbe 157a ad3c da22 123f c86e acbf
000000c0: 86dc 813f 06d3 913f 4f6f cdbe a60d 55bf
000000d0: ba79 cebe dcf3 dfbc a25b c33f b2eb a33f
000000e0: 3641 97bf 8ab1 7a3f 4b68 af3f 714a 87bf
000000f0: 6e62 96bf 141a 0cbf 5aaa f6be edd6 04be
00000100: 4a25 4b3f de35 ce3f c678 0ec0 4a80 8abb
00000110: 1b1b e73e d72c 823f 360b 57be 652b efbd
00000120: b9a7 883f 482e ddbb 480b 6b3f 1203 e93d
00000130: c42d 25bf b0da 153f 86ac 553f a8ad b5be
00000140: f2ba 07bf ecd2 53bf f916 30bf 6c8c 783e
00000150: 5898 d6be 4ffa 04bf 98bd 4bbf 3252 f93e
00000160: 7286 35bf a2e4 10be 4455 883e 1124 d0bd
00000170: 2a57 993e 7c15 313e dc83 c9bf 7cd7 5c3f
00000180: f8c5 123d dc42 babe ae82 febe b366 1fbf
00000190: f848 643f 44e3 d6be 6bcf 763f bb4b 333f
000001a0: 3f47 39bf af55 523f c9f0 1fbf b562 f8be
000001b0: 6380 f5bf 49ab ccbf cbef 383f e4b2 05c0
000001c0: bf8c 34bf 13e2 a13f d527 303f a50b 91be
000001d0: f63d 523c 9583 02bf cbef 10be 8eaa 8dbf
000001e0: 09e7 1bbf 631f 2d3f 4cb4 bd3e 1178 a8be
000001f0: 0222 60bf fbe9 bc3e d07c 09be b1a5 533f
1.2647345 -1.6077274 1.4328021 -0.77063483 0.5173289 0.33601376 -0.6957972 0.52903664
-0.5724333 1.3794374 -1.1271261 0.7273692 0.4761834 0.6796501 -1.0318573 -1.2290514
-0.30899513 0.25110438 1.2005503 -0.36355138 -0.86350405 0.021093104 -0.08121919 -0.45054355
-1.3586382 0.36306533 -0.5803962 0.58581614 -0.16688548 0.2924752 0.5100436 -0.31446126
-0.6963606 -0.5178565 0.062422626 -0.67167246 -0.6539074 1.0349625 -0.48935232 -0.5695025
-0.49375436 1.0543171 -0.4198168 1.1284049 -0.30715585 0.021176377 0.5708443 -1.3471308
1.0145423 1.1392524 -0.40123984 -0.8322395 -0.40327245 -0.02733796 1.5262339 1.2806304
-1.1816776 0.97927153 1.3703703 -1.0569593 -1.1748788 -0.5472729 -0.48176843 -0.12972613
0.79353774 1.6110189 -2.2261214 -0.004226719 0.45137867 1.0169934 -0.2100037 -0.11678199
1.0676185 -0.006749902 0.9181409 0.11377539 -0.6452296 0.58536816 0.83466375 -0.35484052
-0.5301963 -0.82743716 -0.68785053 0.24272317 -0.41913104 -0.5194444 -0.7958617 0.48695523
-0.7090827 -0.14149716 0.26627553 -0.10163129 0.29949313 0.17293352 -1.5743365 0.86266303
0.03583333 -0.36379135 -0.49709076 -0.6226608 0.8917384 -0.41970265 0.96410245 0.7003743
-0.7237434 0.8216199 -0.62476784 -0.48512807 -1.9179806 -1.5989772 0.72240895 -2.0890436
-0.7052726 1.2647117 0.6881078 -0.28329197 0.012832155 -0.5098203 -0.14153974 -1.1067674
-0.60899407 0.6762602 0.37051618 -0.32904103 -0.8755189 0.36897263 -0.13426518 0.826747

net.2.weight f4 [72, 128]
00000000: 5b92 0dbf 39eb 213e 8c42 ca3e 673c 5e3f
00000010: 9e6a 6ebe 6d26 31bd e1ba 233f 5fd8 fdbc
00000020: 27b6 faba c264 cb3e 5197 82be 948c 65be
00000030: 707d 493e 9ba6 c0bd 16b9 bc3d 0e55 83be
00000040: d413 96bc f770 c3bd 15ba 9cbe afee 30bd
00000050: 4d82 a23d 809c e53d 4fc3 993e d0fa a33d
00000060: e915 683d 4632 51bc 2fa1 17bd f32f 4abf
00000070: f637 b43c ce13 f4bc bdbc 873d 232d 56bd
00000080: af3e 25bd aa72 e2bb bcb5 fcbe 6f77 09bd
00000090: 5997 0a3c bbea 8f3c 9d46 1b3f b0c7 b7bd
000000a0: 8d7a 103e 1134 0fbd 16f4 8bbd c0b6 da3d
000000b0: feb0 91bd 1b2f 9a3c 68b6 d63d 3d91 7fbd
000000c0: f192 18be a4a8 45bd 3485 523b d880 f23d
000000d0: 5686 ae3d dee3 0c3f a2ab b03e 4b56 c03c
000000e0: 09e8 38bb 7220 88be 2c80 48bd 25e9 d7bc
000000f0: 7293 0fbe af90 993c ae79 413d 88a6 743d
00000100: 158d b33d 8774 bd3e bf5c a9bb dfe9 303e
00000110: 0cce 14bd 4c08 67bd 6072 803c 6519 263e
00000120: f94c 1e3f c2ab dbbc fe3b 153e 9094 013f
00000130: 965a 883d 9d35 41bd 2072 fbbb d917 27bd
00000140: 8655 31bd e0e5 74bd 2efb 7abd 98d9 9d3e
00000150: edf1 643e a2d5 8cbd a97e 813d 098f 223e
00000160: f9f8 4c3f 205e a63d ec54 0f3e 0768 993e
00000170: f858 5a3e ab33 ffbc 85cf f53d 92f8 843a
00000180: 67bf c939 a029 c33c ac9d 8ebd de61 a43b
00000190: 6590 d93d 89f8 d33e e276 d9be 5c31 8abd
000001a0: 55e8 963d 14b9 84bd 0bec 74bb e7cf 843c
000001b0: ebdf 8d3d c714 76be cc40 31bf faa3 62bd
000001c0: 0645 9a3c 9179 493d 6d4f 133e d6b3 8fbd
000001d0: 972e 3c3e 0c12 993b f3fb d7bc 4c2b e13c
000001e0: 200d 2fbd b221 d0be 69b8 f6bd fc2f 113e
000001f0: 2b9e 903d 9251 223e 784d 05bd 3c8c cdbd
00000200: 6308 a33f 167d 9cbe a124 bf3e 6fad 1cbf
00000210: 70e6 3ebd 9a36 d9bc 65e4 02bf 6df2 813d
00000220: a67d f23c ecd7 8f3e 634d 913d a6b5 783e
00000230: 6ff8 d43c ebda b43d 04af c2bd b752 e03d
00000240: 0631 873c c597 89bc ca96 9d3f 456a 343d
00000250: 7c13 5cbe 6c45 4abd 5335 05be 774a a03d
00000260: 6beb 9fbc 9ede b8be 83b3 8b3d b3e3 703f
00000270: 95df 0abd 1c5a c03d a4c6 743d b2e3 95bd
00000280: b399 3d3d e055 35bd 4748 563e d016 81bc
00000290: 4d0e a03d 338e 103e 9dab f3be d951 e2bc
000002a0: 0754 4bbd 5271 31bd 7a50 273d 70ec 303f
000002b0: 971f 4cbc 0d3d c0bc e270 423d c8d8 0f3d
000002c0: 03f2 8fbe 1d09 413d 0640 85bd 9f3e 76bd
000002d0: 9498 ea3c bc4d 8dbe 158d 0e3f 9de3 243e
000002e0: e488 6f39 8840 2cbe 7358 01be ade9 44be
000002f0: 94a7 95bd a138 34bd 187f e93c cd2a e4ba
00000300: a2ca 4f3d 4aa7 413e 6d24 c4bd 8474 9bbe
00000310: 361f c63d b2f1 91bd 7b7a 8b3c d514 4abd
00000320: ebb8 0c3e 542b e83b 39fe a23d 3fa0 5dbd
00000330: 09a2 aebd ecf4 6abd edd1 603c fa1d 573d
00000340: 910e 73bb 9d17 1ebd 77d0 483d 2107 843d
00000350: 2aee ebbd cf0c 99bd 9414 c7bd a6f5 1d3d
00000360: 4d9d 1ebf fba4 7cbc b4cd f93c b61f 8bbe
00000370: 2a85 e63c 5d5a c33c 3753 9bbe c5b3 093e
00000380: 4e00 d53c 97e6 aebd d448 b03d 5cf7 a63d
00000390: c3ad 0d3f 843f c3be 1494 4dbe 401a a13d
000003a0: 6627 57bc 8dd1 113e 6e16 8f3d 36f9 d2bc
000003b0: 1278 35be 409e c0bd 0d35 5a3f 0579 923c
000003c0: 34da 153d cc5e 033e d25d 953d eee9 ac3d
000003d0: 92fe 8abc ced5 bd3a 90eb 2bbd 3f11 f1bd
000003e0: d8d0 5ebd bbcb 603c 654e f03d a3a1 a1bc
000003f0: 5225 453d de54 65be e2cc 74bc e659 fb3d
-0.55301446 0.15812387 0.39503896 0.86810917 -0.23282859 -0.043249536 0.6395703 -0.030986963
-0.0019127772 0.3972531 -0.2550607 -0.22416908 0.19676757 -0.094067775 0.0921499 -0.2565083
-0.018320002 -0.09543031 -0.3061072 -0.043196376 0.07935009 0.11211491 0.3003182 0.08006823
0.05666152 -0.012768334 -0.03701895 -0.78979415 0.02199934 -0.0297946 0.06627796 -0.05228914
-0.040342983 -0.0069106417 -0.49357402 -0.033561166 0.008458936 0.017567983 0.6065462 -0.08973634
0.1410925 -0.034961764 -0.06833665 0.10679388 -0.07113837 0.01882129 0.1048401 -0.06239437
-0.14899804 -0.04825653 0.0032122852 0.11840981 0.08521716 0.550352 0.34505945 0.023478648
-0.0028214476 -0.26587254 -0.04895036 -0.02635629 -0.1402109 0.018745748 0.047235183 0.05972913
0.08767144 0.37002966 -0.005168527 0.17276715 -0.036329314 -0.056404397 0.015679538 0.16220625
0.618362 -0.026815299 0.14573666 0.50617313 0.06657903 -0.04717027 -0.007673517 -0.040794227
-0.043294452 -0.05978954 -0.0612747 0.30830073 0.22357912 -0.06876685 0.06322987 0.15874876
0.800674 0.08123422 0.13997239 0.2996218 0.21323001 -0.031152567 0.12002472 0.001014488
0.00038480313 0.02382356 -0.06963667 0.0050165495 0.10623244 0.41400555 -0.42473513 -0.06747696
0.073685326 -0.06480613 -0.0037372138 0.016212417 0.069274746 -0.24031363 -0.692395 -0.05533216
0.018831741 0.0491882 0.14385767 -0.07016723 0.18377148 0.004671341 -0.026365256 0.027486466
-0.042737126 -0.40650707 -0.12046892 0.14178461 0.07061418 0.15851429 -0.032544583 -0.10036513
1.2736934 -0.30564183 0.37332633 -0.6120214 -0.04660648 -0.026515294 -0.5112975 0.06345067
0.02960093 0.28094423 0.070948385 0.24288043 0.025997369 0.08830818 -0.09506038 0.109532766
0.016502868 -0.016796002 1.2311642 0.04404666 -0.21491808 -0.049382612 -0.13008623 0.07826703
-0.019521436 -0.36107343 0.068213485 0.9409744 -0.03390463 0.09392187 0.05975975 -0.0731882
0.046289157 -0.04427135 0.20926009 -0.015757948 0.07815228 0.14116745 -0.47591868 -0.027626919
-0.04964068 -0.04332096 0.040848233 0.69110775 -0.0124587035 -0.023466611 0.047470935 0.035118848
-0.28114328 0.04712783 -0.06506352 -0.060118314 0.028637208 -0.2759837 0.55684024 0.16102453
0.00022843812 -0.16821492 -0.12631397 -0.19229765 -0.073073536 -0.043999318 0.028502986 -0.0017407775
0.050730355 0.18911472 -0.0957726 -0.30362332 0.09673922 -0.07126178 0.017026177 -0.049336273
0.13742416 0.0070852432 0.079586454 -0.0541079 -0.085269995 -0.057362482 0.013721925 0.052518822
-0.003708754 -0.038596738 0.049026933 0.06446672 -0.115200356 -0.07473146 -0.09720722 0.038564347
-0.6195877 -0.015420194 0.030493595 -0.2717263 0.02813967 0.0238468 -0.30336925 0.13447483
0.026001122 -0.08540075 0.08607641 0.08152649 0.55343264 -0.38134396 -0.20076019 0.07866335
-0.013131952 0.14240094 0.069867 -0.025753599 -0.17721584 -0.09405184 0.852372 0.017879972
0.036585048 0.12829131 0.072932854 0.08443056 -0.016967092 0.0014483274 -0.041972697 -0.117708676
-0.054398388 0.013720448 0.117337026 -0.019730395 0.048131295 -0.22395656 -0.014941426 0.12273006

net.2.bias f4 [72]
00000000: b804 433e 3fda f53e 2c7d 183e c8b1 4e3e
00000010: ea10 83bc 2b28 083d ea31 9ebe c034 eabc
00000020: 4f1e dd3e 76fc c7bd 220e 4dbe 948c ccbd
00000030: b62d 923c 4060 453e a854 56be 6c3f 903e
00000040: c684 aebd a766 033f 7fd5 3fbd fd89 b2bd
00000050: 1b9d 9e3c b107 43bd b5bc 093f ea3c a5be
00000060: c185 963c 8ebe bc3b 04d7 3b3e a015 013e
00000070: 81c9 443e e9fe b2bb a074 cabe 9325 12bf
00000080: 14b9 103f ca5c b8bd c663 efbc 705b a0be
00000090: 47c4 85bd de85 5e3d cf16 88bd b3dc ebbe
000000a0: 583f 003e 0c2f 0abe cd5a dc3d 8223 c33d
000000b0: 2f6d 9bbe 7829 f2bd 9a13 24bc ddc3 36bd
000000c0: bef7 cebd 981e c13d 600e f23b e073 333d
000000d0: a0ed 11be af89 933e 560e a83e b7a8 583d
000000e0: 42a1 543d 20ad 94bc 0020 803d f4d7 813e
000000f0: d52e 6ebc 98aa 233f 83b3 113f f97e 8a3d
00000100: c913 9e3d 79fd 4b3d 4fc1 90bd 9238 433d
00000110: 622c 533f 0690 d3bc d2bb 093f a502 703d
0.19044769 0.4801807 0.148915 0.20185006 -0.015999276 0.033241432 -0.30897456 -0.028589606
0.43187186 -0.0976495 -0.20024922 -0.09987751 0.017844062 0.19274998 -0.20930731 0.28173387
-0.08521418 0.5132851 -0.046834465 -0.087177254 0.019362023 -0.047614757 0.5380357 -0.32273036
0.018374326 0.0057600206 0.1834374 0.12605906 0.19217493 -0.0054625166 -0.39542103 -0.57088584
0.56532407 -0.09002073 -0.02922238 -0.3131976 -0.065315776 0.054326884 -0.066449754 -0.46066818
0.12524164 -0.1349451 0.107595064 0.09528257 -0.30356738 -0.11824316 -0.010014439 -0.044620384
-0.10105847 0.094296634 0.0073869675 0.04381168 -0.14250803 0.28815982 0.32823437 0.052895274
0.0519116 -0.018148959 0.062561035 0.25360072 -0.014537533 0.6393218 0.5691454 0.06762499
0.077186175 0.049802277 -0.07068121 0.04766137 0.824896 -0.025825512 0.53802216 0.058596272

net.4.weight f4 [36, 72]
00000000: 633d 62bd 5335 123d 3534 27be 793f 56bc
00000010: ed6b eebb 60f3 e03c 791e aa3d f46f c0bd
00000020: e72b 04be 17c1 6e3d 46a3 313d 3979 d03d
00000030: 6b0b eb3d e07c d4bd bf6f 803d 7d4d bebd
00000040: 5cdb a83d 8252 09bb c0a8 fa3d a1aa 81bc
00000050: 989d 14bc 8634 c83d e5b3 123d 0040 66bd
00000060: f370 9f3c 4292 98bd 75cc 653d 66b0 06be
00000070: d2a3 883d 17ce bcbd 45ca 393d 966f 0dbd
00000080: d885 4fbe 174f b6bd 8327 85bd 9d9f aabd
00000090: ad29 f2bc e455 8bbd 2c5a 92bd 4255 cf3c
000000a0: 5678 0dbc 4ab9 5ebe a309 59be 69b7 aebd
000000b0: e8d6 a9bd bc2f eb3d 291b 563d 4e94 ce3d
000000c0: c818 acbd 22d7 3fbd 6136 713c fe8a 2ebd
000000d0: c35c d2bd dd45 913d f7c0 65bd 0449 bcbd
000000e0: 5b9d 093c e9fd 95bd 8234 043e c708 aa3d
000000f0: e5d3 a2bd afcc a8bd 02e8 9dbc 1810 e73d
00000100: 7306 82bd 3fe1 ea3d 508a a03c 32d9 f9bc
00000110: 2309 a13c 4964 62bd f69b 6e3d 7c4b c63c
00000120: f43e 34bd 2032 f4bd 8480 5c3e 1d2b 913d
00000130: d935 bebc a014 9dbd b865 293f cef7 5f3d
00000140: e731 98bc b1fe b8bd e1c7 b7bd 25e7 a53d
00000150: dca7 8fbb b36a 8bbd 04cd 8c3d a33f 963d
00000160: b0fd 1a3c 5db7 d4bc 2f27 1bbd 8905 1f3d
00000170: 17fa 573d 8d10 a23c ca13 b2bd 3cba 7f3e
00000180: a6fd aabd e10f a8b9 8c61 2abd 2eec 0b3e
00000190: a8f7 fe3c a50b c8bd bfd5 483e 2e30 2dbd
000001a0: a913 febd 4368 e93c d2a8 aa3d 0f85 e83c
000001b0: 89fc 963d 4f00 773d 0d34 d93d 328e 22bd
000001c0: f11a 39be 958d 9e3d 70de dd3c e4bb d13d
000001d0: f029 dcbd da2a 67bb 5484 8dbd 0232 f03d
000001e0: 7fb2 fb3b fadc 7e3d 55b6 4cba b5eb d33c
000001f0: c173 793d 486b 2fbe 5780 c7bd bba6 273d
00000200: 83e6 d83d 1715 893c 486e 273e 27c3 45be
00000210: e17c 6d3d ccc1 93bc 65fb cfbd 7778 94bc
00000220: a873 a53d 8f2d db3d 5570 b1bd 61bc b83d
00000230: 582c ba3d b62b f2bc 1bca d6bd 2e35 40bc
00000240: bcd3 a43c f1e3 09bf 0134 393d 22bb 153d
00000250: 8a7e ce3c 75d0 633c 9bb6 693f ff7b a0bc
00000260: e35a 91be 3e53 253d 432b cbbc 6e3b d63d
00000270: ef2b bf3d 0eb1 68be 9a05 113d bfbd 08bd
00000280: 05bb a03d 0d67 42be 97fe 843e 7cb0 dfbd
00000290: dabb 8dbd d1e3 45bd 19d3 87be 47ef 2d3f
000002a0: 9175 853d 4fc5 a23c 3814 c0be f503 b73d
000002b0: 83dc 11bd 04f5 67bd f7ba 073f 8aee 0d3f
000002c0: 85f0 b6be a79c db3c e843 6a3d a385 ba3e
000002d0: 62fa 6abd f6b0 c83d 2358 95bd 9404 0e3f
000002e0: 2efe 89bb 9bb7 fc3d 500d 9e3c 015e f53d
000002f0: 513c 743e 2eb6 83bd 8f08 51bd e7a1 c9bd
00000300: 95c9 063d fac1 6bbc 1a59 febb 3503 ce3c
00000310: 217a 16bd 4e42 adbe 43db 7cbe 4e72 85bd
00000320: 5fe5 d33d 329b abbd 65ba c53c 88a9 ccbe
00000330: c41a 27bd 8403 eabe ca09 10bf 2e6f 953c
00000340: 5790 c93b 496d 16bd 78d4 df3d 78ad 62bd
00000350: e3e7 b7be 027a 253d 1104 a3be 2b02 a5bc
00000360: 5e42 673c a5d0 10bd a090 cbbd 46ad a03d
00000370: da8f debd 63b8 98bc 0a6a 8dbd 7aec 2a3b
00000380: 1915 343c 5176 81bd edac 88bd f4f7 6dbd
00000390: 8144 79bc 7180 bcbc 86cb 783d f294 35bd
000003a0: 6c09 b6bd 77cd a63d a074 9dbd 17cb 0dbb
000003b0: 0987 303d b38a ee3c c3da 35ba 2445 c13d
000003c0: fff3 45bd f4bb f7bd 9273 c2bd c6e3 9d3d
000003d0: 747f d13c 299f b2bd 1cea 4b3d c27f 94bd
000003e0: abce 2bbe be13 b2bc 3962 a43c 3056 b63d
000003f0: 43e7 05bd 4b3b cabc 38d0 e93c cc57 c03d
-0.055234324 0.035695385 -0.16328509 -0.0130766565 -0.0072760493 0.0274598 0.083065934 -0.09396353
-0.12907372 0.058289614 0.0433686 0.101793714 0.11476787 -0.103753805 0.06271314 -0.092921235
0.082449645 -0.002095372 0.12239218 -0.015828433 -0.009070776 0.09775643 0.035816092 -0.05621338
0.019463038 -0.074497715 0.05610319 -0.13153228 0.06671871 -0.09218996 0.045358915 -0.034530245
-0.20265901 -0.08901804 -0.06501677 -0.08331225 -0.029560888 -0.06803492 -0.07146105 0.025309209
-0.008634647 -0.2175037 -0.21195082 -0.085310765 -0.08292943 0.11483714 0.052271996 0.100868806
-0.08403164 -0.046836026 0.014722438 -0.042613022 -0.10271599 0.070934035 -0.05609223 -0.09193614
0.008399333 -0.0732382 0.12910655 0.083024554 -0.07950572 -0.08242165 -0.019275669 0.112823665
-0.06348886 0.114687435 0.019597203 -0.030499075 0.019657677 -0.05527142 0.058254205 0.024205916
-0.04400535 -0.11923623 0.215334 0.07088301 -0.023219036 -0.076699495 0.66170835 0.054679684
-0.018578483 -0.090329535 -0.08973671 0.08100728 -0.004384024 -0.06807461 0.06875041 0.073363565
0.009459898 -0.02596634 -0.037879165 0.038823638 0.05272874 0.019783283 -0.08695181 0.24973387
-0.08349161 -0.00032055288 -0.041596934 0.13664314 0.031123951 -0.09767846 0.19612788 -0.042282276
-0.124060936 0.028492099 0.08332981 0.02838376 0.07372386 0.06030303 0.10605631 -0.03968639
-0.18076684 0.077418484 0.027083606 0.102409154 -0.107501864 -0.0035273344 -0.06910005 0.11728288
0.0076811905 0.06222246 -0.0007809152 0.02586923 0.060901407 -0.17130768 -0.09741276 0.04093049
0.105908416 0.01673369 0.16350663 -0.19312726 0.057980422 -0.018036745 -0.101553716 -0.018123848
0.080787 0.10702049 -0.08664004 0.090203054 0.09090489 -0.029561859 -0.10487767 -0.011731429
0.020120494 -0.53863436 0.04521561 0.036555417 0.025206823 0.0139046805 0.9129426 -0.019590376
-0.28389654 0.04036259 -0.024800902 0.10460554 0.093345515 -0.22723791 0.035405733 -0.03338408
0.07848171 -0.18984623 0.25975487 -0.109223336 -0.069205955 -0.048312966 -0.26528242 0.67943233
0.06516565 0.019869475 -0.37515426 0.089363016 -0.035610687 -0.05663015 0.5301966 0.55442107
-0.35730377 0.026808096 0.057193667 0.36430082 -0.05736769 0.097993776 -0.07292201 0.55475736
-0.004211209 0.123397075 0.019293457 0.119808204 0.23851134 -0.064312324 -0.051033553 -0.098453335
0.032907087 -0.014389509 -0.0077620866 0.025148014 -0.036737565 -0.3383965 -0.24693017 -0.065159425
0.103464834 -0.083792105 0.024136731 -0.39973092 -0.04079701 -0.45705807 -0.56264937 0.018241491
0.00615124 -0.036725316 0.10929197 -0.055341214 -0.35919103 0.04039956 -0.3183904 -0.020142635
0.014114944 -0.03535523 -0.099396944 0.07845549 -0.10867281 -0.01864261 -0.06904991 0.0026080892
0.010991358 -0.06321395 -0.06673608 -0.058097795 -0.0152140865 -0.023010464 0.06074097 -0.0443315
-0.08888516 0.08144658 -0.0768826 -0.0021635944 0.04309753 0.029118871 -0.00069372 0.09437016
-0.048328396 -0.12096396 -0.094946995 0.0770946 0.02557347 -0.08721764 0.04978381 -0.0725093
-0.16778056 -0.02173793 0.020066367 0.08903158 -0.03269125 -0.024686476 0.02854167 0.09391746

net.4.bias f4 [36]
00000000: 7dbc 87be 161c 3e3d 15cc 6fbe d83d d9bd
00000010: fbb7 27bf 5782 a83c 58e0 283e 662b 4cbe
00000020: 4772 25bd b407 243d df52 2d3d 7ffd 123f
00000030: b7b7 a63d 5166 cfbc 56f4 e33e f7d1 423e
00000040: 3a91 21bf daf2 94bd fbc3 5fbe f3b4 453d
00000050: 2192 4ebd f38a 13bd 48d5 a2bd 0f12 41bf
00000060: 1f89 cabd add6 e0be bd74 cf3c 00d4 cf3e
00000070: dc69 0ebf a1b9 6bbe c1e4 11be 3535 00bf
00000080: e95d 83be af01 8dbd f3dc bebd 2481 50be
-0.26510993 0.046413504 -0.23417695 -0.10607499 -0.65515107 0.020569963 0.1649183 -0.1993843
-0.040392186 0.04004641 0.04231536 0.57418054 0.081405096 -0.025317343 0.4452235 0.19025408
-0.63112223 -0.07272883 -0.21852104 0.04826827 -0.050432328 -0.036021184 -0.079508364 -0.7541818
-0.09889435 -0.43913785 0.02532422 0.4059143 -0.5563028 -0.2302003 -0.14247419 -0.5008119
-0.25657585 -0.06885087 -0.093194865 -0.20361763

net.6.weight f4 [8, 36]
00000000: 2b5f 49be ab1f 133e 86e9 8a3f 740c efbc
00000010: 4d69 0d3f 93fc 553e fa2e 563e df23 333d
00000020: 5d96 c43d 05d6 713e a32f 4cbe eb8d 163e
00000030: 7ab8 1c3c 105e cdbd c15d 953d 4a95 0bbb
00000040: 14e2 5a3e 084c 25be 99c6 c8bd 9b92 d3bd
00000050: 806d a7be ee76 86bd 3798 3abd 82a0 da3e
00000060: 9cef 433e 23af cb3e 1e9a b8bd a22c b33d
00000070: 6d61 1740 7de9 b23c 5200 73bd c88a d73d
00000080: cce2 673e 82bb 88bb 9e1c 0a3e 3a9f a0bd
00000090: c285 51bd 3e8b ea3c 3520 f6be bd47 d0bc
000000a0: 798e 853c 53bd 6b3d 84e3 ab3c c1e1 d4bd
000000b0: 8ae3 ebbd 3af3 ad3e 3585 4d3e 26b9 4c3e
000000c0: a679 3ebe a819 febd d421 123e c68d ed3d
000000d0: be59 69bd e320 b13d 87bc 66bb 157c bbbc
000000e0: 2745 683e 0f37 00be e433 aa3d 6941 9e3e
000000f0: 9890 87bd a96d 6d40 ba17 d4bc eb60 483e
00000100: bd66 0dbf 3a7a b4bc 6369 f13c b25d 0a3e
00000110: a6e0 9e3e 0a0a 2cbd 043c 1a3e a328 8abd
00000120: 1dc1 b1bc dd4b 56be 7fed 973d 87f3 f23d
00000130: 4d8c b93d 4250 3d3d 2f5a dfbd 44e3 ba3d
00000140: 54ed 01be 4968 c13b 57f9 763d f0c2 f5bd
00000150: 3839 b33d 4b34 b03d 9e28 49be d64b 14be
00000160: 8bf6 843d debb 19be 07a4 b53c 57f5 aabd
00000170: c3a9 d33c c69c 003e 2fa3 0d3e 8782 acbd
00000180: d886 14be 113f fe3d b6f8 693c f371 f1bd
00000190: 9f2c 803d d286 5ebd d3a1 bdbd 619a c4bd
000001a0: 6ec1 5bbe e149 0cbe be43 fdbd 40f2 09be
000001b0: 02d0 8fbd abe0 c63d 650f 2cbd 2e2a c73d
000001c0: 6073 203d 4d13 40bd 2c7d 9a3d b5a0 d4bb
000001d0: d48b 7d3d 2835 99bd a16a a73e 75bb 883e
000001e0: 9cd0 c53d a085 783d 9c15 de3d 8a31 0dbb
000001f0: da47 fabd cff7 d9bd 673c 9cbd 506e d73d
00000200: bfec bb3e 11ee 443d 2ab2 2fbc 8100 643e
00000210: 5eaa 0c3e 3cb7 7040 63d8 83bd 8e43 d93c
00000220: 4b7a 82bf 3745 353c a895 10be 08b1 aebd
00000230: dfcb 473e b559 84bd 3c43 223e a3f5 243d
00000240: 037f 89bd ff07 1a3e ead5 43bf 25e2 743d
00000250: 757d d6be 8581 f43d ebe3 be3d db3a e33d
00000260: cd62 a2bc 6776 b1bd e1fb 833d 4ca1 0f3e
00000270: a58f ad3d d13d b8bd bff0 9a3d 7e4f 13bd
00000280: 0ce5 0fbd 886a efbc fbbb acbd b96e 3d3d
00000290: a554 363d 92a8 68bd d089 36bd e06b 36be
000002a0: 03c2 863d 0f3b 18bf 22d8 843e e580 033e
000002b0: c53d dfbf 0c58 c5bd b148 1d3d 40ad 3ebe
000002c0: 3b0d debd 9958 2b3e f493 7d3d f88e 90bd
000002d0: b849 e33d c4eb ab3d 8a3c 813f c4d9 b33d
000002e0: 2589 253f 45e2 003e 9e19 a2bd 85c6 813e
000002f0: 2513 95bd 6b5b 3cbe eac7 243d d545 123d
00000300: f1e8 d53d 89ec 77bd 2ef8 0cbe 45df 61bd
00000310: bd16 963e b9c9 27bd 7246 cd3c bac2 653d
00000320: 2925 fbbd 57f4 12bd 2530 3d3d 3a1b c5be
00000330: acba 313d 6624 30be 792d c53e a94a 443e
00000340: eb3d 0b40 154b 09be 50da 75bd f11b 243e
00000350: b0a2 d53d 6832 a13d 3401 893c 1613 5ebd
00000360: 1f86 c1bd ccba f43d 2363 e6be 8bf4 4abd
00000370: 0033 3a3b b56f f93d 1e89 07bc b5ee df3d
00000380: fa59 283e 9c96 db3d 7bee 25be 7b11 5dbe
00000390: 0fa9 6c3d a3fa 103d 9fa1 69be a77c dbbe
000003a0: 0cf8 48be bf2d 1b3e dfbf 2c3d fb64 c53c
000003b0: 830c fdbd 1761 993d 4978 933d 85e9 26be
000003c0: 8e64 53bd 9a18 903c ff91 4b3e ed59 c93d
000003d0: f601 853f 419d 453c b8e1 733d 971e ad3d
000003e0: 7ef2 27be 2ed0 133e bc71 1c3c 7e13 cf3b
000003f0: b5d7 2bbc 057f debc e291 a6bd eab5 0f3e
-0.1966521 0.14367549 1.0852516 -0.029180743 0.552388 0.2089713 0.20916358 0.04373538
0.09598992 0.23616798 -0.19940047 0.14702575 0.009565467 -0.100277066 0.07293273 -0.00212987
0.21375304 -0.16142285 -0.098035045 -0.10330697 -0.3270073 -0.06565653 -0.04555532 0.42700583
0.19134372 0.39782056 -0.090137705 0.087487474 2.3653214 0.021839852 -0.059326477 0.10524517
0.2264511 -0.0041727433 0.13487479 -0.0784287 -0.051152952 0.028630849 -0.48071447 -0.025424832
0.016303288 0.0575536 0.020982511 -0.10394622 -0.11518009 0.3397463 0.20070346 0.19992504
-0.18601093 -0.12407237 0.14270717 0.11599307 -0.05697035 0.08648851 -0.0035207586 -0.022886315
0.2268263 -0.12521003 0.083106786 0.3090928 -0.06619376 3.7098181 -0.02589022 0.19568221
-0.5523489 -0.022030938 0.029469198 0.13512304 0.31030768 -0.04200176 0.15061957 -0.06746032
-0.021698529 -0.20927377 0.07418346 0.118628554 0.090599634 0.046219118 -0.10905873 0.09125379
-0.1268819 0.0059023243 0.060296383 -0.12000072 0.08751148 0.08603724 -0.196444 -0.14482054
0.06492337 -0.15013072 0.02217294 -0.08347576 0.025837785 0.12559804 0.13831781 -0.084233336
-0.14504564 0.12414373 0.014280489 -0.11789312 0.06258511 -0.054327793 -0.09259381 -0.09599758
-0.21460506 -0.13700058 -0.123664364 -0.13471317 -0.07022096 0.09710821 -0.04200687 0.09724842
0.03917253 -0.046893407 0.07543406 -0.0064888843 0.06190093 -0.07480842 0.3269854 0.26705518
0.0965893 0.06067431 0.108439654 -0.002154442 -0.12220736 -0.10642969 -0.07628708 0.10519087
0.3670406 0.0480786 -0.01072363 0.22265817 0.13736865 3.7611837 -0.06437757 0.02652147
-1.0193571 0.011063865 -0.1411959 -0.0852986 0.19511364 -0.06462423 0.1584596 0.04027332
-0.06713679 0.15042113 -0.7649828 0.05978598 -0.4189259 0.119387664 0.09320816 0.1109521
-0.019822503 -0.086651616 0.064445265 0.14026374 0.08474664 -0.089961655 0.0756545 -0.03596448
-0.035130545 -0.029225603 -0.08434292 0.04624817 0.044514317 -0.056801386 -0.044565022 -0.17814589
0.065799735 -0.59465116 0.25946146 0.12842138 -1.7440726 -0.09635934 0.038399402 -0.18620777
-0.10842367 0.16733016 0.061908677 -0.07058519 0.11098045 0.08394578 1.00966 0.0878177
0.6466239 0.12586315 -0.07915042 0.2534677 -0.07279042 -0.18394248 0.040229715 0.03571113
0.10444821 -0.060528312 -0.13766548 -0.055144567 0.29314223 -0.040963862 0.025058005 0.05609391
-0.12262947 -0.035877552 0.046188492 -0.38497335 0.043390915 -0.17201385 0.38511255 0.19169106
2.1756542 -0.13407548 -0.060022652 0.16026284 0.10431421 0.07870942 0.016724207 -0.05421742
-0.0944941 0.11949691 -0.4499751 -0.04954962 0.0028411746 0.121795096 -0.008272437 0.10934202
0.16440573 0.10722086 -0.16204254 -0.215887 0.057778414 0.035395276 -0.2281556 -0.4286854
-0.19625872 0.1515417 0.04217517 0.024096003 -0.12355902 0.074892215 0.07200677 -0.16300018
-0.05160957 0.017589856 0.19879912 0.09831605 1.0391223 0.012061418 0.059541434 0.084531
-0.16401097 0.14434883 0.009548601 0.0063194623 -0.01048844 -0.027160177 -0.08133294 0.14034238

net.6.bias f4 [8]
00000000: 3d99 afbe b1a5 893e 70ae 61be 530f e53e
00000010: df33 233f f363 cb3c 1919 c2be 494c c83c
-0.342966 0.26884225 -0.22039199 0.44738254 0.63751024 0.024827933 -0.37909773 0.024450438

net.8.weight f4 [3, 8]
00000000: 907a 6a3d 9a19 bc3e 12ae c8bc 4bff a33e
00000010: 9edc c1be 356f a3be 2832 b8bf 9235 10bd
00000020: b7c2 413e 02c7 2abe db22 3bbd 331e 13bf
00000030: 2630 c53d 390e 723e 84b1 833e 4324 20bd
00000040: 5673 dfbd 5612 ea3d 1a8a 323d 606f 913e
00000050: 9f86 7f3e 1795 8f3a 0c7a a53e d204 743c
0.05724579 0.36738282 -0.024497066 0.3203071 -0.3786363 -0.31920782 -1.4390306 -0.03520734
0.18921934 -0.16677478 -0.045687538 -0.57467955 0.09628324 0.23638238 0.2572137 -0.039097082
-0.109106705 0.114292786 0.043588735 0.28405285 0.24953698 0.0010954466 0.32319677 0.014893727

net.8.bias f4 [3]
00000000: 38ef a4bc 3943 a0be 50b2 0f3f
-0.0201336 -0.31301287 0.5613146
