XMFlib/PairProbML/models/mlp_a2p_100_2nn.pth (torch, 55084 bytes, 10 tensors)

net.0.weight f4 [128, 3]
0	0xbec9a687	-0.39384863
1	0x3e8558dd	0.2604436
2	0x3e936abe	0.28792375
3	0x3b8f438f	0.0043720673
4	0xbb435161	-0.0029803144
5	0xbfa68676	-1.3009784
6	0x3cd183bf	0.025575517
7	0x3e21e740	0.15810871
8	0x3fb68b94	1.4261346
9	0x3d1a17c5	0.037620325
10	0xbc6f11ab	-0.014591615
11	0xc06e70b1	-3.7256281
12	0xbdef1938	-0.11674732
13	0x3e2c6084	0.16833693
14	0xbf8a6724	-1.0812726
15	0xbe16de5e	-0.14733264
16	0x3e637516	0.22212633
17	0x3f30e29b	0.6909577
18	0xbe340d6b	-0.17583244
19	0x3edfaa18	0.4368446
20	0x3edbd367	0.42934725
21	0xbe4a6f8c	-0.19769114
22	0x3e340fba	0.17584124
23	0xbe8fb1b9	-0.2806528
24	0xbc7d599f	-0.015463262
25	0xbea0dbdf	-0.31417748
26	0xc0037952	-2.0542798
27	0xbe0383ae	-0.128432
28	0x3eadb0bf	0.3392391
29	0xc00d396c	-2.2066298
30	0x3a38cb8b	0.0007049373
31	0x3e82b058	0.25525165
32	0xbfb5c2c0	-1.4200058
33	0xbdf7524f	-0.12076246
34	0xbf0cecfd	-0.55049115
35	0x3f7883fa	0.9707638
36	0x3dd785c1	0.105235584
37	0xbe8625ae	-0.26200622
38	0xbf97a15b	-1.1846117
39	0xbf084d30	-0.5324278
40	0xbd1f90c2	-0.03895641
41	0x3ebc6f31	0.36803582
42	0x3cbbee84	0.022940882
43	0xbdc10a56	-0.094257995
44	0x3fa3dc5a	1.2801621
45	0xbe168583	-0.14699368
46	0x3e88bb13	0.26705226
47	0xbfff2259	-1.9932357
48	0x3de2e966	0.110796735
49	0xbe6996bf	-0.22811411
50	0xbfdd971f	-1.7311743
51	0xbe25176d	-0.16122217
52	0x3e86cdd2	0.26328903
53	0x3f9e5b88	1.2371683
54	0xbe936dc9	-0.28794697
55	0x3ecf6ae5	0.40511242
56	0xbe392bec	-0.18083161
57	0x3e39536d	0.1809823
58	0xbed6d32a	-0.4195798
59	0xbfcbb91f	-1.591587
60	0xbed46dd5	-0.41490045
61	0x3f3a33d7	0.7273535
62	0x3f6f6033	0.93506163
63	0xbf0b50eb	-0.54420346
64	0xbe9240ad	-0.2856497
65	0x3ea123b2	0.31472546
66	0xbd53c951	-0.051705662
67	0xbe00f26a	-0.12592474
68	0xbf0dcda5	-0.55391914
69	0xbdb330dc	-0.087495536
70	0x3ed87838	0.4227922
71	0xbfac1bf7	-1.3446034
72	0x3d861955	0.065478005
73	0xbe1fd18c	-0.1560728
74	0x40002ef5	2.002866
75	0x3e867018	0.26257396
76	0xbe5ac745	-0.21365078
77	0x3fb69477	1.4264058
78	0x3d959c58	0.07305211
79	0xbec322c5	-0.38112465
80	0x3fa2fe84	1.2733922
81	0x3d0bfab5	0.03417464
82	0xbdaee0c3	-0.08538964
83	0xbfa18544	-1.2618794
84	0x3dc6e3de	0.09711431
85	0xbe79c4a2	-0.24391416
86	0xbf8bb05d	-1.0913197
87	0xbe0ab4e6	-0.1354557
88	0xbe6908a1	-0.22757198
89	0xbeb45f0f	-0.35228774
90	0x3cc36215	0.02385048
91	0xbcba3ea4	-0.022734948
92	0xbf4de069	-0.8042055
93	0x3c434062	0.0119172055
94	0xbc21fd2a	-0.009887019
95	0xbfbe3938	-1.4861212
96	0xbe5f37dc	-0.21798652
97	0x3e848eee	0.25890297
98	0x3eb5d604	0.35514843
99	0x3c70a7ff	0.014688491
100	0xbd112d60	-0.035443664
101	0xbf95e87b	-1.1711572
102	0xbe4414be	-0.19148538
103	0x3e8e56b9	0.2780054
104	0xbf7136cb	-0.9422423
105	0xbe565c79	-0.20933713
106	0x3ecc6398	0.39919734
107	0x3e32c9f2	0.17459849
108	0x3d8fb85c	0.07017586
109	0x3eb5da33	0.35518035
110	0x3fd879cd	1.6912171
111	0xbe8b060f	-0.2715306
112	0x3ea09bc2	0.31368834
113	0xbe85d2d4	-0.26137412
114	0xbe308da1	-0.17241527
115	0x3db19d95	0.086726345
116	0xbf06ef5c	-0.52708983
117	0x3e0e6525	0.13905771
118	0xbeb30e11	-0.3497167
119	0x40094370	2.144741
120	0x3e80b5af	0.25138614
121	0xbf192f8d	-0.5983818
122	0x3ffec061	1.9902459
123	0xbba0a6f9	-0.004902717
124	0x3e3be015	0.183472
125	0x40167bc2	2.3513036
126	0x3e1224ab	0.142718
127	0xbeafa6cd	-0.34306946
128	0xbfbb8223	-1.464909
129	0x3ab44dc0	0.0013756081
130	0xbea9fab6	-0.3319909
131	0x3db3a1e3	0.08771112
132	0x3cfff7b7	0.03124605
133	0x3cf4a6c6	0.02986468
134	0x3e3563c1	0.17713834
135	0x3d9333a2	0.071875826
136	0x3ea24d86	0.3169977
137	0x3ff4c615	1.912295
138	0xbd122edf	-0.03568923
139	0xbd6f6ad0	-0.058451474
140	0xbf727f76	-0.9472574
141	0xbe5fe629	-0.21865143
142	0xbeaaa180	-0.3332634
143	0x3d637845	0.05553462
144	0xbe457570	-0.1928308
145	0x3ef271ab	0.47352347
146	0xbb0a397a	-0.0021091388
147	0xbecd5eca	-0.4011138
148	0x3f133f75	0.575187
149	0xbe9a3558	-0.30118823
150	0x3e218506	0.157734
151	0xbe00a677	-0.12563501
152	0x3fd7c3ce	1.685663
153	0xbdd0e38e	-0.101996526
154	0x3e849dc0	0.25901604
155	0xbfdda4c5	-1.7315909
156	0xbebca4b0	-0.36844397
157	0x3ea61f89	0.32445934
158	0x3f57fec8	0.8437314
159	0x3b74ae45	0.0037335318
160	0x3d8cf0f9	0.068818994
161	0x400e9d97	2.2283685
162	0x3cd41095	0.025886813
163	0xbd63ed84	-0.055646434
164	0x3fd59549	1.6686183
165	0xbead6b1a	-0.33870775
166	0x3bb3c125	0.005485671
167	0xbe54be52	-0.20775726
168	0x3a54bb7f	0.00081150973
169	0xbe2d0e55	-0.16899998
170	0xbf15ba5c	-0.58487487
171	0x3c369e76	0.0111461785
172	0x3e755f8f	0.23962234
173	0xc026d7d0	-2.6069221
174	0xbeb1fadd	-0.34761706
175	0x3f000f8e	0.50023735
176	0xbf39139a	-0.72295535
177	0x3b80fc0e	0.0039362973
178	0x3e1732ce	0.14765474
179	0xbfaf3f17	-1.3691128
180	0xbef3a836	-0.47589272
181	0x3d35c5da	0.04437814
182	0x3e379246	0.17926893
183	0xbec4eb2b	-0.3846067
184	0xbec3c75c	-0.38238037
185	0xbee5a896	-0.44855183
186	0xbc6ee272	-0.014580356
187	0xbc81798f	-0.015805034
188	0x3f94e826	1.1633346
189	0xbce8c605	-0.028414736
190	0xbef8c131	-0.48584893
191	0x3f4f4e97	0.80979294
192	0xbe40d450	-0.18830991
193	0xbee2492b	-0.44196448
194	0xbee869f7	-0.45393345
195	0x3ca2a1d7	0.019852562
196	0xbba3ca12	-0.004998454
197	0xc03d0731	-2.953564
198	0xbe9f99ce	-0.3117203
199	0x3eb131d5	0.3460833
200	0x3f61106c	0.8791568
201	0xbe897e48	-0.26854157
202	0x3f10219f	0.563013
203	0x3f40694f	0.7516069
204	0x3de6dfd1	0.11273158
205	0xbe90975b	-0.28240475
206	0x4011f3ef	2.2805135
207	0x3cb1094f	0.021610884
208	0xbd93a914	-0.072099835
209	0x40138fd4	2.3056536
210	0x39f07c40	0.0004586894
211	0xbc3aba23	-0.0113969175
212	0xbf700785	-0.93761474
213	0xbe88c59e	-0.2671327
214	0x3f03f495	0.5154508
215	0x3f674944	0.9034617
216	0xbeff18cd	-0.4982361
217	0xbeda6dd6	-0.42661923
218	0x3f270fcf	0.65258497
219	0x3c8fe347	0.017564429
220	0x3cfd9800	0.030956268
221	0xc03c1575	-2.9388096
222	0xbd3afea8	-0.045653015
223	0xbd2ef048	-0.04270962
224	0xbf68ccb3	-0.90937346
225	0x3d5e55e3	0.054281127
226	0xbe0a6fde	-0.13519236
227	0xbfaaf12e	-1.3354852
228	0xbeb8c4e2	-0.3608771
229	0x3f1a8f93	0.60375327
230	0x3e45fa2b	0.19333713
231	0x3d546791	0.05185658
232	0xbdd3b588	-0.10337359
233	0xbfffe94c	-1.9993072
234	0x3de38af9	0.11110491
235	0xbe793430	-0.24336314
236	0x3fd5d196	1.6704586
237	0x3d54245c	0.051792488
238	0xbd283b32	-0.041072078
239	0xbfc98120	-1.5742531
240	0xbeeea608	-0.46611047
241	0xbe642301	-0.22278978
242	0xbebc778e	-0.36809963
243	0x3e0d410f	0.13794349
244	0xbe74c995	-0.23905022
245	0xbe8709ea	-0.2637475
246	0xbf0f4952	-0.5597125
247	0x3ee43d8f	0.44578215
248	0xbe89b18d	-0.26893273
249	0x3dcba828	0.09944183
250	0xbe26f99f	-0.1630616
251	0xc0461e33	-3.0955932
252	0xbcc579ad	-0.024105871
253	0x3d7c8244	0.06164767
254	0xbde11f92	-0.1099235
255	0x3ac3f54a	0.0014950421

net.0.bias f4 [128]
0	0xbe8ece1a	-0.27891618
1	0x3f82bc3e	1.0213697
2	0xbfa36584	-1.2765355
3	0xbf2bef3d	-0.67161924
4	0x3f3bbe09	0.73336846
5	0x3ea07576	0.31339616
6	0xbf2c084c	-0.6720016
7	0x3f765d3b	0.9623601
8	0x3e93a7b7	0.28838894
9	0x3eb107d4	0.34576285
10	0x3fa722cb	1.3057493
11	0xbf311772	-0.691764
12	0x3f8cf652	1.1012671
13	0xbf05cede	-0.5226878
14	0xbf7ba95f	-0.98305315
15	0x3ec8cf44	0.3922063
16	0x3f4faf4f	0.81126875
17	0xbf531343	-0.82451266
18	0xbe8591b0	-0.26087713
19	0x3f41a69c	0.7564485
20	0x3f178bea	0.59197867
21	0xbecf3f2e	-0.4047789
22	0x3ec9d3e5	0.39419475
23	0x3f9625e1	1.173031
24	0xbe6f2af5	-0.2335623
25	0xbfb18c73	-1.3870987
26	0xbf8c26e4	-1.0949368
27	0x3f98decb	1.1942991
28	0x3f85a211	1.0440084
29	0xbee5cd42	-0.44883162
30	0xc015166e	-2.329494
31	0x3f48cb4e	0.7843522
32	0x3ee9139f	0.45522782
33	0x3f8decb5	1.1087862
34	0x3f372f63	0.7155668
35	0xbe8d5c07	-0.27609274
36	0xbfb09225	-1.37946
37	0x3f82bc26	1.0213668
38	0x3c7c92e6	0.015415883
39	0xbd7d6c88	-0.06187108
40	0xbeeaae39	-0.45836046
41	0x3d99d252	0.075108185
42	0x3f58801f	0.845705
43	0xbec6e784	-0.38848507
44	0xc00d59ba	-2.2086015
45	0xbee745d9	-0.45170477
46	0x3f13a767	0.5767731
47	0xbf07fce8	-0.5312028
48	0xbe3c29c9	-0.18375315
49	0x3f8ab0ec	1.0835242
50	0xbf2d5aec	-0.6771686
51	0xbe68d210	-0.22736382
52	0xbe262cfd	-0.16228099
53	0xbdde229b	-0.10846444
54	0xbeb40a2f	-0.3516402
55	0x3f688463	0.90827006
56	0xbd5cbe3c	-0.05389236
57	0x3eb8d0ca	0.36096793
58	0x3f4cda67	0.80020756
59	0x3f8cfbdd	1.1014363
60	0xbf12e92a	-0.5738703
61	0xbda0392a	-0.07823403
62	0x3f110ded	0.56661874
63	0xbe7ad9e0	-0.24497175
64	0xbd537867	-0.051628496
65	0x3f69c3a1	0.9131413
66	0x3f1a4ad1	0.6027041
67	0x3f3f08b6	0.74622667
68	0xbed41e10	-0.41429186
69	0x3ebd2de1	0.36949065
70	0x3bf6ad1d	0.007527961
71	0x3dce1731	0.10063017
72	0x3f0be8ee	0.546523
73	0x3e4a8f9f	0.1978135
74	0x3f58f860	0.8475399
75	0x3fa11553	1.2584633
76	0x3f80cbc5	1.0062186
77	0x3f652de2	0.89523137
78	0xbed10458	-0.40823627
79	0x3f588cb4	0.84589696
80	0xbe50226e	-0.20325634
81	0xc02ec81a	-2.7309632
82	0xbdc4229a	-0.09576912
83	0xbec9fc94	-0.39450514
84	0xbe6c6188	-0.2308408
85	0xbe31f7dc	-0.17379707
86	0x3eb1374d	0.34612504
87	0x3f1e9243	0.6194193
88	0x3f3cf5be	0.7381247
89	0xbe63993b	-0.22226422
90	0x3f46111f	0.77369875
91	0xbec9970f	-0.3937306
92	0x3cd55f2a	0.026046354
93	0xbf106e20	-0.5641804
94	0x3d2e802c	0.042602703
95	0x3f84ae8a	1.0365765
96	0xc0114ca2	-2.2703023
97	0xbe3e20d0	-0.18567204
98	0xbf91ac35	-1.1380678
99	0x3f745144	0.954365
100	0x3f9ead1b	1.2396578
101	0x3c8538a8	0.016262367
102	0x3ec894bb	0.39175972
103	0xbf7aff22	-0.9804555
104	0x3f770ae4	0.9650099
105	0xbedc4853	-0.4302393
106	0x3e22d6f4	0.1590231
107	0xbea30544	-0.31839955
108	0xbf28d427	-0.6594872
109	0x3e829a1f	0.2550821
110	0xbef02717	-0.46904823
111	0x3f320aa7	0.69547504
112	0xbed1d220	-0.40980625
113	0x3ed01a43	0.40645036
114	0x3f7b577e	0.9818038
115	0x3fa9c31a	1.3262665
116	0xbe4b5e23	-0.19860129
117	0x3ebd938e	0.37026638
118	0x3f0d44d6	0.5518316
119	0x3fb17670	1.3864269
120	0xbeaa20ee	-0.33228248
121	0x3e7093b8	0.2349385
122	0xbe820388	-0.2539332
123	0xbdf7db9b	-0.12102433
124	0x3f410281	0.75394446
125	0xbf7258b7	-0.9466662
126	0xbf843aa7	-1.0330399
127	0x3f4d29bc	0.80141807

net.2.weight f4 [72, 128]
0	0xbd3fb1c3	-0.046800386
1	0xbdee5d6a	-0.11638911
2	0x3cb7e205	0.022446642
3	0x3d7185ad	0.058965374
4	0xbdbc7d14	-0.09203544
5	0xbcb8c4db	-0.022554806
6	0xbd804a6a	-0.06264193
7	0xbd6781c7	-0.05652025
8	0xbc6a1a56	-0.014288506
9	0x3c95d1a2	0.018288437
10	0x3c942c0d	0.018087411
11	0xbdc7d6eb	-0.09757789
12	0xbdb59411	-0.08866132
13	0xbb5ed199	-0.0033999442
14	0x3bb8d28d	0.005640334
15	0xbc8c6fb0	-0.0171431
16	0x3c734813	0.014848727
17	0xbda0aff4	-0.078460604
18	0x3cdad7f5	0.026714304
19	0xbd47f995	-0.048822004
20	0x3d3923fc	0.045200333
21	0x3dace73d	0.08442543
22	0x3c410486	0.011780864
23	0x3c487956	0.01223596
24	0xbda4871c	-0.080335826
25	0x3d42ebeb	0.04758827
26	0xbce4aa7e	-0.027913328
27	0x3b45c5d0	0.003017772
28	0xbd1bf35a	-0.038073875
29	0x3d1f1c4d	0.03884535
30	0xbd420d4c	-0.047375962
31	0xbcf81b07	-0.030286325
32	0x3c6d403e	0.014480649
33	0xbd4a3313	-0.049365114
34	0xbc426950	-0.011865929
35	0x3cb3b9fb	0.021939268
36	0xbd4dd039	-0.050247405
37	0x3d8aac03	0.0677109
38	0x3ce25240	0.02762711
39	0xbdd5b451	-0.10434783
40	0xbdf7fdf2	-0.12108983
41	0x3c653586	0.013989812
42	0x3d2507d1	0.040290657
43	0xbd53beaf	-0.051695522
44	0xbdce4c40	-0.10073137
45	0xbd2e71b4	-0.042588905
46	0xbd2adbe8	-0.041713625
47	0xbd927a91	-0.07152284
48	0xbc7f6c1b	-0.015589739
49	0xbdbf1163	-0.09329488
50	0xbd64554d	-0.05574541
51	0x3d6b42ba	0.057436682
52	0x3caaeba8	0.020864323
53	0xbd901648	-0.070355
54	0xbdcd62c3	-0.10028603
55	0xbc869ab1	-0.016431184
56	0x3a91b28e	0.0011115836
57	0xbc4a14e9	-0.012334087
58	0xbda81323	-0.08206775
59	0x3d1e87f6	0.03870388
60	0x3d95b24c	0.07309398
61	0xbd42eeb6	-0.047590934
62	0x3d7ec9b4	0.062204078
63	0xbda2bbd3	-0.07945981
64	0x3da19751	0.078901894
65	0x3bbf9edd	0.0058477954
66	0xbcf773d2	-0.030206595
67	0xbd916566	-0.07099418
68	0xbd626e9c	-0.055281267
69	0x3cd59fe2	0.026077215
70	0x3d2382a5	0.039919514
71	0xbd7e54dc	-0.062092647
72	0xbd7bf3b2	-0.061511703
73	0xbda5ffde	-0.081054434
74	0xbdc8eab7	-0.09810393
75	0x3cfd7b43	0.030942565
76	0x3bf56485	0.0074887895
77	0xbdd7eca5	-0.10543183
78	0x3ca7ad7f	0.020468472
79	0x3cf09de5	0.029372165
80	0x3d37228f	0.044710692
81	0x3d4a2c6c	0.04935877
82	0xbda8065f	-0.0820434
83	0xbb99bbb9	-0.0046915677
84	0x3d7556f1	0.059897367
85	0x3c929807	0.017894758
86	0x3c50e498	0.0127498135
87	0xbd594798	-0.053046793
88	0x3a657d9d	0.00087543746
89	0xbd921733	-0.07133331
90	0xbdac2d11	-0.08407033
91	0x3d4fd590	0.05074078
92	0xbda6c498	-0.08142966
93	0x3d64f29f	0.055895444
94	0xbdef442f	-0.11682927
95	0x3c31b0bb	0.0108453585
96	0x3d0b6508	0.034031898
97	0xbde3bc6d	-0.11119924
98	0xbd88d13c	-0.06680533
99	0xbdb2f3ff	-0.08737945
100	0xbd4f900b	-0.05067448
101	0x3da68ccc	0.081323236
102	0x3ccdc006	0.025115978
103	0x3cec8f7a	0.028877009
104	0x3d7aaabf	0.061197992
105	0x3d846c24	0.06465939
106	0xbca2fa46	-0.01989473
107	0xbd582a57	-0.052774753
108	0xbde228c7	-0.11042934
109	0xbe047bde	-0.12937877
110	0x3da13d93	0.078730725
111	0x3d281995	0.041040022
112	0x3db1bcdd	0.08678601
113	0xbdba6185	-0.091006316
114	0xbdb60b39	-0.08888859
115	0x3cd4d320	0.025979578
116	0xbdf6cd76	-0.12050907
117	0x3d72ab80	0.059245586
118	0x3d2d64cf	0.042332467
119	0xbde6e587	-0.112742476
120	0xbc8114bb	-0.015756955
121	0xbc2ff75c	-0.010740127
122	0xbd9e2bec	-0.07723221
123	0x3d298878	0.041389912
124	0x3d2372a9	0.03990427
125	0x3c13ddd0	0.009025052
126	0xbc646154	-0.01393922
127	0xbb6edf45	-0.0036448997
128	0xbd367edf	-0.044554587
129	0xbe4cb493	-0.19990759
130	0x3e011ea3	0.12609343
131	0xbcfacc82	-0.030615095
132	0xbe987a06	-0.29780596
133	0x3d41d343	0.047320616
134	0x3d6e40c2	0.058167227
135	0x3d9e4ab5	0.07729093
136	0x3d825ed2	0.06365742
137	0xbdc1593f	-0.094408505
138	0xbede0680	-0.43364334
139	0x3e1d7a40	0.15378666
140	0xbcdcf932	-0.026974294
141	0xbd0f3c50	-0.034969628
142	0x3d4f3fee	0.050598077
143	0xb8d04c48	-9.9324214e-05
144	0xbdbc826c	-0.092045635
145	0x3e61ad80	0.22038841
146	0x3d969b7c	0.07353875
147	0xbd22930d	-0.03969102
148	0x3ea6a890	0.32550478
149	0xbd0eb7ad	-0.034843136
150	0xbd0ff614	-0.035146788
151	0xbe1f0115	-0.15527757
152	0x3e70ba42	0.23508552
153	0x3e0f8a5b	0.14017622
154	0x3e0bffbc	0.13671774
155	0xbefbd23a	-0.49183828
156	0xbdacb7f2	-0.08433522
157	0x3d1411fe	0.03614997
158	0x3bcf5507	0.0063272747
159	0xbe6246cb	-0.22097318
160	0xbd218d2d	-0.039441276
161	0xbf26c9eb	-0.6515185
162	0xbdc5c9ac	-0.096576065
163	0x3c0d79a8	0.008634962
164	0x3e0314ef	0.12800954
165	0x3cf4b4b3	0.02987132
166	0xbd9f52e4	-0.07779482
167	0x3e381a4b	0.1797878
168	0x3e397d57	0.1811422
169	0x3ebb0018	0.3652351
170	0xbdea5ff1	-0.114440806
171	0xbcbc2f19	-0.022971677
172	0x3d780686	0.060553096
173	0x3dc974e6	0.0983675
174	0xbf234d9c	-0.637903
175	0xbd96a66f	-0.073559634
176	0x3da6dbc2	0.08147384
177	0x3eb658bf	0.35614583
178	0x3d0a8db4	0.033826545
179	0x3d2f25d5	0.04276069
180	0xbd8922e7	-0.0669611
181	0x3e923502	0.28556067
182	0x3ea8ac38	0.32943892
183	0x3f0a9475	0.5413278
184	0x3d92eb76	0.07173817
185	0xbe2880a6	-0.16455325
186	0xbed4f82b	-0.41595587
187	0xbede3819	-0.43402174
188	0xbd171997	-0.03688964
189	0x3d5109da	0.051034786
190	0x3e60ca8f	0.2195227
191	0xbbf61a90	-0.0075104907
192	0x3dac1fd8	0.08404511
193	0xbf21f706	-0.6326755
194	0x3e4b1e07	0.19835673
195	0x3dfbd462	0.12296368
196	0x3de8d8e5	0.11369494
197	0x3e05e176	0.13074288
198	0xbced5210	-0.028969795
199	0x3e87fe20	0.2656107
200	0x3ee8291b	0.4534386
201	0xbe29c6fc	-0.16579813
202	0x3d16f648	0.036855966
203	0xbf101d18	-0.56294394
204	0x3e5cc535	0.21559604
205	0xbe372ba7	-0.17887746
206	0x3b37eec3	0.0028065897
207	0xbe09e8c5	-0.13467701
208	0xbcb0e4c6	-0.021593463
209	0x3dd78133	0.1052269
210	0xbd0e77ea	-0.034782328
211	0xbc30484a	-0.010759423
212	0x3c45b445	0.012066905
213	0x3f08b706	0.5340427
214	0xbe410228	-0.18848479
215	0x3d410708	0.047125846
216	0xbe09859d	-0.13429876
217	0x3d5edaca	0.054407872
218	0xbf00fde9	-0.50387436
219	0x3cb39f3e	0.021926519
220	0xbdf7407b	-0.120728455
221	0xbd1ea62e	-0.0387327
222	0x3eb37ef8	0.35057807
223	0x3e5fd463	0.21858363
224	0xbd4b53d5	-0.049640495
225	0x3da8b224	0.08237103
226	0x3e0022d5	0.12513287
227	0xbe13f1d8	-0.14447725
228	0xbe7e43ff	-0.24830626
229	0xbd711d68	-0.058865935
230	0x3e2487db	0.1606745
231	0x3dfcc4ba	0.1234221
232	0x3e60b318	0.21943319
233	0x3cdc0a4a	0.026860375
234	0xbdb8c0ff	-0.09021186
235	0x3d195e91	0.0374437
236	0xbe4e379d	-0.20138402
237	0x3e1fa41c	0.15589947
238	0x3d222435	0.03958531
239	0xbe75c0c4	-0.23999316
240	0x3d9cd9fa	0.07658763
241	0xbe215b42	-0.15757468
242	0x3d990c60	0.074730635
243	0xbee9bf40	-0.45653725
244	0x3cfa0cda	0.030523706
245	0x3e2cdc06	0.16880807
246	0x3d82d8f2	0.06389035
247	0xc00c3f7e	-2.1913753
248	0x3e7b8af8	0.24564731
249	0xbeb1460b	-0.3462375
250	0x3bdcabff	0.0067343707
251	0xbd37d5da	-0.04488168
252	0xbe5bcb55	-0.21464284
253	0x3cfa5083	0.03055597
254	0xbd7c746c	-0.061634466
255	0xbea4fc25	-0.3222362

net.2.bias f4 [72]
0	0x3c85f49f	0.016351996
1	0xbf0ad0b1	-0.5422469
2	0xbd6f54eb	-0.058430593
3	0xbe97cf77	-0.2965047
4	0xbd2d575f	-0.04231965
5	0x3ec00084	0.37500393
6	0x3ea944e2	0.33060366
7	0xbe3be488	-0.18348897
8	0x3f54b0df	0.83082384
9	0xbe27e058	-0.16394174
10	0x3c1eb46b	0.00968657
11	0xbe0f657c	-0.14003557
12	0x3f697948	0.91200686
13	0xbe55f387	-0.2089368
14	0x3e47f9ac	0.19528836
15	0xbda5a91e	-0.08088897
16	0xbbd46488	-0.006481711
17	0xbf1ba7ef	-0.6080312
18	0xbd3d21ea	-0.04617492
19	0x3d5cd0dd	0.053910125
20	0xbc2c727f	-0.010525345
21	0x3d44bdb4	0.048032477
22	0xbe439e5d	-0.1910338
23	0xbd99fa27	-0.07518416
24	0xbe87fbb8	-0.26559234
25	0xbd02f7f9	-0.031974766
26	0xbcd7e014	-0.026351966
27	0x3e149591	0.1451018
28	0xbd7784c5	-0.060429353
29	0x3d7879f8	0.060663193
30	0x3de1ee77	0.11031812
31	0x3c518708	0.012788542
32	0xbaf289aa	-0.0018504162
33	0xbd8f78f6	-0.07005493
34	0xbd943169	-0.07235987
35	0xbd9b2d46	-0.075769946
36	0xbdb237ef	-0.08702075
37	0xbd8c459d	-0.06849215
38	0xbeb92f18	-0.36168742
39	0xbca6bb6a	-0.020353038
40	0xbda7548d	-0.08170424
41	0xbcb690f6	-0.02228592
42	0xbddd947b	-0.10819336
43	0x3f1ca724	0.61192536
44	0xbd62201b	-0.0552064
45	0xbe37118f	-0.17877792
46	0xbc103f58	-0.008804165
47	0x3d92aef6	0.071622774
48	0xbd871ae8	-0.06596929
49	0x3f29e7f6	0.6636957
50	0x3e8dc20a	0.27687103
51	0xbd5b0685	-0.053473014
52	0x3ecbca7c	0.3980292
53	0x3c3a4c70	0.011370763
54	0xbdc6f9a8	-0.09715587
55	0xbd822c70	-0.06356132
56	0xbd6f0616	-0.058355413
57	0x3f3fdde6	0.74947965
58	0x3e9fa5ed	0.3118128
59	0xbd7ba934	-0.06144066
60	0xbcf09bb2	-0.029371116
61	0x3d374c3f	0.04475045
62	0x3da9a3e8	0.08283216
63	0x3bb8552e	0.0056253886
64	0x3e625d08	0.22105801
65	0xbbf8b0df	-0.007589444
66	0xbc775d6b	-0.015097956
67	0x3c9e7a85	0.019345531
68	0x3e5dfd4e	0.2167866
69	0xbe38cd16	-0.18046984
70	0x3e8d29d0	0.27570963
71	0xbe403c7f	-0.18773077

net.4.weight f4 [36, 72]
0	0x3b5ae73d	0.003340199
1	0xbe922185	-0.28541198
2	0x3d57e634	0.052709773
3	0x3e6f2c81	0.2335682
4	0xbe6d4d95	-0.23174126
5	0x3e89c2fa	0.26906568
6	0x3e3a181b	0.18173258
7	0xbd2c1055	-0.042007763
8	0x3e17c5a8	0.14821494
9	0xbfe86b25	-1.8157698
10	0x3de21305	0.11038784
11	0xbe90bebf	-0.28270528
12	0x3e076069	0.13220371
13	0xbde3a5b1	-0.111155875
14	0x3e8c662e	0.27421707
15	0xbc70eaf6	-0.014704457
16	0xbd8e985c	-0.06962654
17	0xbc10880e	-0.0088215
18	0x3d4e8998	0.05042419
19	0xbdb3b61a	-0.087749675
20	0x3e0e045d	0.13868852
21	0xbdc1d9d1	-0.09465373
22	0xbccef9eb	-0.025265655
23	0xbc812577	-0.015764935
24	0x3e3add73	0.18248539
25	0x3d9b8c4b	0.07595118
26	0xbcf1ad9a	-0.029501725
27	0x3c26f55e	0.010190336
28	0x3d09403e	0.03350853
29	0xbdacdd4a	-0.08440645
30	0xbd8606d5	-0.06544272
31	0xbdf25f22	-0.118345514
32	0xbdf3fbb8	-0.11913246
33	0x3d5ecfe8	0.054397494
34	0x3dad2adb	0.0845544
35	0xbd1a9aef	-0.037745412
36	0x3dc1295a	0.09431715
37	0xbe1e6d29	-0.15471329
38	0xbd8dbe8b	-0.06921109
39	0x3e665441	0.22493078
40	0xbba14185	-0.0049211406
41	0xbd9b1548	-0.075724185
42	0x3bdaad73	0.006673509
43	0x3eac2f4e	0.3362984
44	0xbcad066d	-0.021121228
45	0xbd903ed4	-0.070432335
46	0xbdc5261f	-0.09626412
47	0xbdb742c7	-0.08948284
48	0x3c545188	0.012958892
49	0x3e12e153	0.14343767
50	0x3e361af0	0.17783713
51	0x3cf81435	0.030283073
52	0x3dfd7155	0.12375132
53	0xb9ea3e28	-0.00044678268
54	0x3c808b0d	0.015691305
55	0xbdae1e11	-0.085018285
56	0x3c90ca66	0.017674636
57	0x3da366b7	0.07978576
58	0xbd79cad2	-0.06098444
59	0xbd25b049	-0.04045132
60	0xbd828adb	-0.06374141
61	0xbdaa72b0	-0.08322656
62	0xbe504e91	-0.2034247
63	0xbe0cb704	-0.1374169
64	0x3ceba3e9	0.028764682
65	0x3d6a5dfa	0.05721853
66	0x3d824ba6	0.06362085
67	0x3cd6ebc1	0.026235463
68	0xbec277fe	-0.37982172
69	0x3da39f36	0.079893515
70	0xbcd2b5c3	-0.025721436
71	0x3dc943ab	0.0982736
72	0xbe1040f3	-0.14087276
73	0xbe1e5849	-0.15463366
74	0xbd5b0973	-0.05347581
75	0x3e1a9860	0.15097189
76	0xbde2c17e	-0.11072062
77	0x3e04b05d	0.12957902
78	0x3ca9d529	0.020731525
79	0xbe816718	-0.25273967
80	0x3e538126	0.20654735
81	0x3d9c831a	0.07642193
82	0xbb29d055	-0.002591153
83	0xbe9a15e5	-0.3009483
84	0x3cd0b93e	0.025478955
85	0x3dcd5961	0.10026813
86	0x3e721a16	0.23642763
87	0x3d986fd4	0.074432045
88	0xbd4479fe	-0.047967903
89	0x3d748cc7	0.05970457
90	0xbdc67835	-0.096908964
91	0xbdd8188a	-0.105515555
92	0x3da5bf12	0.080930844
93	0x3db1690d	0.08662615
94	0xbda98e8a	-0.0827914
95	0xbda3f5f1	-0.08005894
96	0x3e26a92f	0.16275476
97	0x3e00daf8	0.1258353
98	0x3d705844	0.058677927
99	0x3ae26fcf	0.0017275753
100	0x3cb07361	0.021539392
101	0xbce555b1	-0.027994962
102	0x3dcf4c77	0.101220064
103	0xbf9ab223	-1.2085613
104	0x3d14a05e	0.03628575
105	0xbdd3d66d	-0.10343633
106	0xbb9fe003	-0.004878999
107	0x3d766bc4	0.060161367
108	0xbdaacae2	-0.08339478
109	0xbcc48593	-0.023989474
110	0xbe358e57	-0.1773008
111	0x3d90df7c	0.07073876
112	0x3d8053a7	0.062659554
113	0x3dd67fa9	0.10473568
114	0x3d124acf	0.035715874
115	0x3e901047	0.2813742
116	0xbc2f0928	-0.010683335
117	0x3e6b8c98	0.23002851
118	0xbdc15021	-0.094391115
119	0x3d1c651a	0.038182355
120	0xbc50b466	-0.012738323
121	0x3d403e4a	0.046934403
122	0x3e075466	0.13215789
123	0xbdd82584	-0.105540305
124	0x3df5aa39	0.11995358
125	0xbd89f2fd	-0.067357995
126	0x3d7087bb	0.058723193
127	0xbda9acb9	-0.08284897
128	0x3d3e64ce	0.046482854
129	0x3d05aaf7	0.032633748
130	0xbeb55785	-0.35418335
131	0x3eb65a2a	0.35615665
132	0xbc92018c	-0.017823003
133	0xbcd7bd31	-0.02633533
134	0x3e2edd81	0.17076685
135	0x3ec0fd6b	0.37693343
136	0x3e1ceef5	0.1532553
137	0xbd9eecd5	-0.07760016
138	0xbcfa8139	-0.030579196
139	0xbd89b9b1	-0.06724871
140	0xbde40692	-0.11134066
141	0xbd90375e	-0.070418105
142	0x3e75c537	0.24001013
143	0x3e751e87	0.23937427
144	0xbdbd4304	-0.09241298
145	0xbcf55d75	-0.02995179
146	0xbd4765ee	-0.048681192
147	0x3d967a4f	0.07347547
148	0x3d36ead8	0.04465756
149	0xbca155b4	-0.019694187
150	0xbd599a73	-0.05312581
151	0xbd73d8ec	-0.059533045
152	0xbd90123c	-0.07034728
153	0x3d4c4c72	0.04987759
154	0xbda6383c	-0.081161946
155	0x3c40e1fa	0.011772627
156	0xbd5b75a3	-0.053578984
157	0x3cdf2e63	0.027243799
158	0xbd3b1d6a	-0.04568235
159	0xba9dbaee	-0.0012033859
160	0xbcdea551	-0.027178438
161	0x3d1d79f5	0.038446385
162	0xbd840e17	-0.06448
163	0x3dc22c05	0.09481052
164	0x3d026780	0.031836987
165	0xbd9bb068	-0.07602006
166	0x3d062cbb	0.032757502
167	0x3c96b1d5	0.018395344
168	0xbd8fb3e2	-0.07016732
169	0xbde527de	-0.11189245
170	0xbc55d552	-0.013051348
171	0x3d8fa347	0.070135646
172	0x3c8398b0	0.016064018
173	0xbcb43882	-0.021999601
174	0xbd5401ca	-0.05175952
175	0x3da4ff1b	0.0805647
176	0xbd66dbe9	-0.056362066
177	0x3da5d5b5	0.08097402
178	0xbddacdb1	-0.10683764
179	0xbd56ef4f	-0.052474316
180	0xbd15d290	-0.03657776
181	0x3d291a6f	0.041284975
182	0xbda44334	-0.080206305
183	0xbd5d5a6f	-0.054041322
184	0xbc92cec9	-0.017920868
185	0xbc7b0893	-0.0153218685
186	0xbdbd67fd	-0.0924835
187	0x3cc7d5bd	0.02439391
188	0xbd88be6b	-0.06676944
189	0xbdbd8e26	-0.09255628
190	0x3cf83e04	0.030303009
191	0xbdb7a82c	-0.08967623
192	0xbde14dc0	-0.11001158
193	0xbd9e11a5	-0.07718209
194	0x3d94e1f8	0.072696626
195	0xbdc7bc50	-0.09752715
196	0x3c9989bc	0.018742435
197	0xbd9a9536	-0.07547991
198	0x3d5ef642	0.05443407
199	0x3d08386d	0.033256937
200	0x3dbf93b2	0.093543425
201	0x3b44a268	0.0030004028
202	0xbd354a48	-0.044260293
203	0x3ce5bd35	0.028044323
204	0x3caeecf4	0.021353222
205	0x3ddaa503	0.10676005
206	0x3db7d132	0.08975448
207	0xbd1498e7	-0.03627863
208	0xbdf59aa2	-0.119923845
209	0x3b9c0876	0.004761751
210	0x3bf37190	0.007429309
211	0x3dcc9e70	0.09991157
212	0x3d07c3c3	0.033145677
213	0xbdb96285	-0.09051994
214	0x3d6ad5ba	0.05733273
215	0xbd63decb	-0.055632394
216	0xbccbcc9b	-0.024877837
217	0xbe5fa202	-0.21839145
218	0x3dce081d	0.10060141
219	0x3ea5fe15	0.32420412
220	0x3d9758a5	0.073899545
221	0xbedd249b	-0.4319199
222	0x3e1cb085	0.15301712
223	0xbef0c873	-0.4702793
224	0xbd2bb9d0	-0.04192525
225	0xbd7fc662	-0.062445052
226	0x3d9363a3	0.071967386
227	0xbebc79b9	-0.36811617
228	0xbeafb1fa	-0.34315473
229	0x3e78f5bf	0.24312495
230	0xbdeb9ab1	-0.115041144
231	0xbdd514a7	-0.1040433
232	0xbd6d1486	-0.0578809
233	0xbd52c6b2	-0.051459022
234	0x3d31ef75	0.043441255
235	0xbd8e4b30	-0.06947935
236	0x3e69ecc7	0.2284423
237	0x3b4756b8	0.0030416679
238	0xbab09011	-0.001347067
239	0xbda08101	-0.078371055
240	0x3e480c80	0.19536018
241	0x3e00d398	0.12580717
242	0x3d3821a3	0.044953953
243	0x3d16c2b1	0.036806766
244	0x3d25cc16	0.040477835
245	0x3dd0ff74	0.10204974
246	0xbcb8d548	-0.022562638
247	0xbd92fa4d	-0.07176647
248	0xbe0b8930	-0.13626552
249	0xbdb97565	-0.09055594
250	0xbc47bdb9	-0.0121912295
251	0xbd5b87eb	-0.05359642
252	0xbd8e780a	-0.069564894
253	0xbda0e293	-0.078557156
254	0x3a61cfc3	0.0008614028
255	0x3daa516d	0.08316312

net.4.bias f4 [36]
0	0x3c9d1e8d	0.019179607
1	0xbe63527a	-0.22199431
2	0xbe02def9	-0.1278037
3	0xbf5c6008	-0.8608403
4	0x3f659cbb	0.89692277
5	0x3ca6cf9c	0.020362668
6	0xbb67af9f	-0.003535248
7	0xbd3b067b	-0.045660477
8	0xbe144fba	-0.14483538
9	0x3f29e899	0.6637054
10	0xbf1bd8c3	-0.6087763
11	0x3f1ecfb2	0.6203567
12	0x3f1b6bf5	0.60711604
13	0x3b6906ee	0.003555711
14	0xbdfd4867	-0.12367325
15	0x3ec4afe8	0.38415456
16	0x3eec03fe	0.46096796
17	0x3d94f145	0.07272581
18	0x3f822053	1.0166115
19	0xbe04fed4	-0.12987834
20	0x3f32b5da	0.69808733
21	0xbe9d5b76	-0.30733842
22	0x3f2467fe	0.6422118
23	0xbf1f23a4	-0.6216376
24	0xbd3e4e0b	-0.046461146
25	0x3ca799bb	0.020459047
26	0x3e4bb74a	0.19894138
27	0x3dbf7e8c	0.09350309
28	0xbddc1374	-0.10745898
29	0xbd955134	-0.07290879
30	0xbeb66616	-0.3562476
31	0xbdc980fb	-0.09839054
32	0x3d6ddbc8	0.058070928
33	0x3ef072e8	0.46962667
34	0xbee35089	-0.4439738
35	0x3e172cb2	0.14763144

net.6.weight f4 [8, 36]
0	0xbd36d5c9	-0.044637475
1	0x3cef218f	0.029190807
2	0x3e111704	0.14168936
3	0xbd9b9c61	-0.07598186
4	0x3f11043b	0.5664708
5	0x3d675e15	0.056486208
6	0x3ca1b6af	0.01974043
7	0x3dcd4470	0.10022819
8	0xbd710eaf	-0.058851894
9	0x3b718e54	0.0036858516
10	0xbcae04dc	-0.021242552
11	0x3d88bd21	0.066766985
12	0x3e8960a1	0.26831535
13	0x3e63d622	0.22249654
14	0xbe6df947	-0.23239623
15	0x3dd6fb09	0.104971
16	0x3e05569f	0.13021325
17	0xbe109d34	-0.14122468
18	0x3de0ffed	0.10986314
19	0x3dc0a1b3	0.09405842
20	0xbb9be336	-0.0047573103
21	0xbe807a95	-0.25093523
22	0x3da7739c	0.081763476
23	0x3ad178e9	0.0015981469
24	0xbdd456d0	-0.10368121
25	0xbe85daf3	-0.26143607
26	0xbd83c54b	-0.06434115
27	0x3d8dd154	0.06924692
28	0xb9169556	-0.00014360747
29	0xbb82d03e	-0.0039921096
30	0xbd743d2b	-0.059628647
31	0xbdd223d6	-0.102607414
32	0xbde2bf31	-0.11071623
33	0xbd003368	-0.031299025
34	0xbe4d85a9	-0.20070519
35	0xbdcc9a97	-0.09990423
36	0xbe856b6f	-0.26058528
37	0x3d0ea4ba	0.034825064
38	0x3d2f86b0	0.042853057
39	0x3e2f315d	0.17108674
40	0x3f45fe21	0.77340895
41	0x3de2cb51	0.11073936
42	0xbcf1b82a	-0.029506762
43	0x3d904b61	0.070456274
44	0xbc930974	-0.017948844
45	0x3ce08177	0.027405484
46	0xbcf6a380	-0.03010726
47	0xbd19b479	-0.037525628
48	0x3e0940b6	0.13403592
49	0x3e3a9f18	0.18224752
50	0xbdfbb179	-0.122897096
51	0xbe82daa0	-0.25557423
52	0x3c79eda2	0.01525441
53	0xbd9583ed	-0.073005535
54	0x3d5fd177	0.05464312
55	0xbd92a604	-0.07160571
56	0x3dba3ca6	0.09093599
57	0xbe327ccd	-0.1743042
58	0xbf459fc8	-0.7719693
59	0xbda87b04	-0.08226588
60	0x3dbd5a43	0.09245732
61	0x3dc0aaf4	0.09407607
62	0xbe0a3032	-0.13494948
63	0xbe1fca2d	-0.15604468
64	0x3c43daeb	0.01195405
65	0x3e0c829f	0.13721703
66	0xbda52163	-0.08063009
67	0xbdc77181	-0.09738446
68	0xbd5bbb8d	-0.05364566
69	0x3c5d8aab	0.013521831
70	0x3e542513	0.20717268
71	0x3b985afd	0.0046495185
72	0xbdff2260	-0.124577284
73	0xbcf1b015	-0.029502908
74	0x3dbc794c	0.09202823
75	0xbe90b27a	-0.28261167
76	0xbc9b2e07	-0.018942846
77	0x3d5279be	0.051385634
78	0xbe01a52e	-0.12660667
79	0xbd51b341	-0.05119634
80	0x3e56c394	0.20973045
81	0xbd83bebb	-0.06432863
82	0xbe0296f0	-0.1275289
83	0x3da89c9f	0.08232998
84	0x3dc1c9e5	0.094623365
85	0xbda8346e	-0.08213125
86	0x3ca68953	0.020329153
87	0x3d1bc622	0.03803075
88	0x3d66b85a	0.056328155
89	0x3ddcd021	0.10781885
90	0x3db208ef	0.0869311
91	0xbe03f80e	-0.12887594
92	0x3a45df77	0.00075482525
93	0xbda47da5	-0.08031777
94	0x3d3dcb6f	0.046336588
95	0xbd2e7f7d	-0.04260205
96	0x3e50cb77	0.20390116
97	0xbd7006f8	-0.058600396
98	0x3d7b5f70	0.061370313
99	0xbda9ce31	-0.08291281
100	0xbcf511f6	-0.029915791
101	0x3df65b37	0.120291166
102	0xbda3f985	-0.080065764
103	0x3d89c3a3	0.06726768
104	0xbd4322b8	-0.047640532
105	0xbdf95e5c	-0.12176201
106	0x3e3419ba	0.17587939
107	0xbe5c3a40	-0.21506596
108	0x3db281a2	0.08716132
109	0x3e65fa98	0.22458875
110	0xbd8800e3	-0.06640794
111	0x3e7fb3b8	0.24970901
112	0x3ee8acec	0.4544443
113	0x3ca1e4ad	0.019762361
114	0xbdc25007	-0.0948792
115	0x3da08172	0.0783719
116	0xbd96ffbf	-0.073729984
117	0x3e8baad5	0.27278772
118	0x3d6a7095	0.057236273
119	0x3e1c4638	0.15261161
120	0x3e1b93f5	0.1519316
121	0xbd8b0d36	-0.06789629
122	0xbdb808f4	-0.08986083
123	0x3e2cd8b5	0.16879542
124	0x3dabdbe7	0.083915524
125	0x3dcbe9db	0.09956714
126	0x3e2692fa	0.16267005
127	0xbcaa5bb1	-0.020795675
128	0x3e3bcaff	0.18339156
129	0xbd4f796d	-0.05065291
130	0x3e92f0a5	0.28699222
131	0x3ce789ec	0.028264008
132	0x3d9ddec0	0.07708502
133	0x3e4375f9	0.19087972
134	0x3e4124e6	0.18861732
135	0xbdf0a314	-0.11749855
136	0x3e23de2b	0.16002719
137	0xbd164a7d	-0.03669213
138	0xbdaac36c	-0.08338055
139	0xbdaf1f19	-0.08550853
140	0xbe23836b	-0.159681
141	0x3e047a40	0.1293726
142	0xbd8f4c0a	-0.06996925
143	0x3e6bc5bd	0.2302465
144	0x3d975c52	0.073906556
145	0xbdbe929e	-0.09305309
146	0xbde4f481	-0.11179448
147	0xbcc80924	-0.024418421
148	0xbd1b5749	-0.03792504
149	0xbd617626	-0.055044316
150	0x3e1cb764	0.15304333
151	0xbe14708a	-0.14496055
152	0xbe36ade8	-0.17839777
153	0xbcd5baaf	-0.026089994
154	0xbc703659	-0.014661395
155	0xbd86d7af	-0.06584107
156	0xbd24353d	-0.040089834
157	0xbd6026f4	-0.05472465
158	0xbe220162	-0.1582084
159	0xbd832117	-0.06402796
160	0xbdd07f5a	-0.101805404
161	0xbddd06be	-0.107923016
162	0xbd8f0936	-0.06984179
163	0x3d9efa66	0.077626035
164	0x3db4892f	0.08815228
165	0x3db426d3	0.08796468
166	0xbd16746e	-0.03673213
167	0xbd9d603f	-0.07684373
168	0x3dfc563e	0.12321137
169	0x3da891a9	0.082309075
170	0x3d76f868	0.060295492
171	0x3e0e00f7	0.13867556
172	0x3d17f02b	0.037094276
173	0x3e1a49da	0.15067235
174	0x3c542082	0.012947204
175	0x3e100c62	0.14067224
176	0x3d5c0930	0.0537197
177	0x3d03b3af	0.03215378
178	0x3dfae352	0.12250389
179	0xbe0332de	-0.12812373
180	0xbef0c7ef	-0.47027537
181	0xbeeaa8c7	-0.45831892
182	0x3d84d4ac	0.064858764
183	0xba5e2428	-0.00084740156
184	0x3e554414	0.20826751
185	0x3e1b054f	0.15138744
186	0x3e02346e	0.12715313
187	0xbd1cdf12	-0.038298674
188	0x3d939d36	0.0720772
189	0x3f016a8f	0.5055322
190	0x3e8bd10c	0.27307928
191	0x3d2eca67	0.042673495
192	0x3c0a970a	0.008458862
193	0xbb81e86f	-0.003964476
194	0x3db0a254	0.08624712
195	0x3e33d9b2	0.17563513
196	0xbd1ebd20	-0.038754582
197	0xbd3b627f	-0.04574823
198	0x3cfd0122	0.03088433
199	0x3ded27d9	0.11579866
200	0x3e07dea2	0.13268521
201	0xbcf7e7a9	-0.030261831
202	0x3e6677af	0.22506593
203	0xbd4944ae	-0.049137764
204	0xbd63a7f6	-0.055580102
205	0xbf7977a5	-0.9744819
206	0x3e3c46f8	0.18386447
207	0x3d385be1	0.045009498
208	0xbda53bae	-0.080680236
209	0xbe3a340d	-0.18183918
210	0xbe2d8b4e	-0.16947672
211	0x3e0d15df	0.13777874
212	0xbdf1aa32	-0.1180004
213	0x3d0be94a	0.03415803
214	0x3db8fe48	0.09032875
215	0xbf83f6f2	-1.0309737
216	0xbd50b6a5	-0.050955433
217	0xbe0415d6	-0.12898955
218	0xbd9ec6d8	-0.0775277
219	0xbee0bfea	-0.4389642
220	0x3e60ccda	0.21953145
221	0xbc463421	-0.012097389
222	0x3dd24583	0.102671646
223	0x3c9c6480	0.01909089
224	0x3e8009cc	0.25007474
225	0x3e311e62	0.17296746
226	0xbe0a3eb9	-0.1350049
227	0x3d9c4285	0.07629875
228	0x3d16628d	0.03671508
229	0xbe0d9ae6	-0.1382862
230	0xbd68629f	-0.056734677
231	0x3e376904	0.17911154
232	0xbc94f3d3	-0.01818267
233	0xbd2db7f0	-0.042411745
234	0x3e28b4a7	0.16475163
235	0x3e0575f2	0.13033274
236	0x3e469af9	0.19395055
237	0x3e03dba3	0.12876754
238	0x3e3e272f	0.18569635
239	0xbc368c2c	-0.011141818
240	0x3c3d98c6	0.011572069
241	0xbdb672ff	-0.089086525
242	0x3e8da603	0.2766572
243	0xbc5b2967	-0.01337657
244	0xbdf6ff46	-0.12060408
245	0xbd171c1a	-0.036892034
246	0xbe9d81b3	-0.30763015
247	0xbd9aad78	-0.07552618
248	0xbe14b297	-0.14521252
249	0x3d1f6b45	0.03892066
250	0x3d692d6d	0.056928087
251	0xbdc1d068	-0.094635785
252	0xbe722469	-0.23646702
253	0x3d81b58c	0.063334554
254	0xbe38d3f3	-0.18049602
255	0xbe1c5f73	-0.15270786

net.6.bias f4 [8]
0	0x3c7a5126	0.015278136
1	0x3e47ae1e	0.19500014
2	0x3e677ae2	0.2260547
3	0x3f13c608	0.57724047
4	0xbe3eca9f	-0.18631981
5	0xbf781e30	-0.9692106
6	0x3f8516b8	1.0397558
7	0xbeb5a5f3	-0.35478172

net.8.weight f4 [3, 8]
0	0xbde2b3e3	-0.11069467
1	0xbc094b14	-0.008379716
2	0xbe149eb2	-0.14513662
3	0x3ea1d949	0.31611088
4	0x3b5d00d0	0.0033722408
5	0xbfaf6274	-1.370192
6	0xbe7ee5e5	-0.24892385
7	0xbf45d146	-0.7727245
8	0xbf4bda2e	-0.7962979
9	0x3fc0f942	1.5076067
10	0x3dba5829	0.090988465
11	0xbecb11b8	-0.39661956
12	0xbe203f39	-0.15649118
13	0x3df933a5	0.121680535
14	0xbe7690cf	-0.24078678
15	0x3ebb8cc8	0.36630845
16	0xbe043b4e	-0.12913248
17	0xbd08f921	-0.033440713
18	0x3dc56bb8	0.09639686
19	0x3e30c726	0.17263469
20	0x3e9d4dcc	0.30723417
21	0xbe98fd3e	-0.29880708
22	0x3db4c34b	0.08826312
23	0xbe400bca	-0.18754497

net.8.bias f4 [3]
0	0xbe9cfa81	-0.3065987
1	0xbe5c927a	-0.21540251
2	0x3f03eea0	0.5153599
