XMFlib/PairProbML/models/mlp_a2p_100_paa_lr0.001_hl16-32-64-128-128-64-32-16.pt (torch, 160524 bytes, 17 tensors)

net.0.weight f4 [16, 2]
00000000: 8e62 c8be 9c0c 28bf 7549 923e 2431 6f3f
00000010: e963 ce3e 0885 313f f3ce f63e 4dab 3e3f
00000020: 9ada 733e c2a4 1cbf 7cdd 3f3e 7214 b0be
00000030: 0659 d33d c1ba 113e f4e6 ac3b 8ec6 dc3d
00000040: 4baf 2e3e 1afa 6ebe 28c4 42bf 06e1 c23e
00000050: 3f65 483f 2c0d ca3e c9fb 1f3f 05e2 f8bd
00000060: ae20 003f 42da 033d f752 2ebe 7f26 06bd
00000070: b3dc 273e 0a04 193f aab2 f73c c73d d9be
-0.3913769 -0.6564424 0.28571668 0.9343436 0.403106 0.69343615 0.48204765 0.74480134
0.23813859 -0.611889 0.18736833 -0.343906 0.10319714 0.14231397 0.005276555 0.10780059
0.17059056 -0.23337594 -0.7608056 0.38062304 0.7827949 0.39463174 0.6249357 -0.12152485
0.50049865 0.03219057 -0.17023836 -0.032751556 0.16392784 0.5977179 0.03023656 -0.42429945

net.0.bias f4 [16]
00000000: d7ad 33be 54c0 edbb 52ff 263f 45df 2b3e
00000010: 0d8e ecbe c90d 0dbf 36f0 d53e e407 5abe
00000020: 09fa 383f 1674 273f 2afa e33e 10d5 88be
00000030: 4aa9 983e 1280 f3be f801 dabe dd70 2e3f
-0.17546783 -0.0072555933 0.6523334 0.1678439 -0.46202126 -0.5509916 0.4178483 -0.21292073
0.72256523 0.6541151 0.44526798 -0.26725054 0.29816657 -0.47558647 -0.42579627 0.68140966

net.2.weight f4 [32, 16]
00000000: a156 c13d 6ca5 463d b7cc 7fbb 5f2a 78be
00000010: dc61 bc3e 9a0f 433d fba3 353d 8aa3 063e
00000020: ebe0 bb3c 877b 0ebd 3d1a 9fbd cd52 83bd
00000030: d408 eabd 72ef 763e 3881 e3be 367a d93d
00000040: 13a9 623c e74b e63d 3cbf 07be cd59 d53c
00000050: ab8d 933d 17d6 6c3e d1ef da3d c68b dcbd
00000060: 8f8f 15bd 70e7 3fbe ed30 2b3e 4d34 1f3e
00000070: 2d6e 3fbe 402c 1f3e a33d 553e 7689 aaba
00000080: 4c1c 1c3e 542c 5ebe 17c2 56ba a667 5ebe
00000090: 8de4 ab3c b90f 9e3d 47c2 5fbe f4d3 633e
000000a0: 35fc 2bbd f263 dd3d a965 09be 14ff 58be
000000b0: 668c 303e f0f5 b6bc 8061 9d3b 1580 4abe
000000c0: 1322 5fbd 67bb 95be ee66 0abe 8611 35bd
000000d0: 27e4 733e 77f9 6b3d 39d7 ed3c fbed 5dbd
000000e0: ba56 fc3d 4972 79be 5cdf d2bc 7eee fd3d
000000f0: c769 3c3d 8059 203d e5ce 97be d9d6 4c3e
00000100: 2a6f c1bd 2cfc d13d f1ed cfbd 2225 1a3d
00000110: 324f 84be 1b80 1fbe d904 6dbe a2d0 ecbd
00000120: 30e0 f63d 6256 0c3e 662f 80bc 1191 7f3e
00000130: 6eda 503e e0c4 3abd f9ba 23be d950 5bbd
00000140: 3d0e 9cbd ee56 7dbe be36 3a3e 011f 3cbe
00000150: ad28 af3e 7d52 f03e 6d73 57be 08c4 693e
00000160: 9420 91bd c6b7 4bbe bb21 d2bd c8c2 ca3e
00000170: 9b9b dfbd a0c8 d43d 3a67 f8be 726d 51bc
00000180: dabe ee3d 7596 44be 8d96 89bd 1dcf 3cbe
00000190: 84c9 353e f9cf 19bd a77e ce3d 6860 51bd
000001a0: 4acd 33be 3867 73bd 3e45 c03c a581 8e3e
000001b0: 5efd 7a3e f6f5 37be a752 8c3e b1fd 593e
000001c0: 1b34 d13d fd86 4cbe b90d 56be 1f14 31be
000001d0: c9be 913e f574 83be 7984 8b3d 10a2 09be
000001e0: b96d 30bd a503 bc3d e5b5 33be faea 8dbe
000001f0: 9845 50be 80c0 5fbc 598a 28be c1f9 013e
00000200: a0be 6d3e fa88 cb3d 878f 913e ab9f 0cbe
00000210: 945d 8abd a396 3cbe 0ac3 2f3e 4924 403d
00000220: 1ea0 b53d 1686 913e 2fab 863b 3371 94bc
00000230: f390 9a3d 08ee 673e fe2c 253e 10ea 3abe
00000240: b0d2 563e 0903 383e e632 5bbe c80e 313d
00000250: 1585 943e 11e4 0c3e 8464 31be 268f 523e
00000260: ada9 dc3c 6393 b43e 8706 2dbe c753 283e
00000270: 09ca c2be 6c37 933d 623c fc3d a321 8dbd
00000280: 9275 19be 4a9f 7dbe 0205 35be 245d f33d
00000290: a801 3ebe 8054 703b b02c 133d 24f9 15be
000002a0: 6c6d bb3d eeff 62be ccdf d33d 4433 3b3e
000002b0: 36bc 29be 3a95 2cbe 487c 0c3e 108d 5cbe
000002c0: e4a1 a1be 52aa 6a3d 948e 253e ed7b dbbd
000002d0: 1437 8abd 2177 c93e 10b7 7b3e c232 cc3d
000002e0: a1dc 953d ffa4 f83d eb71 003d b6d1 e43d
000002f0: 7aeb ef3d a0b0 f13d 6c3c fdbd 2053 bdbd
00000300: fed7 a2be 31d2 18bf 613e 13be 97af 5cbe
00000310: 853f 893e 39b6 d2bc 8ccb 97bc 9806 02be
00000320: 135f f63d 0545 8dbd 2449 3e3e 4b27 b73d
00000330: 6970 34be e813 22bd 7c3e c7bd eb69 8cb9
00000340: 7440 17be 0c73 463e 9dad d83d 9eec 9d3c
00000350: b50c 3bbc 6427 03bf ae69 abbd 0567 b43b
00000360: 173b a6bb 42c0 96be b5a7 20be c55e 533e
00000370: 1060 e1bb a061 6bbe fa09 bcbc 62e6 32be
00000380: aea5 b73d 3f60 a4bd b2cd 153e d611 5cbd
00000390: acc4 91be e847 063c af96 2bbd d458 473d
000003a0: 441b 5f3e 4c35 583d 18b9 1bbe 71f8 34be
000003b0: 8288 8fbd 628a 2abe 78e3 56bf d347 0f3e
000003c0: dc44 0ebd 59bb 443e 3ef4 e5bc 6cf5 083e
000003d0: bad5 153d 9131 f7bc d917 36be 57c6 b3bb
000003e0: c667 84be 9433 afbd 4517 14bd 374b 963c
000003f0: 76d9 24bc 146e 543e 2946 853e 6b18 b93d
0.09440351 0.048497602 -0.0039031932 -0.24234913 0.3679341 0.0476223 0.044345837 0.13148323
0.022934398 -0.034785774 -0.077686764 -0.06412277 -0.11427465 0.24114779 -0.44434524 0.10619013
0.013834256 0.11244946 -0.13256544 0.026043797 0.072047554 0.23128544 0.106902726 -0.10768847
-0.03651386 -0.1874063 0.16717882 0.15547295 -0.18694372 0.15544224 0.20824294 -0.0013010937
0.1524517 -0.21696597 -0.0008192374 -0.21719226 0.020983005 0.077178426 -0.21851455 0.22248822
-0.04198857 0.10810079 -0.13417687 -0.21191055 0.17241058 -0.022334069 0.0048028827 -0.19775422
-0.054475855 -0.2924454 -0.13515827 -0.044206165 0.23817502 0.057610955 0.02903329 -0.054182034
0.12321229 -0.24360003 -0.025741272 0.123990044 0.045999315 0.039147854 -0.29650036 0.20003833
-0.09445031 0.10253176 -0.101528056 0.03763307 -0.2584167 -0.15576212 -0.2314638 -0.11563231
0.12054479 0.13704827 -0.015647601 0.24957682 0.20395824 -0.04559791 -0.15989293 -0.0535439
-0.07619903 -0.24740192 0.18184945 -0.18371202 0.3421072 0.46937934 -0.21040125 0.22828686
-0.07086292 -0.19894323 -0.1026034 0.3960173 -0.10918351 0.10389829 -0.48516256 -0.012782441
0.11657496 -0.1919802 -0.067181684 -0.18438382 0.17752653 -0.037551854 0.10082751 -0.05111733
-0.1755878 -0.05942461 0.023470517 0.27833286 0.24510714 -0.1796492 0.2740681 0.21288182
0.102150165 -0.19973369 -0.20903672 -0.17292832 0.2846587 -0.2567517 0.068123765 -0.13440728
-0.04307339 0.09180383 -0.17549856 -0.27718335 -0.20339048 -0.013656735 -0.16459025 0.1269293
0.23217249 0.099382356 0.28429815 -0.13732783 -0.0675613 -0.18416838 0.17164245 0.046909604
0.088684306 0.28422612 0.004109762 -0.018120384 0.07547178 0.22649395 0.16130444 -0.1825335
0.20978808 0.17969908 -0.21406135 0.043226987 0.29007784 0.13758875 -0.173235 0.2056242
0.026936376 0.35268697 -0.16897021 0.16438209 -0.38044766 0.07188305 0.123162046 -0.06891181
-0.14986256 -0.24767795 -0.17677692 0.118829995 -0.1855532 0.003667146 0.03593129 -0.14645821
0.0915173 -0.22167942 0.1034542 0.18281275 -0.16575703 -0.168538 0.13719285 -0.21538186
-0.31568825 0.057291336 0.1616767 -0.10716996 -0.067487866 0.393487 0.24581552 0.09970619
0.07317472 0.121408455 0.03135864 0.11172812 0.117148355 0.11801267 -0.1236504 -0.092443705
-0.31805414 -0.59695727 -0.14379264 -0.21551357 0.26806274 -0.025721656 -0.018529676 -0.12697828
0.12029853 -0.0689793 0.18582588 0.089430414 -0.17621006 -0.039569765 -0.09728715 -0.00026781796
-0.1477068 0.19379824 0.10579989 0.019277867 -0.011416604 -0.5123198 -0.08369766 0.005505445
-0.005072962 -0.29443556 -0.15688975 0.2064162 -0.0068779066 -0.2298646 -0.022953976 -0.17470697
0.08967148 -0.0802617 0.14629248 -0.053727947 -0.2847036 0.008195855 -0.04189175 0.048668697
0.21787745 0.052785203 -0.15207326 -0.17672898 -0.07008459 -0.16654351 -0.8394084 0.13992243
-0.03473364 0.19212092 -0.028070565 0.13374871 0.03658078 -0.030175002 -0.17782535 -0.0054862904
-0.25860423 -0.085547596 -0.036155004 0.018346412 -0.010061612 0.20745116 0.2603009 0.090378605

net.2.bias f4 [32]
00000000: fed3 5c3e 1a86 783e b5d1 a83d 2ca8 d73d
00000010: 689f e8bd b1dc 093e 1e07 1d3e 7b44 763e
00000020: 44c1 11bc 444c cfbd da62 03be e1eb e1bd
00000030: 8507 463e 1f96 bcbe 6664 a9bd 1bfa db3d
00000040: 075b 1e3e d671 57bc 9928 713e 425d 5b3e
00000050: 8cc1 213d 878f 8dbd 94fb 1cbe b492 3ebd
00000060: 5e0e 623d a4e7 b73d 57c3 273e cee3 a4ba
00000070: 1d76 ac3d 3b56 70bd 4804 093e 4e51 413e
0.21565244 0.24269906 0.082431234 0.10530123 -0.11358529 0.13463093 0.15334746 0.2404956
-0.008896176 -0.101219684 -0.12830678 -0.110313185 0.19338806 -0.36833283 -0.082711026 0.10741063
0.15464412 -0.013149699 0.23550643 0.21422294 0.03949122 -0.06912141 -0.15330344 -0.046526626
0.055189483 0.08979729 0.1638311 -0.0012580098 0.08420966 -0.058675986 0.1338054 0.18878672

net.4.weight f4 [64, 32]
00000000: ec3f b0bd 945f 85be 8f27 1ebe 2c9f 04bd
00000010: 700b e8bd bcbe 893d ef0e 52be a556 80bd
00000020: ce24 fd3d b586 9f3d 9c3c a5bd 5610 94bd
00000030: dbd5 7e3d b42a d33d c274 2c3e b9ea 05be
00000040: 05db c23d 0e38 78bc baf4 35be 5517 a93c
00000050: 4d0e bbbd eb7d 373d 0d09 bb3b 3cd6 0bbe
00000060: da76 babe 74ec 8c3e c928 d8bb b114 1c3e
00000070: 9983 0dbe c1ba a4be 0adc 10bb 6b34 1b3e
00000080: 31e6 8cbd 280a d63d 4eaf 443c 84fb 4d3c
00000090: 1ff8 dabd dbe5 f4bb 3034 b43d d3ab 143d
000000a0: 7359 aabd c4aa 63bd 3e3e 4bbd cc85 893d
000000b0: d835 323e 9d50 9b3a 5fb1 203d 66d0 3dbd
000000c0: bf17 fabd 71f9 b33c b581 30be 1148 273c
000000d0: d4f7 eebd 605d 2abe 3d46 16be b8aa ba3d
000000e0: a8c7 ecbd e4bf 0fbd 25f4 58bc 80da 0abe
000000f0: 5da8 b43d cac6 bfbd d082 e83d 797a 23be
00000100: 2170 90bd 1a28 f2bd 63e1 adbc 9cf7 233e
00000110: df31 c9bc 3c81 b9bd 25b6 3d3d 4d1d f0bd
00000120: 84b1 f73d 4a12 17be 0e9f b53d 56c3 20be
00000130: 01ed b73d 65af d7bd 081e 05bd 9906 0ebe
00000140: b54e b4bd 9c5d 04be 05ed b33d f56c 693d
00000150: d719 fabd 5e37 01be 4d91 a4bd 5c4d fabd
00000160: 709a e2bc 86b8 a63c d09a 01be 1dcb 2cbe
00000170: dea8 0fbd 1f4a 9cbd a301 973d 1568 b93d
00000180: c632 a5bd a1c5 bebc 6f09 c6bc a4b0 f93d
00000190: 2023 e13c 0e58 d1bd 506b 0fbe bb09 24be
000001a0: dcb1 8dbd 1c97 483d 8bc2 4a3d 2b56 1cbe
000001b0: 72a8 c4bd 9dd2 033e 4d61 c3bd d94e 803d
000001c0: 2d52 7d39 8d54 e6bd f80a cb3d f869 d0bc
000001d0: b3df ad3c 2839 34bd 4173 dc3d a67b 193e
000001e0: dc46 ef3d cee4 0dbd f49b 75bc 7349 f0bd
000001f0: 6111 2ebe 3bca 683d fb97 bebd c6a0 79bc
00000200: cbf7 ecbd ddc1 a3bd b70a fdbd 01c0 a43d
00000210: 2df6 04be 5de4 a8bd 8b09 6c3d d11c 30be
00000220: 509a eebd 4547 133e 38f6 e3bd 62a2 f83d
00000230: d870 6dbd 14ca b7bd e87c 97bd a93e f33d
00000240: 068b b1bd 7f47 2d3e e325 263d cc2e 10be
00000250: 3034 23be 06c5 7bbd eda5 d53d 0d24 dfbd
00000260: 33a0 90bd 9c0b 8bbd 9d28 83bb 0857 f8bd
00000270: 7812 203e b908 f7bd 0650 f23d 4ff3 20be
00000280: d9b4 9d3c cfa0 323e f9f6 54bc 2a5c 223e
00000290: 0489 06be 71ae b63e 4323 c73d cad5 f2bd
000002a0: ea69 543d 69d0 2d3c dcb8 473d 2f99 cd3d
000002b0: 60d4 65bc 2cd9 233e 1ef1 083e 588d a23d
000002c0: ddfa 25bd e1f8 f43d 96de b13d 55d9 f43b
000002d0: 958a 4b3e c1b5 28be 000f 9cbd 8204 98bd
000002e0: 0caf 7bbd ce79 f1bd 06fd 5e3e ae20 8bbc
000002f0: 2416 193d ca39 7f3d 5faf 1cbc d549 ba3b
00000300: 25ce 28be 8fc3 973d 0bc6 6a3d 5a08 9abd
00000310: 60ac 0fbd b4bb 21be 978c 813c b2e9 453d
00000320: 8f41 033e 9e6a 263e ed1c a43d 1001 77bd
00000330: 9c00 26bd 44fb 393c 1cb6 d5bc e1f9 16be
00000340: b5da db3c 0738 f43c 8f5a 213d b257 b3bd
00000350: ab3d 063e 85ff 14be 2932 b53c b473 e4bd
00000360: de4c e33d bdff edbc c649 02be 99eb 37be
00000370: e91f dd3d 18e1 c3bd 7c37 dbbd e6a7 33be
00000380: bd46 1a3e c10a 2dbe ea61 b0bd 83c4 063d
00000390: 751d 933d e648 263e 3dd3 24be 0194 c4bd
000003a0: afe4 ef3d f481 1abc ba38 1e3e 4efc 21be
000003b0: 14ce 523d 2bd1 32be adf4 22be 8fe2 eabd
000003c0: e4e0 3cbe 163a 15be 0185 19be e218 13bc
000003d0: 1188 29be 9d49 94bd 8efc e03d 6b44 b0bd
000003e0: 285b bc3d ee4c bf3d 3575 fcbc 5217 d53d
000003f0: 255b 093e a9e7 063d 63fc e13d 189b d2ba
-0.08605942 -0.26049483 -0.15444778 -0.03237836 -0.113303065 0.06725833 -0.20513509 -0.06266526
0.123605356 0.07789365 -0.08068201 -0.07229678 0.062215667 0.10310879 0.16841415 -0.13077821
0.09514431 -0.015150083 -0.17769137 0.020641008 -0.09133587 0.04479782 0.005707866 -0.13655943
-0.36418802 0.2752415 -0.006596659 0.15242268 -0.13819732 -0.32173732 -0.002210381 0.15156715
-0.06879843 0.10451156 0.0120046865 0.012572173 -0.106918566 -0.00747369 0.087990165 0.036296677
-0.08317842 -0.055582777 -0.049619906 0.06714973 0.17403352 0.0011849586 0.039231654 -0.046341322
-0.122115605 0.021969529 -0.1723698 0.010210053 -0.11668363 -0.16637182 -0.14675231 0.09114593
-0.11561519 -0.03509511 -0.013241802 -0.13559914 0.08821175 -0.09364088 0.113530755 -0.15964688
-0.07052637 -0.11824055 -0.021225637 0.16012424 -0.024559913 -0.090578526 0.046316285 -0.11724339
0.12094405 -0.1475307 0.08868228 -0.15699515 0.08980752 -0.10531501 -0.032499343 -0.13869704
-0.08804075 -0.12926334 0.08785442 0.056988675 -0.1221196 -0.12618777 -0.080355264 -0.122217864
-0.027661532 0.02035166 -0.12656713 -0.16874357 -0.035073154 -0.07631325 0.07373359 0.09053055
-0.08066325 -0.023287596 -0.02417442 0.12191895 0.02748257 -0.10221873 -0.1400578 -0.16019337
-0.069186896 0.048972234 0.049501937 -0.15267245 -0.09602441 0.12873311 -0.09540043 0.06265039
0.00024158573 -0.112465955 0.099142015 -0.025441155 0.021224832 -0.04399982 0.107641704 0.14988574
0.11683437 -0.034642033 -0.014990795 -0.11732759 -0.16998817 0.056833487 -0.09306332 -0.015236085
-0.115707 -0.07995961 -0.12355559 0.08044434 -0.12984534 -0.08246682 0.05762629 -0.17198493
-0.116505265 0.14382656 -0.11130947 0.12140347 -0.057968944 -0.0897409 -0.07396871 0.11877186
-0.08669095 0.16921805 0.040563475 -0.14080352 -0.15937877 -0.061467193 0.104320385 -0.10895548
-0.070618056 -0.06789324 -0.004002644 -0.12125975 0.15632045 -0.120622106 0.118316695 -0.15717815
0.019251274 0.17444156 -0.012998336 0.1585547 -0.13138205 0.35679963 0.097235225 -0.11857183
0.05185882 0.010608771 0.04876028 0.10038983 -0.014027685 0.16000813 0.13373229 0.079371154
-0.040522445 0.119615324 0.08685033 0.007472197 0.19877084 -0.16475584 -0.076200485 -0.07422735
-0.061446235 -0.117908105 0.21776208 -0.016983356 0.03737463 0.06231097 -0.009563296 0.005685071
-0.16484888 0.07410347 0.057317775 -0.07521124 -0.0350765 -0.1579426 0.015814109 0.048318572
0.12817977 0.16251609 0.0801333 -0.060303748 -0.040527925 0.01135141 -0.026087813 -0.14743759
0.026837686 0.029811872 0.039393004 -0.08756961 0.13109462 -0.14550598 0.022118645 -0.11154881
0.11098646 -0.02905261 -0.12723455 -0.17960967 0.10797102 -0.095644176 -0.10703942 -0.17544517
0.15066047 -0.16898634 -0.086124256 0.032902252 0.07183353 0.16238746 -0.16096206 -0.09598542
0.1171354 -0.009430397 0.15451327 -0.15818903 0.051466063 -0.17462604 -0.15913649 -0.11468994
-0.18445164 -0.1457294 -0.14992143 -0.0089781005 -0.16555811 -0.07240603 0.10985671 -0.086068
0.09197074 0.09340845 -0.030817607 0.104048386 0.13413675 0.032935772 0.11034467 -0.001606795

net.4.bias f4 [64]
00000000: 89a9 0abd 6983 03be 8135 453c 4966 5abd
00000010: cc08 2ebe fae4 aabd 151b 1d3c b23f c1bd
00000020: b751 12be 2e68 03bd 22d9 083e a6de 3b3c
00000030: 8690 013c 28d6 253e fa66 34be 6011 2e3c
00000040: 7da1 df3c 71c0 e43d 2444 373e 240e bbbd
00000050: 1c65 d5bd 1afa 353d 0e69 debd 3b2b 95bd
00000060: 63f5 3fbd e52a 26be 9883 c33d 5e5c 02be
00000070: dc84 22bd 4fda d2bd 4e75 903d 051a e83c
00000080: 04b1 82bd b870 04be 2c26 c63d b890 c8bb
00000090: 83c6 12be 56e6 553d c589 0fbd 3d2f 89bd
000000a0: 5640 b53d 4aab 15be b154 14bd 340d 4dbd
000000b0: 4530 ab3d 5bab bfbd e9d7 603e c973 393e
000000c0: 2343 6b3c a026 fe3c fbdc d4bd 10fb 493d
000000d0: 2336 0c3d fbea fabd 7069 59be 1d4c f13d
000000e0: 20dc 043e b0cb 3f3e 9ba3 843d 9380 2c3e
000000f0: bf46 973d b4ab 883d f19f 8d3d 734a 87bd
-0.033853088 -0.12843098 0.012036682 -0.053320203 -0.16995543 -0.08344455 0.009588976 -0.09435977
-0.14288984 -0.032081775 0.1336408 0.011466658 0.007907992 0.16194975 -0.17617407 0.01062426
0.027298683 0.11169518 0.17897087 -0.091335565 -0.10419676 0.04442797 -0.10859881 -0.07283636
-0.04686488 -0.162273 0.09546584 -0.12730548 -0.039677486 -0.10295545 0.07053624 0.02833272
-0.06381419 -0.12933624 0.096752495 -0.0061207674 -0.14333539 0.05222162 -0.035043497 -0.06698463
0.08850162 -0.14616123 -0.03621358 -0.05006142 0.08358816 -0.09358855 0.21957363 0.18110575
0.014359268 0.031024277 -0.10393711 0.049311697 0.034231316 -0.1225185 -0.21231627 0.117820956
0.12974596 0.18730044 0.06476518 0.16845922 0.073865406 0.06673375 0.06915272 -0.06605997

net.6.weight f4 [128, 64]
00000000: 6c40 f8bb e8aa c23c f60e 873d b0ae 62bd
00000010: 80b4 f33b 2088 fb3c 0c1c ebbd 8a82 c6bd
00000020: c5a7 71bd f4ef 4ebc 7dda ae3d 7670 6bbd
00000030: 1c9f bc3d 59a1 e5bd ccd3 5abd 0766 62bc
00000040: 9c0c 8ebd 3900 483d 45b4 e23c 07f2 113e
00000050: 37f3 4d3e 24ef 253e 3091 3abd 867d 6a3d
00000060: f637 303d 99c9 363c de6d 3b3c 4835 c13d
00000070: f8d0 913d 8ff1 e23c b046 e5bc 16e8 58bd
00000080: 409e 583d 1c98 703d fe55 ac3d 2e11 5cbd
00000090: 7001 afbc 2b8d 66bd 80d8 dbbd d1ab 72bd
000000a0: 33ab a23c 0fb7 c4bd 6002 b2bd 9d1d 07bd
000000b0: 2bad aebc f058 cfbd 411f 523c 9a49 5b3d
000000c0: 3b10 e83c 55c9 8f3e 58a7 86be ed3f c3be
000000d0: 8a11 0dbd 1464 cdbd 30f9 413d dd8e a33d
000000e0: d894 153d 7294 ac3d 255f 513e eafa f83d
000000f0: d8d5 a4bc b7e7 673d dc47 f6bd 2234 c6bd
00000100: 375e 853d 04b8 6b3d 1066 02bd 40f3 c8bb
00000110: 9015 97bc 5ab3 01be 0265 98bd 5cc6 4d3d
00000120: 38c3 a03d 433c 04be ecea 493d 60fa 58bd
00000130: 5f28 693d 7ba4 383d 3cb9 98bd 4477 e6bd
00000140: dd20 28bd 8894 ba3d 515a acbd b1b3 a8bb
00000150: e01a ef3d 2084 bfbc 4021 0dbb 585f 96bd
00000160: ab02 d43d 3818 9cbc 23a5 12bd e9d2 fcbd
00000170: c45d 96bd 31ed 9a3c f90b 65bd 1445 763d
00000180: a6f2 57bd b8c1 e33d 614f ab3d 0e9c 613d
00000190: d97f 8cbd 0aa0 a5bd ec11 bc3c b02e ddbd
000001a0: d487 cabd 75f0 80bd 221f 943d 83b2 13bb
000001b0: 0a98 ac3a 7d7e 8a3d 8356 7abd eab9 88bc
000001c0: 38bb febd 909c b1bd f83c d73c d966 7e3d
000001d0: 8c0a bcbd f010 25bd a6ef 8e3d b20e c83d
000001e0: b5a9 a0bc 324d 8ebd 80a1 09be b90e bcbd
000001f0: b8fa ff3d 0d07 30bc 9608 893d 287a 003e
00000200: 7e34 63be d249 99bd ee9a 09bd 7f0f d2bc
00000210: f695 c53d 7164 13bd eee9 47bd 0e0c 903d
00000220: f758 cc3d 90fc cfbd 53b6 5abe 13a2 363e
00000230: 8391 29be 7ef4 71bd 141e 753d ccc5 a8bd
00000240: 501f 79be bd0a 26be a382 14bd 07ab 2fbd
00000250: 0b31 ab3e 3a89 2a3e 769a ca3d bc7b 9ebb
00000260: 736c c6bd 145c 903d a0ae 3f3e 3035 223d
00000270: 84fe 2e3d f136 38be cab2 0c3c 3cec 2fbe
00000280: a652 2cbe ca12 853d 4cc5 263e 9570 773d
00000290: 43eb 87be 3a84 a9bc 6595 11be 31c0 78bc
000002a0: 9e83 ffbd 3879 6cbe 3716 9c3c 5bfb 9fb9
000002b0: f648 cbba c286 203e 45ef 153e 7eb4 8f3d
000002c0: e27c abbd c776 35be fa7a 9cbd 640e 24bf
000002d0: bbde 803d 60ca 19bc 2198 dcbd 8375 f0bd
000002e0: 615f 3a3e 9add b0bc ed54 063e bdaf 2a3e
000002f0: 004c 973b 1973 c23d 7f1b e7bd 424e d33d
00000300: a582 de3c 149f 713d 7844 b83c fcad c0bc
00000310: b08c ad3d 564a 903d 7a9c a0bd c471 12bd
00000320: 0816 96bc 80f1 e63c a8c7 97bd ca66 3e3c
00000330: f689 1e3c 35eb 253d cc13 17bd a441 2f3d
00000340: f267 09be d635 80bc 165b 813c eac4 9bbb
00000350: 2d37 99bc d9b7 243d 3862 843d 1008 72bd
00000360: 7430 033d fc63 96bd c066 d83c b8e3 39bd
00000370: 745c fdbd b103 b9bd 15cb ccbd 3b50 b8bb
00000380: d8c6 a23d 04cd 363d eaa0 78bd 7da3 45bd
00000390: 9260 723c 184e f239 3923 713d e174 ae3d
000003a0: be57 edbd 6bf5 333d 7d2b c9bd b63d 313d
000003b0: f0cc 2abc 13aa d8bd d13c f6bb 4861 fcbc
000003c0: e7a2 4b3d f4d4 0fbd eec0 b5bd 8e74 763d
000003d0: 7ce6 633c 2049 acbc 48ad 953c 141c f5bd
000003e0: e550 85bd 5cc9 c1bc 477b 29be 2229 38bd
000003f0: 9e40 c9bd 89fc c1bb 3c5a 003d d07c ce3d
-0.007576039 0.023763135 0.065946504 -0.055342376 0.0074372888 0.030704558 -0.11479959 -0.09692867
-0.058997888 -0.0126304515 0.08537767 -0.057480298 0.09210035 -0.11212415 -0.05342464 -0.0138182705
-0.06935999 0.048828337 0.02767385 0.14252482 0.2011231 0.16204506 -0.045548618 0.057248615
0.04302212 0.011156463 0.011439769 0.09433991 0.07119936 0.027703075 -0.027987808 -0.05295571
0.052885294 0.058738813 0.08414839 -0.05372732 -0.02136299 -0.056286972 -0.107346535 -0.05924589
0.019857025 -0.09605228 -0.08691859 -0.032987226 -0.021322807 -0.10124385 0.012824834 0.05353699
0.028328052 0.28083292 -0.26299548 -0.3813471 -0.034440555 -0.10028854 0.047356784 0.079862334
0.0365189 0.08426751 0.20446451 0.12157233 -0.0201215 0.056617465 -0.12025425 -0.09677912
0.06512111 0.057548538 -0.031835616 -0.0061325133 -0.018442899 -0.12666073 -0.07441141 0.050238
0.07849735 -0.12913613 0.049296305 -0.05297315 0.056923267 0.045078736 -0.07457206 -0.11253217
-0.041046966 0.09110361 -0.08415664 -0.005148374 0.11675048 -0.023378432 -0.002153471 -0.07342404
0.103520714 -0.019054517 -0.035802018 -0.123449154 -0.07342103 0.01891193 -0.05591962 0.06012447
-0.052721642 0.11120933 0.0836475 0.055080466 -0.068603225 -0.08087166 0.022957765 -0.107999206
-0.098891884 -0.062958635 0.072325006 -0.0022536821 0.001316787 0.06762407 -0.06111766 -0.016690213
-0.12438053 -0.0867244 0.02627419 0.062109802 -0.09181699 -0.040299356 0.06979303 0.09768428
-0.019612173 -0.069483176 -0.13440514 -0.091824956 0.12498993 -0.010743869 0.06691091 0.12546599
-0.22187993 -0.07484783 -0.033595018 -0.025642155 0.096477434 -0.03598446 -0.048807077 0.07033549
0.09977906 -0.10155594 -0.21358614 0.17835264 -0.16559415 -0.059071057 0.059843138 -0.08240852
-0.24328351 -0.16215034 -0.036257397 -0.042887714 0.33435854 0.1665391 0.09892742 -0.0048365276
-0.09688654 0.070488125 0.18718958 0.039601505 0.042723194 -0.17989708 0.0085875485 -0.1717996
-0.16828403 0.06497724 0.162862 0.0604101 -0.26546678 -0.020692933 -0.14217146 -0.015182541
-0.12476276 -0.23093116 0.019053562 -0.00030514118 -0.0015509415 0.15676406 0.14642055 0.07016848
-0.08373429 -0.17721091 -0.076406434 -0.6408446 0.062924825 -0.009386629 -0.10771204 -0.117411636
0.18200447 -0.021590043 0.13118334 0.16668601 0.004617214 0.094946094 -0.11284541 0.10317661
0.027161906 0.0589896 0.022493586 -0.023520462 0.084741 0.070454285 -0.078423455 -0.035753027
-0.018321052 0.028191328 -0.07411128 0.0116211865 0.009676447 0.040507514 -0.036884114 0.04278721
-0.13418558 -0.015650671 0.015790503 -0.0047536986 -0.018703068 0.040214393 0.06464046 -0.05908972
0.03202863 -0.07343289 0.026416183 -0.045383185 -0.1237115 -0.09033907 -0.09999672 -0.0056247986
0.07948083 0.044629112 -0.060700335 -0.048251618 0.014793532 0.0004621602 0.05887148 0.08518387
-0.11589001 0.04393522 -0.09822748 0.043271743 -0.0104248375 -0.10579314 -0.007514574 -0.030808106
0.049715903 -0.035115197 -0.08874689 0.06016975 0.013909932 -0.021030962 0.018271104 -0.11968246
-0.0650957 -0.023655586 -0.16550933 -0.044961102 -0.09826778 -0.005919997 0.031336054 0.100824

net.6.bias f4 [128]
00000000: 832f bdbd 1718 e4bd a46e f23c e6f7 3cbd
00000010: 6627 99bc fb2b 0dbd 4026 bebd baa9 b73d
00000020: 226f a7bc 0586 9fbd 08cf 30bc fb26 a7bd
00000030: 2ddf f23d aecc 80bb 93a2 ef3c 0846 e33d
00000040: 5273 cabc bb44 1d3e 9829 1c3d d6eb 3e3d
00000050: fc1a 81bd 36dc f4bd 0e20 fabc 06d5 12bd
00000060: a849 003e 4cc9 2fbd c25c b3bd c0af 243d
00000070: 032b 623d 8ffd 0cbd 54c9 c9bd 3a93 243e
00000080: 91f0 14be 61b9 04be 24ec 0abe 9521 59bd
00000090: ee1a 2ebd 0700 b23d 8415 08be 920a cd3d
000000a0: d8bd bdbd 3041 04bd 8787 283d beed a4bd
000000b0: 9f09 de3d 0461 bc3d 5f81 6e3c 351e bd3d
000000c0: 586c f9bb 8546 283e d4ad 263d dc6b d4bc
000000d0: 3055 d23d 1e3a 3fbd 0f5c 49bd 14ea 9f3d
000000e0: dd15 863d 1479 8e3d b85e c6bd 9991 043e
000000f0: 50e4 1f3e 64bc fbbd d744 53bd e33b 0b3d
00000100: 776f 87bc acd9 d73d ae39 f2bd 534a 463e
00000110: ed76 fd3d b27f ebbd c1b1 ba3d 9dc9 223e
00000120: d007 f2bd b305 a63d c9ab 163d 6b6a 9e3d
00000130: c9fa a9bd 3633 f83d 4c5f e8bd 1635 fbbd
00000140: b9e4 ed3d bbd2 9e3d e838 1fbd 1a17 e5bd
00000150: e8b5 eabc 0bc9 063e b702 a3bc db87 b33d
00000160: 52b6 703d d49f d33d 781d f7bc c790 dcbd
00000170: c165 86bb 8e34 2d3e f172 7f38 ff60 9d3d
00000180: 1b84 b73d 990f d1bd 8d85 723d d1db d43d
00000190: 82db b53d 4b1e 0f3c aff6 893d fa6e 8bbd
000001a0: e7c1 00bd 037e 9b3d 0a3c adbd 6c97 db3d
000001b0: 54d2 13bc 10f1 183e 6ce4 5bbd 476c c13d
000001c0: 20fb 063e ed57 0f3d 42bf f43d 63bc 283d
000001d0: 1ab9 ffbc d990 de3d 7895 853d 94fd efbc
000001e0: 84ed dc3d 18c7 fc3c db7f 4e3d 9a2e 4b3d
000001f0: 6660 a03c 81d1 dc3d 1e04 3ebd da60 b53d
-0.09237578 -0.11137407 0.029593773 -0.046134852 -0.018695544 -0.03446577 -0.09284639 0.0896792
-0.020438734 -0.07789234 -0.010791548 -0.08161732 0.11858974 -0.0039306497 0.029252326 0.11097342
-0.024713192 0.1535825 0.038125604 0.04661163 -0.06303975 -0.119560644 -0.030532863 -0.035847686
0.12528098 -0.04291658 -0.087579265 0.04020667 0.0552168 -0.0344215 -0.098528534 0.16071787
-0.14544894 -0.12961341 -0.13566643 -0.053010542 -0.04250615 0.086914115 -0.13289458 0.10011782
-0.092647254 -0.03228873 0.041144874 -0.08053158 0.10841679 0.09198192 0.014557212 0.09234277
-0.0076117925 0.16433151 0.04069312 -0.025930338 0.102701545 -0.046686284 -0.04916006 0.07808319
0.06547139 0.069566876 -0.09686035 0.12946166 0.15614438 -0.12291792 -0.051579323 0.03399266
-0.016532643 0.105395645 -0.11827408 0.1936429 0.12376199 -0.11498965 0.09115935 0.15897222
-0.11817896 0.08106556 0.03678492 0.07735141 -0.082997866 0.12119143 -0.113463014 -0.12265985
0.11615891 0.077550374 -0.03887263 -0.11186047 -0.028651193 0.1316263 -0.019898755 0.08766147
0.058767624 0.10333219 -0.030165419 -0.107698016 -0.0041014855 0.1691458 6.0903785e-05 0.07684516
0.08960744 -0.10208053 0.059209395 0.10393489 0.088797584 0.00873525 0.06736504 -0.068082765
-0.03143492 0.07592394 -0.08458717 0.10722241 -0.009022314 0.14935708 -0.053684637 0.094444804
0.13181734 0.034995962 0.11950542 0.041195285 -0.031216193 0.10867471 0.065226495 -0.02929572
0.1078749 0.030856654 0.0504149 0.04960499 0.019577216 0.10782147 -0.046390645 0.088563636

net.8.weight f4 [128, 128]
00000000: 873f a13d c527 45bd bc58 56bd d4e8 303a
00000010: 1b61 c23c ed05 263a c218 6ebd ec54 1b3d
00000020: 41b2 87bd 846d 8abe 3fc0 adbd 99b7 063c
00000030: 5e1a 043e 0ed5 b33c 5f34 bb3c 8548 e2bd
00000040: a74b 20bd 84d8 c43d 9318 19bd e55b d4bd
00000050: e8d4 a1bd 34f2 883d 2c29 bbbb a8cb 483d
00000060: 6029 c7bd a6d0 40be a79f 97bc 28ba 983d
00000070: f3be 19bd 0be9 183d 1e98 3fbd 6ee7 003d
00000080: 51d7 13bc 0865 c3bc 0e18 59bd fc26 16bd
00000090: 6aa9 7c3c b3de 87bb 1902 ccbd 0770 4d3d
000000a0: 4306 7bbd 9507 b63c 2d4d cb3d 5620 9dbd
000000b0: ac62 c43c 0feb 863d 4905 973d d6a0 203d
000000c0: 5680 573c 328e d73d 4248 5dbd 3967 0e3b
000000d0: a0ac 323d 742d 353c 5106 2ebc 8c90 ed3d
000000e0: 8097 413d 005d 5e3e 8c0b a7bb bb50 71bc
000000f0: 6155 213e d182 13bc 3ba8 6ebd 5c1b f33d
00000100: 3384 bc3c faea fc3d c45f 10bc bad6 bdbd
00000110: 0f5f 443d d6a4 94bd 1f9a 8cbd 4f8a ea3d
00000120: 4dcf 183d 61b9 913d 2eca 88bd 666f dc3c
00000130: 63e6 62bd 2c6f bf3d 156c a1bd a11b 32bd
00000140: a428 e43d f051 ee3d f2e6 e63a 2047 883d
00000150: 6007 febc 4884 493d 872d a6bd 5979 183d
00000160: 02a3 6fbc b0f9 07bc 3d2d 65bd f43b 8cbe
00000170: 78ed b93d c966 0f3e a982 ce3d c798 773d
00000180: 73c4 71bd 339d 633c 28f4 1ebd a029 d3bd
00000190: 7fcb d33d 801e 45bd 2976 e13d 4620 33bd
000001a0: 75a7 d23d e3c4 0dbe c25f 8dbd a609 e9bc
000001b0: 26c9 92bd 3e6a c23d 0aa4 29bd 0685 20be
000001c0: 2367 243d 5b27 db3d 9d52 f1bc 07eb 98bc
000001d0: 7e48 ac3a 5fb6 083e d313 b33d 9722 5c3b
000001e0: 7186 c63a 4881 32bd b4e8 e0bc 15c1 ce3c
000001f0: 8732 043d 74bb a83d 271f 9fbd ba4c a13b
00000200: 885f 36bd 9db3 82bd c80a 153c bffa 51bd
00000210: 2a60 6f3c 871c 733d 4dc2 a4bd 1141 7bbd
00000220: 9a15 fd3c 7e40 65bb 4eba a73d 35fd 87bd
00000230: 8457 833d 6c2a ccbc 2088 8b3d ff6c 96be
00000240: a04c 5e3d b086 bb3d 9964 26bc 9212 1c3c
00000250: 0e74 65bd bc17 e73c 1c6c 8fbd ef4c 8c3d
00000260: 8d4c e2be 5080 fe3c 7f80 833d eaf2 45bc
00000270: c573 66be ec19 bf3d faa4 6e3d f0ea 3dbd
00000280: eb95 ccbc 88de 33bd bbb9 703d 185c 213d
00000290: 4453 ce3d 2582 663d dab8 47bd 5f6b 123d
000002a0: b694 20bd 9b19 593d a648 6b3d 8b92 4f3c
000002b0: deac 993c 7ea3 c23c d035 863b ab47 fe3d
000002c0: 343a 8e3d 960f 853d 2b13 e13d 4803 133d
000002d0: 1a10 e83d d04a 1dbe 8e6c 093e 4fae 193d
000002e0: b639 233d e864 143e 918e 52bd 2555 0f3e
000002f0: bbc4 0abd 1a9a 593d 9b5d 993d cb69 e23b
00000300: e9eb f2bc d391 4d3d d917 a33d a8e9 30bf
00000310: b337 b4ba 2fa8 19bd 0e4f 5b3c ff59 50bc
00000320: fd52 80bd db52 033d 98b8 b7bc 26cd d83d
00000330: 399d 3bbd 79d8 d23d f2a4 3bbd c554 94bc
00000340: ce4b c03d 6525 f03d 2c84 22bc 6938 7dbc
00000350: 5f79 183d 1a25 053e c491 76bd c8df 9dbd
00000360: 8fb8 47bc 1a99 923c 93ac 55bd dbb7 cebd
00000370: 7008 c83d 93f3 403d 0d7b f33d 42f4 d13d
00000380: ccdc 59bf 4e10 18bc 20e9 aabb caad 41be
00000390: fb0a 583d 76d0 ca3d 65dc c03c d0df 963b
000003a0: 386c 41bc acf2 f9bd 2ec6 2b3d 3cb4 a3bd
000003b0: 7b94 1fbe 6903 fa3d 9527 173e 90e2 b8be
000003c0: 8adc 3ebd 0c23 9b3d 33e0 453c f868 00be
000003d0: f364 eb3d 7375 293d 9345 2c3d 0705 e73d
000003e0: 7736 a53c 982e 843b 8746 983d c971 c2bc
000003f0: 5587 f9bd 54b1 073e 002a 2b3d 34c2 033e
0.07873445 -0.04813363 -0.052330717 0.0006748561 0.023727944 0.00063332805 -0.05812908 0.037922785
-0.06625796 -0.2703668 -0.08483934 0.008222484 0.12900683 0.021952178 0.02285212 -0.11048988
-0.039134648 0.096116096 -0.03737695 -0.1036909 -0.07901937 0.066868216 -0.005711695 0.049022347
-0.097246885 -0.18829593 -0.018508745 0.074573815 -0.03753562 0.037331622 -0.04677593 0.03147071
-0.009023503 -0.023851886 -0.053001456 -0.036658272 0.015421251 -0.004146421 -0.099613376 0.050155666
-0.06128527 0.022220412 0.099268295 -0.07672183 0.023972832 0.065878026 0.07374055 0.039215885
0.013153156 0.105251685 -0.05402399 0.0021729006 0.04362166 0.0110582 -0.010621623 0.11599836
0.047263622 0.21715164 -0.005097812 -0.01472872 0.15755226 -0.009003357 -0.058265906 0.11870453
0.023012256 0.12349506 -0.008811895 -0.092694715 0.047942217 -0.072580025 -0.06865334 0.114521615
0.037307072 0.07115436 -0.06679188 0.026908588 -0.055395495 0.09347376 -0.07881943 -0.04348338
0.11140564 0.11636722 0.0017616434 0.06654191 -0.031009376 0.04919842 -0.081141524 0.0372251
-0.014626266 -0.008299276 -0.055951346 -0.2738949 0.09078497 0.14004053 0.10083515 0.060448434
-0.05902524 0.01389246 -0.038807064 -0.10310674 0.10341548 -0.04812479 0.110088654 -0.04373195
0.10285846 -0.13844638 -0.0690303 -0.028446984 -0.07167272 0.0949292 -0.041416205 -0.15675744
0.04013742 0.10700866 -0.029458338 -0.018666757 0.0013144163 0.13350819 0.087440155 0.0033589953
0.0015146268 -0.043580323 -0.027454711 0.025238553 0.03227475 0.08238879 -0.07769614 0.0049224766
-0.0445247 -0.06381915 0.009096809 -0.05126452 0.01461033 0.059353378 -0.080448724 -0.06134135
0.03089409 -0.0034981067 0.08189832 -0.06640092 0.06413177 -0.024922572 0.06813073 -0.29380032
0.054272294 0.09156549 -0.01015582 0.009525912 -0.05601888 0.02820956 -0.07003042 0.068506114
-0.4419903 0.031067044 0.06420993 -0.012081841 -0.225051 0.09331116 0.058262803 -0.046366632
-0.02497383 -0.043913394 0.058770876 0.039394468 0.100744754 0.05627646 -0.048760273 0.03574693
-0.03920432 0.053002935 0.05744233 0.012669216 0.018759187 0.0237596 0.0040957704 0.12416013
0.06944695 0.064971134 0.10989984 0.0358918 0.11331196 -0.1536057 0.13420317 0.03751975
0.03984996 0.14491618 -0.051405493 0.13997324 -0.033879023 0.05312548 0.07488557 0.006909584
-0.029653506 0.050187897 0.07963533 -0.6910653 -0.001374951 -0.037513908 0.013385547 -0.012716769
-0.06265829 0.03206144 -0.022426888 0.10586004 -0.045804236 0.10295195 -0.0458116 -0.018106828
0.093894586 0.117258824 -0.009919208 -0.015455344 0.037225123 0.13002434 -0.060197607 -0.077086985
-0.012189998 0.01789527 -0.052166533 -0.100936614 0.09767234 0.04710729 0.118887044 0.102516666
-0.85102534 -0.009281231 -0.005215779 -0.18913952 0.052744847 0.09903042 0.023542592 0.0046043172
-0.0118055865 -0.12204489 0.041937046 -0.07993361 -0.15583985 0.12207682 0.14761193 -0.36110353
-0.04659704 0.07575044 0.012077379 -0.12540042 0.11493864 0.041371774 0.04205854 0.11280256
0.020167572 0.0040338747 0.07435327 -0.023735898 -0.12184016 0.13251239 0.0417881 0.12867051

net.8.bias f4 [128]
00000000: 9930 043e f80d e0bc 4064 833d 32d3 8dbd
00000010: eb5f d6bd 9af8 d93b d478 cdbd 3246 2bbc
00000020: 0d57 8ebd 4db3 c0bd 7d18 49bd 1771 a7bd
00000030: c094 9d3c 80cb 0b3d 25c6 8abd 70fc 8c3d
00000040: f52f c1bd 3e88 2f3d e0c0 ac3c f012 10bd
00000050: 75dd 78bd 7bb1 c1bc 9f93 2b3c f387 673a
00000060: dad5 c63d 7e5e 923a d715 1fbd 4107 bd3d
00000070: d492 dabc 47e0 b43d 2693 693d d676 a8bd
00000080: 716f 6fba 63f4 27bd 04aa 45bd a343 893d
00000090: ef6b a0bc fea5 633d 73b6 223d 77de d8bd
000000a0: 43e1 eabd 8c1c 51bd 8321 47bd c5eb bebd
000000b0: 0e40 193a 5a06 023e d883 ce3c 0d2f 19bd
000000c0: 01bd aabd b0e6 05bd efa0 91bc 8390 803d
000000d0: 937a 573d 9f38 eabc 9472 d43c ae01 8cbd
000000e0: e9c4 ffbd 2da3 80bd d885 ba3d 2257 48bd
000000f0: c47f bdbd b643 cf3d 7a08 73bd 3e1d 073d
00000100: eced 833d 546c 2cbd 478a 863d 246c 903d
00000110: fd4a 5fbd 55be 0dbd e187 09bd 23c5 923b
00000120: a2ef 1d3d 26bd cabd 5539 ecbc 6761 e3bc
00000130: 0f56 583d 1cb7 c43b 2d19 363e 4770 dabc
00000140: 68fa 463d 7561 41bc 3b0b e63d 2547 303d
00000150: 03f7 2f3d 7600 17bc 69aa b8bd 6942 a53c
00000160: ae37 9ebd 9d92 3abd 46d9 fe3c e069 e63c
00000170: 4f66 25bd 703b 9ebd a317 1fbc ed49 aa3b
00000180: 4332 9d3d 861b 50bd 6737 82bc 36d2 a93b
00000190: 1916 11bd 929b 99bd 4c74 833c 11e8 9e3d
000001a0: a1c0 e9bc 5699 2ebd 8dc9 da3c 7c3b bb3d
000001b0: dacb b1ba 817a 6bbd 79b6 8b3d dde7 79bb
000001c0: 57c8 183e 6a42 26ba 0c4f fc3d 91e5 f6bc
000001d0: dd3f 3abd 7a2c 963d 856a cb3d 1955 1f3c
000001e0: 0bce c53d e039 903d eacb 603d c927 a63d
000001f0: c3bf 133c 5fdc 3dbd 8142 783d 74a6 a83d
0.12909164 -0.02735041 0.064156055 -0.06925048 -0.10467514 0.00665195 -0.10032812 -0.010453748
-0.06950197 -0.09409199 -0.04909562 -0.08175867 0.019235969 0.03412962 -0.06776074 0.06884086
-0.09432975 0.04285454 0.021088064 -0.03517431 -0.060758073 -0.0236442 0.010472207 0.00088322087
0.09708758 0.0011167077 -0.038839187 0.09229899 -0.026681341 0.0883184 0.057025097 -0.08225791
-0.00091337325 -0.04100455 -0.048257843 0.06702354 -0.019582717 0.055578224 0.03972478 -0.10589307
-0.114687465 -0.051052615 -0.048615944 -0.09322313 0.00058460317 0.12697735 0.025209352 -0.037398387
-0.08336831 -0.032690704 -0.017776934 0.062775634 0.05260713 -0.028591452 0.025933541 -0.06836258
-0.124887295 -0.06281123 0.0910756 -0.04891122 -0.09252885 0.10120337 -0.059334256 0.032986872
0.06441864 -0.042095497 0.06569343 0.07051876 -0.054514874 -0.034605343 -0.03357685 0.004479067
0.03855861 -0.098993585 -0.028835932 -0.027756406 0.052816447 0.0060032737 0.17783041 -0.026664866
0.04857865 -0.011803021 0.11232611 0.0430366 0.042960178 -0.0092164185 -0.09016878 0.020173268
-0.07725464 -0.045549978 0.031109463 0.028126657 -0.040380772 -0.077261806 -0.009710225 0.005196801
0.07675602 -0.0508075 -0.015895559 0.00518253 -0.035421465 -0.07500376 0.016046666 0.07759107
-0.028534235 -0.0426267 0.026707435 0.09142205 -0.0013564781 -0.057489876 0.06821913 -0.0038132586
0.14920174 -0.0006342294 0.123197645 -0.030138763 -0.04547106 0.07332702 0.09932426 0.009724879
0.0965844 0.07042289 0.054881968 0.08113057 0.0090178875 -0.04635274 0.060610298 0.082348734

net.10.weight f4 [64, 128]
00000000: 7b97 c1bd 40c8 72bc 1a2d 99bb f708 06bd
00000010: 360b 01bd da67 93bd c0ad 8fbb 6328 d23c
00000020: 777a 783d 2ecb 9c3b 557e 133d 2062 b13d
00000030: 4263 933d 25f8 843d 6ade 913d 8b76 323c
00000040: 6d83 893d b0e9 d5bd 60b2 363b fa23 5a3c
00000050: c690 473c b392 0bbd 4a77 c4bd c04e 33bd
00000060: b398 633c d0c5 4a3d a61d 6fbc 95d6 893b
00000070: 434c 303d ef2c c8bb a8e0 af3b 60e7 7d3b
00000080: 5bbc 7ebd 6a2a 363d 9695 a8bd 1752 1ebd
00000090: 0646 033d 63b1 a0bd dff9 003c cdc7 6f3d
000000a0: 4a8c 70ba 0813 8cbd 7c95 9c3c c93d 603d
000000b0: 58ec 0abd d4e2 413d aebc f5ba 24c9 7abd
000000c0: d65c 453d 7c3b 00bd ee64 5d3c 12f4 c3bc
000000d0: 7d61 43bd 5e97 933d c62d d0bc 33aa 983d
000000e0: a50a 4ebc 1686 aabd 6f77 60bc 5c87 9d3a
000000f0: c9c8 5f3d 7776 473d 15ec 87bd f029 943c
00000100: 58b2 553d 8544 64bd e57d c1bd 4d5d 85bd
00000110: d5cc 04bd 9add 2d3d 2532 793d d704 f9bb
00000120: a174 b5bc 60de 8d3c f447 a03d 092e 66bd
00000130: 2d32 c93c 1302 3c3d 68d6 5bbd d009 1ebc
00000140: 0169 42bd d4d7 2bbd 3731 4cbc 3557 88bc
00000150: ce0c 14bd 83c4 043c 79cc 463d a99c c6bd
00000160: 1dcb f93b d129 67bd 59d3 7b3d c475 b33c
00000170: 4179 35bd 41cb 883d 06a4 f9bc 5a0e 9a3c
00000180: 82ac 593d 165a f5bb d417 b03d 342c 16bc
00000190: 258a 36bd 1936 023d ba8b 49bd 11d5 193d
000001a0: 85d4 8d3d d060 9abc 69f6 d8bb 17ac 84bb
000001b0: 09b0 a2bd 5803 023d 5610 ebbc 011d 223d
000001c0: 25da 653d dfbc 01bd 0457 bcbd aa6a bdbd
000001d0: bd7f 82bd 25c2 be3a 31b3 323d 4c3b b3bd
000001e0: a4e2 54bc 82ae 4abd 41e2 47bc 89dc 57bd
000001f0: fa2c 443d 23ef 8abd f5c9 6bbd bd81 0b3d
00000200: fbe4 d4bb ca5c a23d 4ddc fb3d 70dd f6bc
00000210: 3d18 ba3c 8d77 9dbd d486 b1bd f999 9d3d
00000220: 800b 6b3d 9dd7 9e3d 0490 3cbd d255 a2bd
00000230: e2a7 74bd b55c 0b3d 9a51 5bbc 8181 c83d
00000240: aaa3 383d a768 5cbe b227 05bd 6116 96bc
00000250: 80d7 48bb e8f9 b1bd 3e65 be3d e95f ed3c
00000260: dc34 b33d 1a32 afbc ed08 bebd ff8e 5dbe
00000270: cff6 e5bc c401 cc3d 97c9 b63d e466 6abc
00000280: 698d 883d b55f eabd 5cd4 aebc 2593 943d
00000290: 44c6 ad3d 9a8b 06be d256 46bd 4de9 8e3d
000002a0: 43dc 2f3d 8bfb 6c3d 14b0 043d 29f2 c73c
000002b0: 21bf 823d 0975 d43d 7796 383b e2d9 87bd
000002c0: a3a8 f3bc 3f2f 9d3d 7d85 8b3d 597f d2bd
000002d0: c913 763d 3e4f 99bd 00d3 013d 6e74 a63b
000002e0: 1e9d 953d beca 7ebd c0c8 3d3c 55ad 493c
000002f0: c397 b2bd ae80 cd3c b8be a73d 817d c03d
00000300: 6cf2 f23b 0d92 84bc deec 4cbe 90ab c6bc
00000310: c036 cdbc 1c9d 273c 59d7 91bc aede 4c3c
00000320: ed96 38bd 7b7c 093c 3d1b 0d3d ccbf cbbd
00000330: 8fae 7d3d aad4 eabc 4e1f 1cbc 49e5 3c3c
00000340: d607 39bc 22b1 8bbc 8082 033d 7529 883d
00000350: ae5d ee3d ce60 653d 0a0a 4c3d 64a7 b0bd
00000360: 8b72 1e3c 761b 55bd 673b 6cbd b1b8 68bd
00000370: 4c24 32be f32a 8c3d e4b6 d5bc 1857 c33d
00000380: 9870 eabd fa85 b93b 796a babc ab72 803d
00000390: abce 303d 64d2 8ebd d809 c43d 0bdf 503d
000003a0: 9a21 d23b ff53 223c ef97 6dbd c1c1 613d
000003b0: 0a32 203d d036 6fbe 317f f0bd f13e 893d
000003c0: a538 1f3d 3a91 f13d ff3c d43d 0607 ceba
000003d0: d608 723d df31 c93d 8c7c 7ebc 9d5d 9c3d
000003e0: 4603 29bd aabf d1bc bb18 b93d 1df4 ef3d
000003f0: 3261 a43d 31b1 75bd f912 c03d 950b e33d
-0.09452721 -0.014818251 -0.004674566 -0.032723393 -0.031504832 -0.071975425 -0.0043847263 0.025654024
0.060663667 0.004784963 0.03600915 0.08661294 0.07196666 0.06492642 0.071225 0.010892521
0.067145206 -0.10444963 0.0027877316 0.013314242 0.012180513 -0.03407545 -0.09593065 -0.043776274
0.013891387 0.049505055 -0.014594471 0.0042064884 0.04304148 -0.006108872 0.0053673573 0.0038742647
-0.06219135 0.044474043 -0.08231656 -0.038652506 0.0320492 -0.07846334 0.007872074 0.058540154
-0.0009176178 -0.068395674 0.019114248 0.054746423 -0.0339168 0.04733546 -0.0018748248 -0.06122698
0.04818424 -0.03130673 0.013512833 -0.023920093 -0.047700394 0.072066054 -0.025412451 0.07454338
-0.01257578 -0.08326356 -0.01370035 0.001201849 0.054634843 0.04869696 -0.06636826 0.018086404
0.052172035 -0.055729408 -0.094478406 -0.06511936 -0.032421906 0.042447664 0.060838837 -0.007599454
-0.02215034 0.01731795 0.07826224 -0.056196246 0.024560058 0.045900416 -0.05367127 -0.009645894
-0.04746342 -0.041953877 -0.012462906 -0.016643146 -0.036145024 0.008103493 0.048534844 -0.09697849
0.00762309 -0.056436364 0.061480854 0.021906741 -0.04430509 0.066793926 -0.03047372 0.018805671
0.053143032 -0.0074875457 0.08598295 -0.009165812 -0.04456534 0.031789873 -0.04920552 0.03755671
0.069253005 -0.018844992 -0.0066211713 -0.004048835 -0.07943732 0.03174147 -0.028694313 0.03957844
0.056116242 -0.031674262 -0.091962844 -0.0924886 -0.063720204 0.0014553709 0.04362792 -0.08751544
-0.012993488 -0.04948283 -0.012199939 -0.052700553 0.047894455 -0.06783893 -0.057565648 0.034059275
-0.006497023 0.07927854 0.122978784 -0.030134887 0.022716636 -0.07688818 -0.086682945 0.076953836
0.057384014 0.07755969 -0.04603578 -0.07926525 -0.059730418 0.03402396 -0.013386155 0.09790326
0.045077957 -0.21524297 -0.03250856 -0.018321218 -0.0030646026 -0.08690244 0.09296654 0.028976398
0.087503165 -0.021386195 -0.09279046 -0.2163658 -0.02807179 0.09961274 0.08925169 -0.014306758
0.06667597 -0.11444036 -0.021341495 0.07254628 0.08485082 -0.13139191 -0.048422642 0.06978092
0.042934667 0.057857078 0.032394484 0.024407463 0.06384111 0.10373885 0.0028165856 -0.06633355
-0.029743498 0.07675027 0.0681257 -0.10278196 0.060077462 -0.074858174 0.031695366 0.0050797975
0.07305358 -0.06220507 0.011583507 0.012309392 -0.087203525 0.025085773 0.081906736 0.09398938
0.007414153 -0.016182924 -0.20012233 -0.02425173 -0.02505052 0.010230329 -0.017802881 0.012504263
-0.04506581 0.008391495 0.034449805 -0.09948692 0.06193405 -0.02866586 -0.009528948 0.011529275
-0.011293372 -0.017052237 0.032106876 0.06648532 0.11638962 0.056000523 0.04981426 -0.08625677
0.009670864 -0.052028142 -0.057673838 -0.05681676 -0.17396659 0.068441294 -0.026088186 0.09538096
-0.11447257 0.005661723 -0.022755848 0.06271871 0.043165844 -0.069737226 0.0957219 0.05099396
0.006412697 0.009907722 -0.058006223 0.05511642 0.03911022 -0.23360753 -0.1174301 0.06701458
0.03887238 0.11795278 0.103631966 -0.0015718646 0.059090458 0.09823965 -0.015532624 0.07635043
-0.041262887 -0.025604088 0.0903792 0.11716483 0.08026351 -0.059983436 0.09378619 0.110861935

net.10.bias f4 [64]
00000000: da25 b2bd 4c38 883d b767 dcbb c07b 77bd
00000010: 60c7 d23d 1052 053e 7c69 9e3c 2ce3 63bc
00000020: 1e5b 1c3e 8c20 da3a a657 7c3d a985 0a3e
00000030: 0ecc 713d e5e5 adbd 6f51 b1bc 7e25 bdbc
00000040: 4053 543d 7b86 73bd 03f8 5fbd 6380 b5bc
00000050: 8516 8fbd eb17 9d3d 8255 acbd dc95 41bd
00000060: 04a2 91bc 9484 3e3d 5ae0 dbbd 8f8b 3ebb
00000070: 9661 5abd 935c 2b3d 8ad6 803c 8ed9 063d
00000080: 9fb7 383e eda5 c23d b22e 083d 5ac0 11bc
00000090: c38b 60bb 5a22 5b3d 5dac cc3d 6a76 6b3d
000000a0: e0e6 f83b c11a a0bd cb28 a93d a297 91bb
000000b0: d26d b4bd a345 913b 0b23 2f3d 6453 20bd
000000c0: d6f4 c93c 6c71 abbd 2d90 1bbb aeb0 98bd
000000d0: 9166 873d 5238 a33d 738e 4fbc 2a5f 133d
000000e0: 98ee 053d 8812 60bd 36a0 77bd dcbf d63d
000000f0: 1d50 9dbc 966c ae3c caac 443c 0aaf eebd
-0.08698626 0.06651363 -0.006726231 -0.06042075 0.10291934 0.13019586 0.019337408 -0.013909142
0.15269133 0.001664178 0.061607026 0.1352755 0.059032492 -0.084911145 -0.021645276 -0.023089167
0.051837206 -0.059454422 -0.05467988 -0.022155946 -0.06986717 0.076705776 -0.08414747 -0.047262058
-0.01777745 0.046513155 -0.10736151 -0.0029074883 -0.05331572 0.041836333 0.0157273 0.03292232
0.18038796 0.09504304 0.033247657 -0.008895958 -0.0034262992 0.053499557 0.09993813 0.057485975
0.007595882 -0.07817603 0.08259734 -0.004443125 -0.08810009 0.00443335 0.04275803 -0.039142027
0.02465288 -0.08371243 -0.0023737059 -0.07455574 0.0661136 0.079697266 -0.01266824 0.035979427
0.032698244 -0.054705173 -0.060455523 0.10485813 -0.01920324 0.021292012 0.012004087 -0.1165448

net.12.weight f4 [32, 64]
00000000: 3134 7bbd 5d86 283e 6b68 643d 3661 903d
00000010: e682 183e aaa7 98bd 0fe4 b6bd 237c aabd
00000020: 7b09 7c3d 99f9 5bbc c995 443c 5753 94bd
00000030: b290 43bc feaf e5bd 75e1 b9bd 84c3 f93c
00000040: 6b2d 743d d27e f8ba e08b 50bc eb64 95be
00000050: f817 81bd cf17 43be 1f73 cfbd 2393 023e
00000060: 066e 443d fc76 8bbe 9437 bbbd e76d d93d
00000070: ecf2 79bd bae1 c83d 4e7e 143d 683a c33d
00000080: f811 453d e938 a13d a5b6 b43c 2a2a 80bc
00000090: 5413 283e b08c 9a3d 7205 b83c 08a1 ccbc
000000a0: 4935 2fbd 1606 e4bd b005 27bd 8a70 f63c
000000b0: 7621 c1bd 7754 783d 815a 653d e0d4 54bd
000000c0: 8092 bebc 36be 873d 4938 74bd 2ae5 26bb
000000d0: 03ba 02bb ad45 213d b335 c73c f0a6 ae3d
000000e0: e363 82bd b2be f3bd 7462 2bbd 2d37 c03d
000000f0: c3c6 98bd a2a8 66bc d8dd 1d3e c8d2 cd3d
00000100: c78b 9fbc 44cc eebd cc13 bd3d cc95 2e3d
00000110: deb4 2f3d c5a7 f1bc d0be 35bd e83a 97bd
00000120: d1f3 85b9 4067 6cbc 02b8 133e f515 183e
00000130: b235 3dbe 8040 a23a 4221 143b cead 5f3d
00000140: c903 1d3e f578 06bc 8012 babd 84d2 96be
00000150: a27f f5bd a57b 673e 6ca9 aebd 872e c4bd
00000160: 14c6 b03c b6eb bbbe 522c 913d c5b8 7b3d
00000170: b5c8 8b3c 9861 973d c50b a8bd 526d 0b3d
00000180: d7de 24bf 8205 563c 70e8 093e 3a04 b83d
00000190: 2f2c a1bd 0e8e 15bd 1789 fe3c e00d 7a3c
000001a0: d03f 1dbd f849 b8bd 9ff0 ddbe 9470 8e3d
000001b0: b88d 733d 8791 583d b88e ff3d 0428 bd3a
000001c0: dc5c 9f3d a3a0 c1bb becb 363d 412b ebbd
000001d0: cac9 263d 1634 833f 1070 d1bd c5b2 cabd
000001e0: 5663 02bd ded0 bc3d 4229 bebd 7942 7fbd
000001f0: 2151 f93d 7c97 9c3c 5a6b 833d 8872 44bd
00000200: b746 cabd 8003 acbd b437 11be 50e1 7a3d
00000210: 1175 cbbc 9318 0b3e aa5d 833d 9184 29bd
00000220: a829 2c3e 8384 0fbd e01d 973d def1 833e
00000230: dd84 b2bd 0032 49bc 3f17 c2bd bd5b adbd
00000240: 6e85 e43d 036b 8a3d a86c b3bc 952a 0fbe
00000250: 8208 a3bd 4607 8f3b c002 6f3c ead0 aa3b
00000260: 8669 bd3c efc7 a73d 4e31 b9bd 4f61 493d
00000270: 9970 2bbd bed0 2cbc 4a34 02be 4c1f 0e3e
00000280: 7345 b53c fcfc 033d 87ea 453e c5e0 00be
00000290: 35b8 f6bc a30c f13d e26f 213e af42 ad3d
000002a0: 5411 0ebd dc5c fabd 8485 1fbd 913c f33d
000002b0: 6c53 193d 21e0 a3bd 933e 033e c373 2bbc
000002c0: 11b1 c23c 6025 673b 4302 8abb 3de6 8c3d
000002d0: 7d96 e23d 2016 bd3e 8f54 98bd b9e8 663a
000002e0: 6d62 a53b 18de 6abd 1eb9 df3d 6ad8 ca3d
000002f0: dcda 1f38 fb6d 9f3d 054e c13d 7308 1a3d
00000300: 18f8 bdbc 36bb d53d 3025 05bd 9837 87bd
00000310: 1c30 fc3d b2df 9e3d 345e cc3d ec53 4bbd
00000320: 4a76 92bd d092 d2bc 6044 c9bd 4af5 bcbd
00000330: 7abe ebbd f064 a3bd 5e83 f3bd 70fd 6abc
00000340: 0835 74bd e6b5 e2bd a078 c73c e4ce 223d
00000350: fa45 b83d 12b2 dd3d c860 f03d ecec d2bd
00000360: fe30 c0bd 22d0 d83d 0023 b1ba e8df 71bd
00000370: c0b8 e0bc a6f1 ff3d 4876 273d 7868 01bd
00000380: 640a 86bd c812 323d 908b 293c c8e9 e63d
00000390: bef8 8d3d 665e d2bd 0072 00bc f476 fd3d
000003a0: 0860 fdbd 147e 68bd 66aa af3d b856 ecbd
000003b0: ce48 a03d 08b9 ddbc 9e66 dabd 50b0 aebc
000003c0: 6442 a8bd 50d6 e5bc 88ec a7bd 8c17 b23d
000003d0: 381e a9bd 9080 bb3c 16ab e93d 683e 8abc
000003e0: c0fc 03bd 70ff 18bd 7e42 bb3d 56bd fabd
000003f0: f81a 0cbd 682a 0d3d 144d c7bd f0e6 29bd
-0.06132907 0.16457506 0.055763643 0.070497915 0.14893684 -0.074538544 -0.089302175 -0.083244585
0.06153248 -0.013426208 0.011998602 -0.07242458 -0.0119363535 -0.112152085 -0.09076206 0.030488737
0.059613626 -0.0018958694 -0.012728661 -0.29178557 -0.063034 -0.19052051 -0.101293795 0.1275144
0.04795649 -0.27239215 -0.0914146 0.10616665 -0.061022684 0.09808679 0.036253266 0.095326245
0.04811284 0.07872183 0.022059748 -0.015645105 0.16413623 0.07546365 0.022463534 -0.02497913
-0.042775426 -0.11133973 -0.04077691 0.03008296 -0.0943021 0.060627427 0.055994514 -0.051960826
-0.023263216 0.06628077 -0.05962399 -0.0025466182 -0.0019947297 0.03937309 0.024317598 0.085279346
-0.06366708 -0.119016066 -0.04184194 0.09385524 -0.07459786 -0.014078291 0.15416658 0.10049969
-0.01947583 -0.11660054 0.092322916 0.042623326 0.042897098 -0.029498944 -0.044371426 -0.07384282
-0.00025549394 -0.014428914 0.14425662 0.14852126 -0.18477514 0.0012378842 0.002260283 0.054609112
0.15333475 -0.008207549 -0.0908556 -0.29457486 -0.11987235 0.2260576 -0.085284084 -0.09579187
0.021578826 -0.3670327 0.070885316 0.061455507 0.017063478 0.073916614 -0.0820537 0.034039803
-0.64402527 0.013062837 0.13467574 0.08985181 -0.078697555 -0.036512427 0.031071229 0.015262097
-0.038390934 -0.089984834 -0.43347642 0.06955066 0.059461325 0.05287316 0.12478393 0.0014431481
0.077813834 -0.005909042 0.044627897 -0.114828594 0.040719785 1.025027 -0.10226452 -0.09897379
-0.031833015 0.09219526 -0.09285213 -0.062319253 0.12173677 0.019115202 0.0641696 -0.047960788
-0.09876769 -0.08399105 -0.14181405 0.06125003 -0.024836095 0.13583593 0.064143494 -0.04138619
0.16812766 -0.035038482 0.07378745 0.25770468 -0.08716748 -0.012279987 -0.0947709 -0.08464763
0.11158262 0.06758692 -0.021902397 -0.13981088 -0.07960607 0.0043648807 0.014588058 0.005212893
0.023121607 0.08192431 -0.09042607 0.049165066 -0.04185543 -0.010547815 -0.12715259 0.13879126
0.022127843 0.032223687 0.19327746 -0.12585743 -0.030117134 0.117699884 0.15765336 0.084599845
-0.034684494 -0.12224743 -0.03894569 0.118767865 0.037433073 -0.080017336 0.12816839 -0.010464611
0.023766072 0.003527008 -0.0042116954 0.06879852 0.110638596 0.36930943 -0.07438003 0.0008808482
0.0050471337 -0.05734071 0.1092398 0.09904559 3.8112383e-05 0.07784649 0.09438709 0.037605714
-0.02318959 0.10436098 -0.032506168 -0.066024005 0.12313864 0.0775751 0.09978905 -0.04964058
-0.07151468 -0.025704771 -0.098274946 -0.09226473 -0.1151094 -0.07978237 -0.11890291 -0.014342651
-0.059620887 -0.110698506 0.02434951 0.039748088 0.08997722 0.1082498 0.117372096 -0.102990955
-0.093843445 0.10586573 -0.0013514459 -0.059051424 -0.027431846 0.12497263 0.040884286 -0.03159377
-0.065449506 0.043474942 0.010348216 0.11275059 0.069322094 -0.10271911 -0.00783968 0.12376204
-0.12371832 -0.056760862 0.08577423 -0.11539978 0.078263864 -0.027065769 -0.10664104 -0.021324307
-0.08215788 -0.028056294 -0.08199412 0.086958975 -0.08257717 0.022888452 0.11409585 -0.01687546
-0.032223463 -0.03735298 0.09143542 -0.12243144 -0.034205407 0.03446427 -0.09731498 -0.041480005

net.12.bias f4 [32]
00000000: 3660 b03b b7dc 6abd 4964 033e a2ba d2bd
00000010: 0b8b c73d 9052 133e 993a 07bd 3d29 cb3c
00000020: 5782 ab3d d9c0 b83d 18f9 c3bd c86a cabd
00000030: 7a11 1cbe ce74 99bd 81d1 15be 6dd2 02be
00000040: f095 c03c ab36 283d 6ba9 033e 448e cf3d
00000050: f49d e13c d0cc 7c3d 56da 153d f2b2 b53c
00000060: ff06 613c 0320 aabd 8cd3 083d 74a3 0fbd
00000070: d54d 53bd 5158 893d 58cc 403e bd97 023e
0.005382563 -0.057339396 0.12831225 -0.10289504 0.09743317 0.14386964 -0.033014867 0.024799937
0.0837447 0.09021158 -0.09568995 -0.09883648 -0.15241042 -0.07492982 -0.146307 -0.12775584
0.023508996 0.04106776 0.12857597 0.10134557 0.027541138 0.061718762 0.036585175 0.022180054
0.013734578 -0.08306887 0.03340487 -0.03506799 -0.0515879 0.06706298 0.18827951 0.12753196
