XMFlib/PairProbML/models/mlp_a2p_111_2nn.pth (torch, 55084 bytes, 10 tensors)

net.0.weight f4 [128, 3]
0	0xbf107bb0	-0.5643873
1	0x3d98f6ed	0.07468972
2	0xbd52b3f5	-0.05144115
3	0xbea2aaf5	-0.31771055
4	0x3e89306d	0.26794758
5	0x3f8a1c7d	1.0789944
6	0xbe95fb89	-0.2929347
7	0x3e0eba39	0.13938226
8	0xbdac52c2	-0.08414222
9	0xbac84207	-0.0015278467
10	0xbc08f75a	-0.008359754
11	0x40608953	3.5083816
12	0xbce1908b	-0.027534744
13	0xbc3e3827	-0.011610067
14	0x3f272f9e	0.65307033
15	0xbf0b38d9	-0.5438362
16	0x3ee46bcd	0.44613495
17	0xbe48a135	-0.19592746
18	0xbe4179e1	-0.1889415
19	0xbf1297e8	-0.5726304
20	0xbec34443	-0.38138017
21	0xbb8b5faf	-0.0042533497
22	0x3c0cbbd0	0.0085897
23	0x40580163	3.3750846
24	0xbeef929a	-0.46791536
25	0x3cb965f2	0.02263162
26	0xbd68e9b4	-0.0568635
27	0xbdca479f	-0.09876942
28	0xbde12da6	-0.10995035
29	0xbe2ba6a9	-0.16762795
30	0xbdc95615	-0.09830872
31	0x3e63c672	0.2224367
32	0x3f8dc3ca	1.1075375
33	0xbd8683e6	-0.065681264
34	0x3dfc0a8f	0.123067014
35	0xc0045505	-2.0676892
36	0x3ab9376d	0.0014130898
37	0xbeb816fa	-0.3595503
38	0xc029e948	-2.6548634
39	0x3b10e3b7	0.0022108385
40	0xbc875f01	-0.016524794
41	0xc085afed	-4.1777253
42	0xba15062f	-0.00056848204
43	0x3d69b49a	0.057057
44	0xc02818e3	-2.626519
45	0xbc0fa64b	-0.008767675
46	0x3d91f286	0.07126336
47	0x4009bd84	2.152192
48	0xbe8c326a	-0.27382213
49	0x3e27d462	0.16389611
50	0x3f38642f	0.7202787
51	0xbd759826	-0.059959553
52	0x3db045d6	0.0860707
53	0x3fdce154	1.7256265
54	0xbc4363d3	-0.011925655
55	0x3c6633c0	0.014050424
56	0xbf8717fb	-1.0554193
57	0xbe90d457	-0.28287002
58	0x3de276cb	0.11057814
59	0x3f22faa6	0.6366371
60	0x3be082c3	0.0068515255
61	0x3d85f33a	0.065405324
62	0x402038db	2.5034702
63	0xbe9d0b2a	-0.3067258
64	0xbe5833a5	-0.21113451
65	0xbd05facb	-0.032709878
66	0x3989535f	0.00026192793
67	0xbcc4d934	-0.024029352
68	0x3ff8f337	1.9449223
69	0x3db810c9	0.089875765
70	0xbee289e8	-0.4424584
71	0x3f819e16	1.0126369
72	0x3cf204a7	0.029543234
73	0x3ba29bac	0.004962405
74	0xc05ed04b	-3.4814632
75	0xbeca7181	-0.39539722
76	0xbe4a3b7c	-0.19749254
77	0x3dcdd26e	0.10049902
78	0xbc0beb52	-0.008539991
79	0xbbe1bee9	-0.0068892133
80	0xc069379d	-3.6440194
81	0x3bafc155	0.005363623
82	0x3d8baaec	0.0681971
83	0x4034f35c	2.8273535
84	0xbd014de5	-0.031568427
85	0x3d97ca13	0.074115895
86	0xbf5fc0cb	-0.87403554
87	0x3c0b4fcc	0.008502912
88	0xbc459752	-0.012060003
89	0x40298c95	2.6492054
90	0xbe89860e	-0.26860088
91	0x3f1f8676	0.62314546
92	0xbf875504	-1.057282
93	0x3d0bbe28	0.034116894
94	0xbc7415cb	-0.014897774
95	0x3f48f82d	0.78503686
96	0x3d822995	0.063555874
97	0xbc7fa3de	-0.015603034
98	0xc0da1a7c	-6.815733
99	0xbc80f0d4	-0.015739836
100	0x3d227873	0.03966565
101	0xbf430ab7	-0.76188225
102	0xbd438382	-0.047732837
103	0x3e0c80fc	0.13721079
104	0xbc36bd2c	-0.0111535005
105	0x3d308651	0.043096844
106	0xbdcf0691	-0.10108674
107	0x40497218	3.1475887
108	0x38dd68a0	0.00010557589
109	0x3c1ef785	0.009702568
110	0xc03d0950	-2.9536934
111	0x3c30c91f	0.0107901385
112	0x38ff8413	0.00012183948
113	0xbfffd7d3	-1.9987739
114	0xba69088d	-0.0008889519
115	0x3c2a1889	0.010381826
116	0x404d7a9e	3.210609
117	0xbd23244d	-0.03982954
118	0x3dc36ac3	0.095418476
119	0xc02d40ad	-2.7070725
120	0x3d93789d	0.072007395
121	0xbe28a5e3	-0.16469531
122	0xc01f71ac	-2.491313
123	0xbd9c9302	-0.07645227
124	0x3e4773e6	0.19477805
125	0x3e6cf005	0.23138435
126	0xbeaefb5b	-0.34176144
127	0x3e438071	0.19091965
128	0x3e6abdc8	0.22923958
129	0xbcf68d9c	-0.030096821
130	0xbe8b0427	-0.27151605
131	0xc0629ae9	-3.540705
132	0x3d93fa30	0.07225454
133	0xbe39d3a7	-0.18147145
134	0xbff99fb7	-1.9501866
135	0x3b1b4c3b	0.002369656
136	0xbe8be37e	-0.27322
137	0xbf7ffd42	-0.99995816
138	0xbd151fe4	-0.036407366
139	0xbcd724f3	-0.026262736
140	0x40264e47	2.5985277
141	0xbc6e8fb1	-0.014560626
142	0xbe1c92e8	-0.15290415
143	0xc0390f73	-2.891568
144	0xbe70068a	-0.23439994
145	0x3efa547a	0.48892576
146	0x3f8f902e	1.1215875
147	0xbc73ddc5	-0.014884417
148	0x3c892386	0.016740572
149	0xbfddab3e	-1.7317884
150	0xbc937c66	-0.018003654
151	0xbe8abcbf	-0.27097127
152	0xbe5db38d	-0.21650524
153	0x3b92fa38	0.004485395
154	0xbcc421e2	-0.023941938
155	0xc0910e4f	-4.5329967
156	0xbe2065b2	-0.15663794
157	0x3ed15dc2	0.40891844
158	0x3ea6f58e	0.32609218
159	0x3c1bfb2c	0.009520333
160	0xbbdbc719	-0.006707084
161	0x3f024b89	0.5089651
162	0x3cf73c81	0.030180218
163	0xbea0715d	-0.3133649
164	0xbf5030be	-0.81324375
165	0x3dbf6a77	0.093464784
166	0xbe73332a	-0.23749986
167	0x40241d5c	2.564292
168	0xbd406937	-0.04697534
169	0xbea9d94e	-0.33173603
170	0xbe374c98	-0.17900312
171	0xb9ff7890	-0.00048727216
172	0x3ceb35c4	0.02871216
173	0xbfca0a56	-1.5784404
174	0xbb8eb06d	-0.0043545277
175	0xbc4246cf	-0.011857702
176	0xbf96e7dc	-1.1789508
177	0xbeb09b4e	-0.34493488
178	0x3ef7e047	0.48413298
179	0xbe8173f5	-0.2528378
180	0xbe0a26f4	-0.13491422
181	0x3ea6a3ab	0.32546744
182	0x3fb3b880	1.404068
183	0x3c0379a6	0.008024609
184	0xbc2c0b25	-0.010500704
185	0xc0947c89	-4.640202
186	0x3cd03ead	0.025420511
187	0xbe156a14	-0.14591247
188	0x3f1a7138	0.6032901
189	0x3c31d37f	0.010853647
190	0x3dcdad81	0.10042859
191	0x40265c94	2.5994005
192	0xbe1a7217	-0.15082584
193	0x3cfccacf	0.030858425
194	0x3faa492e	1.3303583
195	0x3d62d4b7	0.055378642
196	0xbf3187b6	-0.69347703
197	0x3e2cfda3	0.1689363
198	0xbbaf6039	-0.005352047
199	0xbd871baf	-0.06597077
200	0xc03f4c03	-2.9890144
201	0x3c676104	0.014122251
202	0xbd01a4b6	-0.03165122
203	0x40462fce	3.0966678
204	0xbd384e6f	-0.044996675
205	0xbebda8a8	-0.37042737
206	0xbf020b73	-0.5079872
207	0xbde5b32a	-0.112158135
208	0x3e32fda4	0.17479569
209	0x3fc4f1f9	1.5386344
210	0xbd4ececd	-0.05049019
211	0xbf904072	-1.1269667
212	0x3fa04a39	1.2522651
213	0xbcd4e227	-0.025986744
214	0xbc09a99a	-0.008402253
215	0x4010aaf8	2.260435
216	0x3d0693cb	0.03285579
217	0xbefe2c67	-0.4964325
218	0xc05e5624	-3.4740076
219	0x3ced528d	0.028970027
220	0xbe9145a6	-0.2837345
221	0xbea14583	-0.31498346
222	0xbf008c1d	-0.50213796
223	0xbeb67588	-0.35636544
224	0x3df3c91c	0.11903593
225	0xbebf2fb4	-0.37341082
226	0xbecbc237	-0.39796612
227	0xbd860915	-0.06544701
228	0x3a0ecb4e	0.0005447165
229	0x3e648829	0.22317566
230	0xbfe68e21	-1.8012124
231	0xbbc8c8f5	-0.0061274716
232	0xbf1be4da	-0.60896075
233	0xbf56c19d	-0.8388918
234	0xbde936e3	-0.11387422
235	0x3e83554a	0.25651008
236	0xbd225833	-0.039634895
237	0xbd10933f	-0.035296675
238	0xbf840051	-1.0312597
239	0xbe20dd31	-0.15709378
240	0xbd8d8af0	-0.06911266
241	0xbe32f1cd	-0.17475052
242	0x3fc80278	1.5625753
243	0x3c9ccf26	0.019141745
244	0xbda53510	-0.080667615
245	0x40220e8b	2.5321376
246	0xbe590968	-0.21194994
247	0xbe0fa6de	-0.14028499
248	0xbf535b7e	-0.8256148
249	0x3d1e2ffd	0.038619984
250	0xbdaf9274	-0.085728556
251	0x404481e7	3.0704286
252	0xbca85a1e	-0.020550784
253	0xbbf06ee0	-0.007337436
254	0xc0797d27	-3.8982637
255	0x3c7f8676	0.015596023

net.0.bias f4 [128]
0	0xbecab9d8	-0.39594913
1	0xbe9ef34a	-0.3104499
2	0xbf00e0d4	-0.5034306
3	0x3d4388d6	0.04773792
4	0x402ee228	2.7325535
5	0xbe43e7bb	-0.19131367
6	0x3ea0bc2d	0.31393567
7	0x3d760f04	0.060072914
8	0xbec52c4f	-0.38510367
9	0x3c34de38	0.011039309
10	0x3e272d5f	0.16325901
11	0x3f300c7d	0.68769056
12	0x3ce4cb49	0.027928965
13	0xbf466d2d	-0.7751034
14	0xbfc2a740	-1.5207291
15	0xbf9e8311	-1.2383748
16	0xbea62337	-0.32448742
17	0xbfb07c71	-1.3787977
18	0x3ff904fa	1.9454644
19	0x3e55725c	0.20844406
20	0xbfe016ed	-1.7506996
21	0xbdce94f5	-0.10087005
22	0xbfa300eb	-1.2734655
23	0xbea6592a	-0.32489902
24	0x3f7f693c	0.9976995
25	0xbe4ba241	-0.19886114
26	0x3f2fb71e	0.6863879
27	0xbea0b18b	-0.31385455
28	0xbf26ca5a	-0.65152514
29	0xbea63c1b	-0.32467732
30	0x3f68d33d	0.90947324
31	0xc0624e84	-3.5360422
32	0xbf53f68e	-0.8279809
33	0x3fe97e93	1.8241752
34	0xbf928fd5	-1.1450144
35	0xbe83f2c9	-0.25771168
36	0x3f97084b	1.1799406
37	0x3ff2af68	1.895978
38	0xbe216534	-0.15761262
39	0xbec3bf78	-0.38232017
40	0x3fc2e8bb	1.5227274
41	0xbf0d7dc7	-0.55270046
42	0x3f9562c5	1.1670767
43	0x3ef3895b	0.4756573
44	0x3feaba2d	1.8338066
45	0xbe035f3d	-0.128293
46	0xbdfc045d	-0.1230552
47	0x3f78b3cd	0.97149354
48	0xbe64166f	-0.22274183
49	0x3fd041e6	1.6270111
50	0xbee62e58	-0.44957232
51	0xbeae725a	-0.34071618
52	0xbf656468	-0.8960633
53	0xbfc33f9b	-1.5253786
54	0x3f3b2ef9	0.7311855
55	0xbfb98848	-1.4494715
56	0xbf07e774	-0.53087544
57	0x3fbb69fb	1.4641718
58	0x4007f938	2.124586
59	0xbddeb26a	-0.108738735
60	0xbeb50bf5	-0.35360685
61	0xbef87c41	-0.48532298
62	0xc02c21b0	-2.6895561
63	0xbfb253bd	-1.3931805
64	0xbf0df0ab	-0.55445355
65	0xbe0d9ad8	-0.138286
66	0x3f8a1926	1.0788925
67	0xbead27eb	-0.33819517
68	0xbe7c0593	-0.24611501
69	0xbf835960	-1.026165
70	0xbf4f16f7	-0.80894417
71	0xbfb37450	-1.4019871
72	0x3f21eac7	0.63248867
73	0xc01e1a90	-2.4703712
74	0xbe2287bd	-0.15872093
75	0xbeb13ef1	-0.34618333
76	0x3fd7d887	1.6862954
77	0xbf8bdec8	-1.0927362
78	0xbda57401	-0.080787666
79	0x3f95ed9a	1.1713135
80	0xbf323ce5	-0.6962417
81	0xbf92a552	-1.1456702
82	0x3f0ba065	0.5454162
83	0xbea2dbdf	-0.31808373
84	0x3f2ec327	0.6826653
85	0xc0013fda	-2.0195222
86	0x3ff843b0	1.9395657
87	0x3ff64fb1	1.924307
88	0x3bea5def	0.007152311
89	0x3fb479f7	1.4099721
90	0xbe95dd24	-0.2927028
91	0xbfa10e25	-1.2582442
92	0x3fb31391	1.3990346
93	0x3e9c341c	0.30508506
94	0x3f04854c	0.51765895
95	0xbf8eda7a	-1.1160424
96	0x3f9020f6	1.1260059
97	0xbec7d175	-0.3902699
98	0xbe833d8e	-0.256329
99	0x3f3dfad0	0.74210835
100	0xbe1974f8	-0.14986026
101	0x3f4474fd	0.7674101
102	0x3f54b88d	0.830941
103	0xbd13e318	-0.036105245
104	0x3f94d199	1.1626464
105	0xbe81e45d	-0.2536954
106	0x3fddad5b	1.7318529
107	0xbf354946	-0.7081493
108	0x3f399373	0.72490615
109	0xbf43cd49	-0.76485115
110	0xbcb279b8	-0.021786556
111	0xbea85696	-0.3287856
112	0x3fe0cbd6	1.7562206
113	0x3eb16b43	0.34652147
114	0x3f2df020	0.67944527
115	0xbeae4646	-0.3403799
116	0x3f2a07f6	0.664184
117	0xbf4a46a9	-0.7901407
118	0x3f2b7790	0.6697931
119	0xbf66ecb8	-0.90204954
120	0xbffa0fca	-1.9536068
121	0xbea6a6f2	-0.32549244
122	0x3e0dc937	0.13846289
123	0xbfd35918	-1.6511564
124	0xbefacffa	-0.489868
125	0xbee46513	-0.44608364
126	0xbfcdd7fb	-1.6081537
127	0xbe7957e6	-0.24349937

net.2.weight f4 [72, 128]
0	0xbd847265	-0.064671315
1	0x3ce230f4	0.027611233
2	0x3d830dbe	0.063991055
3	0xbdbc1d52	-0.0918528
4	0xbc6a2ce1	-0.0142929265
5	0xbcafebf6	-0.02147482
6	0xbe9ac5a1	-0.30228904
7	0x3c877e8e	0.016539838
8	0x3d7c8e35	0.061659057
9	0xbbd70039	-0.006561306
10	0xbe54a22c	-0.20764989
11	0xbc9dc779	-0.019260155
12	0xbd299c03	-0.04140855
13	0xbdfecbd9	-0.124412246
14	0x3c1fdacb	0.009756754
15	0xbcf8458f	-0.030306606
16	0xbe689de1	-0.22716476
17	0x3c88bed2	0.016692553
18	0x3d703d27	0.05865207
19	0xbe069769	-0.13143696
20	0x3ca6a33f	0.020341514
21	0xbd4db0d9	-0.050217483
22	0x3c269fbb	0.010169919
23	0xbc75a92a	-0.014993945
24	0x3960e358	0.00021446997
25	0xba0ad111	-0.00052954355
26	0xbdac1db2	-0.084041014
27	0xbd10e18b	-0.035371345
28	0xbdc6b3a1	-0.0970223
29	0xbd355df7	-0.044279065
30	0xbe0c6d6d	-0.13713618
31	0xbc2ac98d	-0.01042403
32	0xbcc360e4	-0.023849912
33	0x3d85b04b	0.06527766
34	0x3c9446f0	0.018100232
35	0x3baa97bc	0.0052060764
36	0xbca61483	-0.020273453
37	0x3e31210d	0.17297764
38	0xbbd1a328	-0.0063976236
39	0xbd2229d4	-0.03959067
40	0xbdbfa352	-0.09357323
41	0xbd2fac8c	-0.042889163
42	0xbe4f71ba	-0.20258227
43	0xbbcd2a8b	-0.006261175
44	0x3bf7a820	0.007557884
45	0xbcc37113	-0.023857629
46	0x3d31e97c	0.04343556
47	0xbd693f67	-0.05694523
48	0xbd2ef138	-0.042710513
49	0x3d697f74	0.057006314
50	0xbcc049c5	-0.023472676
51	0xbd17403d	-0.036926497
52	0xbdddc673	-0.10828867
53	0xbc4123da	-0.011788333
54	0xbd4adb96	-0.04952582
55	0x3d2dd10a	0.042435683
56	0x3db1a208	0.08673483
57	0x3dbe8136	0.09301989
58	0xbf417c75	-0.7558053
59	0xbdaa61f3	-0.083194636
60	0xbd711263	-0.058855426
61	0xbdd1f026	-0.10250883
62	0xbd87d1fd	-0.06631849
63	0xbd3f2623	-0.04666723
64	0xbd499ca2	-0.049221642
65	0xbe119773	-0.1421793
66	0xbd26f07c	-0.040756688
67	0x3d1079cf	0.035272416
68	0xbd4d57d8	-0.050132602
69	0x3bf3bc7c	0.0074382406
70	0x3d7e0e8f	0.062025603
71	0xbdb17c8c	-0.086663336
72	0x3c99a687	0.018756164
73	0xbdbda1bf	-0.09259366
74	0x3dafebd8	0.085899055
75	0x3dab1dd7	0.08355301
76	0x3e0b52a7	0.13605748
77	0x3cc6142e	0.024179544
78	0x3da0d6e5	0.07853488
79	0x3cdb3061	0.026756467
80	0x3d765b73	0.060145807
81	0xbe02ff78	-0.12792766
82	0xbd827052	-0.0636908
83	0xbc0e4c04	-0.008685116
84	0xbdf2a43a	-0.1184773
85	0xbdecff45	-0.11572126
86	0x3dd932bf	0.10605382
87	0x3e505d86	0.20348176
88	0xbd9e5f80	-0.07733059
89	0xbe0b8ac3	-0.13627152
90	0xbda16073	-0.07879724
91	0xbc91f507	-0.017817033
92	0xbe025c56	-0.12730536
93	0xbb0c4258	-0.0021401849
94	0xbddc5b2c	-0.10759577
95	0xbc7bc844	-0.015367571
96	0xbf54e2a9	-0.83158356
97	0xbc16f11b	-0.009212757
98	0xbd4c40ec	-0.0498666
99	0xbd003d88	-0.03130868
100	0xbd07eb57	-0.033183422
101	0xbd1c82b0	-0.03821057
102	0xbdaa90a9	-0.08328373
103	0xbc87975d	-0.016551668
104	0xbda1e5a9	-0.07905132
105	0x3d839365	0.06424598
106	0xbdd347b1	-0.103164084
107	0xbe850d5a	-0.2598675
108	0x3b13b4d2	0.0022538197
109	0xbe3b4067	-0.18286286
110	0xbde38852	-0.111099854
111	0x3c4ceb3c	0.012507256
112	0xbeccda63	-0.40010366
113	0x3c980c7f	0.018560646
114	0xbe2e456b	-0.17018668
115	0x3d15bd5d	0.036557544
116	0xbdac5bbb	-0.08415934
117	0xbd228867	-0.039680865
118	0xbe56350f	-0.20918678
119	0xbd48df5b	-0.049041133
120	0x3d490a30	0.04908198
121	0xbd6dca78	-0.058054417
122	0x3d021b04	0.031764045
123	0xbde8e8e4	-0.11372545
124	0xbe7bfbee	-0.24607822
125	0x3d7a0756	0.061042152
126	0xbe19fafe	-0.15037152
127	0xbda3f8f1	-0.08006466
128	0xbd90c825	-0.070694245
129	0xbd40927a	-0.04701469
130	0x3da8dc73	0.08245172
131	0x3d30dd93	0.04318006
132	0xbb749f16	-0.0037326268
133	0x3d879a1c	0.06621191
134	0x3cc848f7	0.024448855
135	0xbbdf1c76	-0.0068088127
136	0xbb9ba506	-0.004749897
137	0xbdafbaa7	-0.08580523
138	0xbdece950	-0.11567938
139	0xbd885e89	-0.06658656
140	0xbd6b9492	-0.057514735
141	0xbdae4293	-0.08508792
142	0xbd93df12	-0.07220282
143	0xbdd4cff9	-0.1039123
144	0x3d599abf	0.053126093
145	0x3d8d6149	0.06903321
146	0xbd30bdb0	-0.04314965
147	0xbdcc04c0	-0.099618435
148	0x3d88f3d4	0.066871315
149	0xbd38142b	-0.04494111
150	0xbd1661db	-0.036714416
151	0xbcc71621	-0.024302544
152	0xbd913bab	-0.07091459
153	0x3d71b495	0.059010107
154	0x3d7d91f1	0.06190676
155	0xbddf11e8	-0.10892087
156	0xbd1eac21	-0.038738374
157	0xbb301f69	-0.002687419
158	0xbd66672d	-0.05625074
159	0xbda6083f	-0.081070416
160	0x3c74fb3e	0.014952479
161	0xbcd7591f	-0.026287613
162	0x3d22dc49	0.03976086
163	0x3cf8b712	0.030360732
164	0xbcc70539	-0.024294483
165	0xbdbc63c5	-0.09198717
166	0xbdd4bd7f	-0.10387706
167	0x3d8290df	0.06375288
168	0xbbe201fb	-0.0068972087
169	0xbceecbf2	-0.029149983
170	0xbd375088	-0.044754535
171	0xbd9a7559	-0.075419135
172	0xbb66d4fb	-0.003522216
173	0xbd0f877b	-0.035041314
174	0x3d76ca91	0.060251776
175	0xbd4d5b30	-0.05013579
176	0xbd81fa79	-0.06346602
177	0xbbf58315	-0.007492433
178	0x3d68ae17	0.05680665
179	0x3d07ec26	0.033184193
180	0xbca5450c	-0.020174526
181	0xbdb69f29	-0.08917076
182	0xb9916bf3	-0.00027736984
183	0x3d22a03a	0.039703585
184	0x3bc3fcc3	0.0059810593
185	0x3c991a68	0.01868935
186	0xbc3ff052	-0.011715012
187	0xbd7a3d14	-0.061093405
188	0x3c848b56	0.016179722
189	0x3d0315f9	0.032003377
190	0x3ca15b94	0.019696988
191	0xbcb15400	-0.0216465
192	0x3ba270e0	0.0049573034
193	0x3d72dc3e	0.05929207
194	0xbda2c893	-0.07948413
195	0xbce5aecd	-0.028037453
196	0x3c879c0c	0.016553901
197	0x3c8d410c	0.01724293
198	0xbc2fab3e	-0.01072198
199	0x3bd19f06	0.006397131
200	0xbc5bc0aa	-0.013412634
201	0x3d27a9d3	0.04093344
202	0x3da5d749	0.08097703
203	0xbcf31b2a	-0.029676039
204	0xbcd8c085	-0.026458988
205	0xbd7e3f82	-0.062072285
206	0xbd1eb72c	-0.038748905
207	0xbd6db4ff	-0.05803394
208	0xbdbe3a6a	-0.09288485
209	0x3d2e30e1	0.042527083
210	0x3d149cde	0.036282413
211	0x3d38c30c	0.045107886
212	0xbd6e0300	-0.05810833
213	0xbcdb0b94	-0.02673892
214	0xbd65ad87	-0.05607369
215	0x3b7423b8	0.0037252735
216	0xbd848633	-0.06470909
217	0xbddcfc81	-0.10790349
218	0xbd32febd	-0.04369997
219	0xbdee1519	-0.11625118
220	0xbda2d3ce	-0.07950555
221	0xbdab606a	-0.08367999
222	0x3bc2f0c1	0.0059491103
223	0xbccc0892	-0.02490643
224	0xbd0e9729	-0.034812126
225	0xbd9646d2	-0.07337727
226	0xbdaf167d	-0.08549211
227	0xbc1d7262	-0.0096097905
228	0xb9c1a741	-0.00036936442
229	0x3d1e29ff	0.03861427
230	0xbd4c06e5	-0.049811263
231	0xbd578651	-0.05261833
232	0x3d900c5e	0.07033609
233	0xbcca0f7d	-0.024665589
234	0xbd9e2a73	-0.0772294
235	0x3d68a6d3	0.05679972
236	0xbdde2cd2	-0.108483925
237	0xbda700fa	-0.08154483
238	0x3ccefae4	0.025266118
239	0xbd41a56f	-0.04727691
240	0xbc9ee35e	-0.019395526
241	0x3d1270c2	0.035752065
242	0xbdaf0716	-0.085462734
243	0x3d7147e6	0.05890646
244	0x3c93b97a	0.018032778
245	0xbdaae36d	-0.08344159
246	0xbcb08db9	-0.021551954
247	0x3c4c7ab7	0.012480429
248	0x3dab22af	0.08356225
249	0x3da89f05	0.082334556
250	0x3d27be49	0.040952954
251	0x3cb88802	0.022525791
252	0xbcc22979	-0.023701416
253	0xbce2ef24	-0.027701922
254	0xbcf7fc3a	-0.030271638
255	0xbd971f75	-0.07379047

net.2.bias f4 [72]
0	0x3e103be9	0.14085354
1	0xbd8e09ac	-0.069354385
2	0x3e6cec9d	0.23137136
3	0x3faa3e60	1.3300285
4	0xbe145434	-0.14485246
5	0xbdf2c5e8	-0.11854154
6	0xbf755a26	-0.9584068
7	0x3e72c8be	0.2370939
8	0x3db16e0f	0.0866357
9	0x3d0e8b9f	0.03480112
10	0x3cd4a9cc	0.025959872
11	0xbd9900b0	-0.07470834
12	0x3fca65cb	1.5812315
13	0xbe95b95a	-0.29242975
14	0xbdb6b06a	-0.08920367
15	0x3e3cb85d	0.18429704
16	0xbd9a0580	-0.0752058
17	0xbdc75d18	-0.09734553
18	0xbf378e98	-0.71701956
19	0xbf31c359	-0.694387
20	0x3e51665a	0.204492
21	0x3e783436	0.24238667
22	0x3e098f4b	0.13433568
23	0xbe0f8d21	-0.1401868
24	0x3a527267	0.00080279115
25	0x3ec3baa5	0.38228336
26	0x3d4d8ee8	0.050185114
27	0x3fba1438	1.453742
28	0xbd380a02	-0.04493142
29	0xbd98945c	-0.07450172
30	0xbd0b1081	-0.033951286
31	0x3e9e3695	0.30901018
32	0x3df42766	0.11921577
33	0x3e893bd5	0.2680346
34	0xbdd7d37f	-0.105383866
35	0x3ebb46b6	0.36577386
36	0x3efbb1a6	0.49158973
37	0xbcc876aa	-0.024470646
38	0x3e0eb5f7	0.13936602
39	0x3e68e69f	0.22744225
40	0xbcd5921e	-0.02607065
41	0xbf8a642e	-1.0811822
42	0xbcb083b8	-0.021547183
43	0x3e56cb87	0.20976077
44	0xbb8bf8cd	-0.0042716027
45	0xbd9269bc	-0.071490735
46	0xbc87742d	-0.01653489
47	0x3d4aedf8	0.04954335
48	0xbe157242	-0.14594367
49	0xbd1a820b	-0.037721675
50	0xbfab2181	-1.33696
51	0x3c99bcaf	0.01876673
52	0x3f36377d	0.7117842
53	0x3d62caa3	0.05536903
54	0xbdaa9c47	-0.08330589
55	0xbd2b608a	-0.041840114
56	0x3cd6b0a2	0.026207272
57	0xbe93c520	-0.28861332
58	0xbdeeb736	-0.116560385
59	0x3d8d5ef7	0.06902879
60	0xbc2d211c	-0.010566976
61	0xbd2f164b	-0.04274587
62	0xbdcb7db5	-0.09936086
63	0xbde434da	-0.11142893
64	0x3e522a19	0.20523871
65	0xbe9008b3	-0.28131637
66	0xbe866b3a	-0.26253682
67	0x3d13d0ed	0.03608792
68	0xbc367f03	-0.01113868
69	0xbd358912	-0.044320174
70	0xbc65030e	-0.013977779
71	0x3c9c116f	0.019051282

net.4.weight f4 [36, 72]
0	0x3d95eab7	0.07320159
1	0x3d3cf766	0.046134375
2	0xbd892b87	-0.06697755
3	0xbe15f7a1	-0.14645244
4	0xbda56dbb	-0.0807757
5	0x3bca5c69	0.006175567
6	0xbd9ea6ad	-0.07746635
7	0xbdc3b9c4	-0.09556916
8	0xbb184feb	-0.0023240994
9	0xbddfb6bd	-0.109235264
10	0x3d99e9d1	0.075153
11	0x3cd6ce31	0.026221367
12	0xbda217b4	-0.07914677
13	0xbe5afc79	-0.21385373
14	0xbdaee323	-0.08539417
15	0x3b75741a	0.0037453235
16	0xbdbb1cf6	-0.09136383
17	0x3c411d0c	0.0117867105
18	0xbe046718	-0.12929952
19	0xbd88f1c0	-0.06686735
20	0x3c60e168	0.013725616
21	0xbe112372	-0.14173678
22	0x3dd30f80	0.10305691
23	0x3d7ceb9e	0.06174814
24	0x3db61559	0.088907905
25	0xbdf5995e	-0.11992143
26	0x3c9c8f0c	0.019111179
27	0xbe24671d	-0.1605496
28	0x3d3e2da1	0.046430234
29	0xbde3249c	-0.11090967
30	0xbd769f5f	-0.060210582
31	0xbdb1f919	-0.0869009
32	0xbe0777e1	-0.13229324
33	0xbc4c4ff7	-0.012470237
34	0xbd5e968e	-0.0543428
35	0xbdea7806	-0.11448674
36	0xbe2b937c	-0.1675548
37	0x3c671cdd	0.014106003
38	0xbdc1f6fa	-0.09470935
39	0xbd9017dc	-0.07035801
40	0xbd922a67	-0.07136994
41	0xbd2a31e7	-0.041551497
42	0x3d7af287	0.06126645
43	0x3d8cc67d	0.06873796
44	0xbde9f6b9	-0.11424012
45	0x3d9eb1f3	0.07748785
46	0xbc9404e9	-0.018068748
47	0xbe31fa9a	-0.17380753
48	0xbd59f024	-0.05320753
49	0xbda12cb8	-0.078698575
50	0xbe0a8d45	-0.13530453
51	0xbe3c6f6f	-0.18401884
52	0xbcc7516e	-0.02433082
53	0xbda15274	-0.07877055
54	0x3c6460c4	0.013939086
55	0x3bf675f6	0.0075213863
56	0xbab3df44	-0.0013723155
57	0xbd4d77a0	-0.05016291
58	0x3de59929	0.112108536
59	0xba2ef8dc	-0.0006674656
60	0x3da69d52	0.08135475
61	0xbdb3f614	-0.0878717
62	0xbde0c46e	-0.10974966
63	0xbdaff59b	-0.085917674
64	0xbd8041d3	-0.06262555
65	0xbdf12d8d	-0.11776266
66	0xbe2a6e7a	-0.16643706
67	0x3dcced43	0.100061916
68	0xbd2bc7d3	-0.041938614
69	0xbae3365b	-0.0017334925
70	0x3db42b0f	0.08797275
71	0x3db63352	0.08896507
72	0x3cc74839	0.02432643
73	0x3cb11bda	0.021619726
74	0xbde67275	-0.112523
75	0x3b34bcad	0.002757828
76	0x3dab2320	0.08356309
77	0x3d43f967	0.04784527
78	0x3dab6830	0.083694816
79	0xbd8f804d	-0.07006893
80	0xbc209a3f	-0.0098024
81	0x3cf9f542	0.030512456
82	0xbd95c69c	-0.07313272
83	0xbdc105da	-0.09424944
84	0xbd1abade	-0.037775867
85	0xbc1d2479	-0.009591215
86	0xbd96d972	-0.07365693
87	0x3bd9e086	0.0066490797
88	0xbc0f7388	-0.008755572
89	0xbd4d88c2	-0.05017925
90	0xbe069722	-0.1314359
91	0xbe37b885	-0.17941482
92	0xbd9554a4	-0.072915345
93	0x3abf00c5	0.0014572373
94	0xbd878b8b	-0.066184126
95	0x3d9ce966	0.07661705
96	0x3c703932	0.014662074
97	0xbda879df	-0.0822637
98	0x3c7948ce	0.015215112
99	0xbce7fefb	-0.028319826
100	0xbdd2104e	-0.10257016
101	0xbd9d33bd	-0.07675884
102	0xbd917e0c	-0.0710412
103	0xbd578c20	-0.052623868
104	0x3d75b863	0.059990298
105	0x3d2c4948	0.042062074
106	0xbc376694	-0.01119389
107	0xbe016525	-0.1263624
108	0xbcfb1626	-0.03065021
109	0x3dc0ebeb	0.09419998
110	0xbbf3f392	-0.0074448073
111	0x3d25d444	0.040485635
112	0x3d032e54	0.032026604
113	0x3cfef10c	0.0311208
114	0xbe0caf0d	-0.13738652
115	0xbdb93caa	-0.09044774
116	0x3d556862	0.0521015
117	0x3da1d769	0.07902414
118	0x3dcd8812	0.10035719
119	0x3d4c7d80	0.049924374
120	0x3da7881a	0.08180256
121	0xbd199451	-0.03749496
122	0xbc9c9365	-0.019113252
123	0xbd99dba5	-0.07512597
124	0xbb628ec9	-0.003456997
125	0x3db70998	0.08937377
126	0x3db62f6e	0.08895765
127	0xbde33af9	-0.110952325
128	0xbd70b6c8	-0.058768064
129	0xbd7ca528	-0.061680943
130	0xbda9438f	-0.08264839
131	0x3d073812	0.033012457
132	0xbdd3d5f8	-0.10343546
133	0xbc9c5aa0	-0.019086182
134	0x3d0f7ff7	0.035034146
135	0x3cb1087c	0.021610491
136	0x3d3d043b	0.046146613
137	0x3d19fc01	0.037593845
138	0xbd8501a5	-0.06494454
139	0xbda29c7f	-0.079400055
140	0x3c401bcf	0.01172538
141	0xbd6c5fb1	-0.057708446
142	0xbd94c915	-0.07264916
143	0x3de2ad5f	0.11068224
144	0xbdaa4fa5	-0.08315972
145	0x3deee2bc	0.1166434
146	0xbd8d9ef3	-0.06915083
147	0xbd452ae5	-0.04813661
148	0xbd8decdf	-0.06929945
149	0x3cedac1f	0.029012738
150	0x3d70850c	0.058720633
151	0xbdc8636f	-0.097845905
152	0xbdd52347	-0.10407119
153	0xbd85ab2e	-0.065267906
154	0x3d6b14a7	0.057392742
155	0x3c085a26	0.008322274
156	0xbd8de9cb	-0.06929358
157	0x3d72a14b	0.059235852
158	0x3d9b2e70	0.075772166
159	0x3ddd7bdc	0.1081464
160	0x3dcafde0	0.09911704
161	0xbe033227	-0.128121
162	0xbdae8ae2	-0.085225835
163	0xbd5e65c4	-0.05429627
164	0xbdcbb844	-0.09947255
165	0xbe03351f	-0.12813233
166	0x3a9ed395	0.00121175
167	0xbb0d25a1	-0.002153732
168	0x3d91197c	0.07084939
169	0x3cb38e91	0.021918567
170	0xbd02b77a	-0.031913258
171	0xbd4d2e4b	-0.050092977
172	0xbdb6ab3a	-0.089193776
173	0x3de8b537	0.11362689
174	0xbcd88072	-0.026428435
175	0x3dbf0ebf	0.093289845
176	0xbd8a7ccd	-0.06762085
177	0xbcceafcd	-0.025230313
178	0xbd8a4701	-0.06751824
179	0xbd18438b	-0.03717379
180	0xbd980648	-0.07423073
181	0x3d7c67e0	0.0616225
182	0xbd788d6b	-0.06068174
183	0x3d90297b	0.07039162
184	0x3d7bdcb5	0.06148978
185	0xbd4f9fe4	-0.050689593
186	0x3d893d2a	0.06701119
187	0xbe1dfeec	-0.15429276
188	0xbd45558d	-0.04817729
189	0x3ce1d1c0	0.027565837
190	0xbd050941	-0.03247953
191	0xbda17e48	-0.07885414
192	0x3ce6f83d	0.028194541
193	0x3d94312c	0.07235941
194	0xbdc0b4b6	-0.09409468
195	0x3dbdae45	0.09261755
196	0xbdd185ab	-0.10230573
197	0xbdced63c	-0.10099456
198	0xbdcd93fe	-0.10037993
199	0x3ddb6750	0.10713065
200	0x3de3fb1d	0.111318804
201	0xbd786336	-0.06064149
202	0x3dbb0ee2	0.09133698
203	0x3d105f40	0.035247087
204	0xbd564ff2	-0.052322336
205	0xbdcfff0c	-0.10156068
206	0xbd700873	-0.058601808
207	0x3d5d95be	0.054097883
208	0xbdcfb714	-0.10142341
209	0x3bf16c6f	0.0073676626
210	0xbd80cbb8	-0.06288856
211	0x3d8447b6	0.0645899
212	0x3da9fff1	0.0830077
213	0xbdcedf23	-0.10101154
214	0xbdcf8ac0	-0.10133886
215	0x3c38b4c3	0.011273566
216	0x3db97360	0.09055209
217	0xbddf4bf9	-0.109031625
218	0xbe69c2b9	-0.22828187
219	0xbe8b0780	-0.2715416
220	0x3d6c020e	0.057619147
221	0xbdf7abc4	-0.120933086
222	0xbe023f50	-0.12719464
223	0x3e0a15a1	0.13484813
224	0xbb1b11f5	-0.0023661826
225	0x3d8a6b34	0.067587286
226	0xbd0575ae	-0.03258293
227	0xbda3f7c0	-0.08006239
228	0xbf2d8118	-0.67775106
229	0x3e284a9d	0.16434713
230	0x3e1bf979	0.15231885
231	0x3c599722	0.013280662
232	0xbdcd1856	-0.10014407
233	0x3e5078f0	0.20358634
234	0x3e98b873	0.29828224
235	0xbdcba290	-0.09943116
236	0xbe7f35f6	-0.24922928
237	0xbc7fe5ca	-0.015618751
238	0xbdb9167c	-0.09037492
239	0xbca7aa6a	-0.020467002
240	0x3d46ae26	0.048505925
241	0xbe2e9b39	-0.170514
242	0x3ca81255	0.020516554
243	0xbebcc6dc	-0.36870468
244	0x3dd6bb19	0.10484905
245	0x3d371d33	0.04470558
246	0xbcaf4e2f	-0.021399586
247	0xbda06d96	-0.07833402
248	0xbe01e5cd	-0.12685318
249	0x3e14dfdf	0.14538525
250	0xbd2e1650	-0.042501748
251	0xbe8e2db7	-0.27769253
252	0xbf131ea5	-0.57468635
253	0xbdacc6dd	-0.08436368
254	0xbdca9d1c	-0.098932475
255	0x3e971b8e	0.2951321

net.4.bias f4 [36]
0	0xbe14bc64	-0.1452499
1	0xbd9ee94f	-0.07759344
2	0xbe12e874	-0.14346486
3	0xbf75e960	-0.96059227
4	0xbf35b25e	-0.7097529
5	0x3ee52cbb	0.4476069
6	0x3e78d7ac	0.24301022
7	0xbeee260d	-0.46513405
8	0xbdf10fb4	-0.11770573
9	0xbfe40a3f	-1.7815627
10	0x3f03e8d5	0.5152715
11	0x3f9c09a3	1.2190441
12	0x3f349257	0.70535797
13	0x3f0f7a88	0.5604634
14	0x3f00cdad	0.50313836
15	0xbe669380	-0.22517204
16	0x3dc1906d	0.09451375
17	0x3f128721	0.5723744
18	0x3fcefb72	1.6170485
19	0xbd916f2d	-0.07101283
20	0xbcb85525	-0.022501538
21	0xbc4a95ec	-0.012364846
22	0xbd85c79b	-0.06532212
23	0x3e26a580	0.1627407
24	0xbc3be18a	-0.011467347
25	0x3d307631	0.043081466
26	0x3cae984b	0.021312853
27	0xbf89e2e7	-1.077237
28	0xbee1af23	-0.4407893
29	0x3e39cf41	0.18145467
30	0xbda5cf68	-0.080962
31	0xbe405959	-0.18784083
32	0xbfdaec35	-1.7103335
33	0xbdca78c3	-0.09886315
34	0x3ee4fece	0.4472565
35	0xbf25c6d9	-0.6475654

net.6.weight f4 [8, 36]
0	0x3c80bb16	0.01571421
1	0xbdee81d6	-0.11645858
2	0xbc5d2100	-0.013496637
3	0x3d28c13e	0.041199915
4	0xbd43e773	-0.04782815
5	0xbde6169f	-0.112347834
6	0xbe21a9dc	-0.15787452
7	0x3d1fd610	0.039022505
8	0xbe1028b4	-0.14078027
9	0xbd04bb19	-0.032404993
10	0xbd33834c	-0.043826386
11	0xbddfecb9	-0.10933823
12	0xbe24411b	-0.16040461
13	0x3d2ec052	0.04266388
14	0x3de4fa91	0.11180604
15	0xbc7b3840	-0.015333235
16	0xbe1db8be	-0.15402505
17	0xbd152d04	-0.036419883
18	0x3db95b2b	0.09050592
19	0xbde4d670	-0.11173713
20	0xbda0a578	-0.07844061
21	0xbe1ee4fc	-0.15517038
22	0xbd85a65b	-0.065258704
23	0xbe0fe878	-0.14053524
24	0x3da25e60	0.07928157
25	0x3c783e40	0.01515156
26	0x3d0e0a20	0.034677625
27	0x3d0fa511	0.03506953
28	0xbcb3ad00	-0.021933079
29	0xbdd46c2b	-0.10372194
30	0xbe327ee4	-0.17431217
31	0x3d87e676	0.06635754
32	0xbdcc649f	-0.099801295
33	0xbd51e686	-0.051245235
34	0xbc9f5bc0	-0.01945293
35	0xbde1b0ec	-0.11020073
36	0xbd8198cb	-0.06327971
37	0xbdb50d36	-0.088404104
38	0x3bfb1156	0.0076619787
39	0xbf463582	-0.77425396
40	0x3dcb53e2	0.09928109
41	0xbe719c22	-0.23594716
42	0x3d1695ba	0.036763884
43	0x3c7082b4	0.0146796
44	0xbcdc8555	-0.026919046
45	0xbdcf9a48	-0.10136849
46	0x3e045df8	0.12926471
47	0xbd686b2f	-0.056742843
48	0xbdbe4566	-0.092905805
49	0xbc947f06	-0.018126976
50	0xbecb823b	-0.39747795
51	0x3e708c6e	0.2349107
52	0xbd743030	-0.059616268
53	0xbceb0dec	-0.028693162
54	0x3e38bf73	0.18041782
55	0x3e6dd40e	0.23225424
56	0xbdac3c6e	-0.084099635
57	0x3cc11880	0.023571253
58	0x3b744c00	0.0037276745
59	0x3dfd7879	0.12376494
60	0x3ded79f8	0.11595529
61	0xbdce8d40	-0.10085535
62	0x3ce361ab	0.027756533
63	0xbd942737	-0.07234042
64	0xbd704ee7	-0.058668997
65	0xbcca344f	-0.024683146
66	0xbdb4fd6e	-0.088374004
67	0x3bfb3080	0.0076656938
68	0x3dcc41cb	0.099734865
69	0x3d9262f3	0.07147779
70	0xbe26ee6e	-0.16301891
71	0xbbc73e51	-0.0060804267
72	0xbe328061	-0.17431785
73	0x3caec07c	0.021332018
74	0x3d234873	0.039864015
75	0xbea055e6	-0.31315535
76	0xbd21bfad	-0.039489437
77	0x3e53e69d	0.2069344
78	0xbf0dba60	-0.5536251
79	0x3dd1fcc1	0.10253287
80	0x3da97699	0.08274574
81	0xbe36e87c	-0.17862123
82	0x3dddfabe	0.10838841
83	0x3e2b1307	0.16706477
84	0xbe321ac1	-0.17393018
85	0x3e6b9cf9	0.23009099
86	0x3ee944c4	0.45560277
87	0xbd2f064e	-0.042730622
88	0x3dd8219f	0.10553288
89	0x3e45ed5c	0.19328827
90	0x3eb85e1b	0.36009297
91	0xbef64916	-0.48102635
92	0xbe60a46a	-0.21937719
93	0xbd018523	-0.03162111
94	0xbd729a15	-0.059228975
95	0xbf09ae1c	-0.53781295
96	0xbaa5a76f	-0.00126384
97	0x3d82dda7	0.06389933
98	0x3c8eeee5	0.017447898
99	0x3d4dae55	0.050215084
100	0xbd5e16c7	-0.05422094
101	0x3e56ade5	0.20964773
102	0x3d92c8b9	0.07167191
103	0x3d968c31	0.07350958
104	0xbe38f2e5	-0.18061407
105	0x3d05c7e8	0.03266135
106	0x3e100f94	0.14068443
107	0x3e12fa5f	0.14353321
108	0x3e4559d4	0.19272548
109	0xbd2f35db	-0.04277597
110	0xbe0317dc	-0.1280207
111	0x3ded2ae0	0.115804434
112	0xbe94db28	-0.29073453
113	0x3d234b2e	0.03986662
114	0xbea1c7d6	-0.31597775
115	0xbe1e09a7	-0.1543337
116	0xbc500400	-0.012696266
117	0xbf2f4e6a	-0.68479025
118	0xbe1e6912	-0.15469769
119	0xbf9c8d4a	-1.2230618
120	0xbd97dc52	-0.0741507
121	0xbd9f7116	-0.07785241
122	0xbe1f6546	-0.15565977
123	0x3ddf7215	0.10910431
124	0x3d409a38	0.047022074
125	0xbd68cd9a	-0.056836702
126	0x3caa2faa	0.020774681
127	0xbdefab16	-0.11702554
128	0x3e1e3a58	0.15451944
129	0xbe106314	-0.14100295
130	0xbe012f14	-0.12615615
131	0xbb87a5b5	-0.004139627
132	0xbdcf95a6	-0.10135965
133	0xbc6d7596	-0.014493367
134	0xbdb70770	-0.089369655
135	0x3e42f4ea	0.1903874
136	0x3bacdfab	0.0052756867
137	0x3d657f82	0.056029804
138	0xbd501f55	-0.05081113
139	0x3e11f73e	0.14254472
140	0x3e4c8af4	0.19974881
141	0x3e14b114	0.14520675
142	0xbecfda4f	-0.40596244
143	0xbd1e20c9	-0.038605485
144	0xbdb57438	-0.088600576
145	0xbc8ab566	-0.0169322
146	0xbd80f305	-0.06296352
147	0x3e63a0a7	0.22229253
148	0x3dafa1cb	0.085757814
149	0xbd390177	-0.045167413
150	0xbf439b10	-0.7640848
151	0xbdd091f9	-0.10184092
152	0xbde6e235	-0.11273614
153	0x3ebbe3c7	0.36697218
154	0x3d93e897	0.07222097
155	0xbd19c624	-0.037542477
156	0x3d7e82ec	0.062136576
157	0x3e2a4a22	0.16629842
158	0x3dd5caf7	0.10439103
159	0x3de00c41	0.10939837
160	0xbd0dd28c	-0.03462462
161	0x3e626223	0.22107749
162	0x3d126608	0.035741836
163	0xbe37711b	-0.1791424
164	0x3d4191c6	0.04725816
165	0xbc06980a	-0.00821496
166	0x3d28766a	0.041128553
167	0xb9a50213	-0.00031472798
168	0xbe46a898	-0.19400251
169	0x3c48b750	0.012250736
170	0x3d4a1643	0.049337637
171	0x3c98d3c9	0.018655675
172	0xbd8e2a71	-0.06941689
173	0x3d15818d	0.036500502
174	0x3e22b0cb	0.15887754
175	0xbdc6f3a6	-0.09714441
176	0x3e7e1f92	0.2481673
177	0x3dbb7e6a	0.09154971
178	0x3d1d0d69	0.038342867
179	0x3e870c24	0.2637645
180	0x3c9514a6	0.018198323
181	0xbbe9ebe1	-0.0071387147
182	0x3d58bc87	0.05291417
183	0xbf080acb	-0.5314147
184	0xbde3ede5	-0.11129359
185	0xbbd0e9c6	-0.006375524
186	0x3e0d83b5	0.13819773
187	0x3dd5f21e	0.10446571
188	0xbdc6232b	-0.096746765
189	0xbe5a085e	-0.21292254
190	0x3dfb7143	0.12277462
191	0x3bcfc6f4	0.0063408557
192	0x3ce0d7b4	0.027446605
193	0x3e5dc70a	0.21657959
194	0x3ead7998	0.3388183
195	0x3e21ec8a	0.15812889
196	0x3da45fca	0.08026083
197	0x3e489ef9	0.19591893
198	0x3cadf196	0.021233361
199	0x3e4f9f3e	0.2027559
200	0xbd0543d6	-0.032535397
201	0xbcfb3f02	-0.030669693
202	0xbd2b996a	-0.041894354
203	0xbde37ec4	-0.11108163
204	0x3cb2bc5c	0.021818332
205	0xbd80500c	-0.06265268
206	0xbe1968fc	-0.14981455
207	0x3c25a1fc	0.010109421
208	0xbe1ac856	-0.15115485
209	0x3c802d5b	0.015646627
210	0x3f1cb1b5	0.6120866
211	0xbd9b5a19	-0.07585544
212	0x3dfe133d	0.12406013
213	0xbd18829f	-0.037233945
214	0x3d9187e9	0.07106001
215	0xbda85f10	-0.08221257
216	0xbdc0b337	-0.094091825
217	0xbde15a86	-0.11003594
218	0xbc9111e6	-0.01770873
219	0x3e0f091f	0.13968323
220	0x3d6daeb8	0.058027953
221	0x3c8230d9	0.015892433
222	0xbe80e3e4	-0.25173867
223	0xbe332200	-0.17493439
224	0x3c4b4b0c	0.012408029
225	0x3e96d359	0.2945812
226	0x3e01e731	0.12685849
227	0x3e51baaf	0.2048137
228	0x3cfa9bd7	0.030591888
229	0x3e0dbcba	0.13841525
230	0x3e3de574	0.1854456
231	0x3de4f9ba	0.11180444
232	0x3db2b5dd	0.08726094
233	0x3dafb34c	0.0857912
234	0x3e0395e0	0.12850142
235	0xbd8e8cd1	-0.06960452
236	0xbd74664f	-0.05966788
237	0x3d8776b3	0.06614437
238	0xbd8f4e6d	-0.069973804
239	0xbe900143	-0.28125963
240	0x3d75383a	0.059868075
241	0x3d62e801	0.055397037
242	0xbd0bb1ce	-0.034105115
243	0xbeb3302b	-0.34997687
244	0x3c5071a8	0.01272241
245	0x3dd9b00a	0.1062928
246	0xbd9ab6eb	-0.0755442
247	0x3dbd10b3	0.09231701
248	0xbe657829	-0.22409119
249	0x3c1f1bdc	0.009711232
250	0x3da2fb8a	0.079581335
251	0xbc879802	-0.016551975
252	0x3dfbf440	0.12302446
253	0x3de8c384	0.11365417
254	0xbe227ca0	-0.15867853
255	0x3d20abbd	0.039226282

net.6.bias f4 [8]
0	0xbe3355e9	-0.17513241
1	0xbe6c1321	-0.23054172
2	0xbeef6394	-0.4675566
3	0xbe315e84	-0.17321211
4	0xbf0dd3a0	-0.5540104
5	0x3f2632ed	0.64921457
6	0x3fa571af	1.2925318
7	0xbdbaf212	-0.091282025

net.8.weight f4 [3, 8]
0	0x3e651c2b	0.22374026
1	0xbd33b6ef	-0.04387563
2	0x3e6c9065	0.23101957
3	0x3f4aaaad	0.7916668
4	0xbf7007db	-0.93761986
5	0xbd971fb4	-0.07379094
6	0xbe5dd19e	-0.21661994
7	0x3dc9e2a5	0.09857682
8	0x3d809fce	0.0628048
9	0x3f232dd4	0.63741803
10	0x3e7a6e83	0.2445622
11	0xbe4e1ec5	-0.20128925
12	0x3da74654	0.08167711
13	0xbf92bea1	-1.1464425
14	0xbdedd32d	-0.11612544
15	0x3e64b4cc	0.22334594
16	0x3e2f09fd	0.17093654
17	0xbe2cab2f	-0.16862176
18	0x3e0e8df9	0.13921346
19	0xbe9a6b29	-0.30159882
20	0xbe0363be	-0.12831017
21	0xbe56cb95	-0.20976098
22	0x3d043596	0.032277666
23	0xbe80eb41	-0.25179484

net.8.bias f4 [3]
0	0xbbdcccc8	-0.006738279
1	0xbf2294b2	-0.6350814
2	0x3ef033dd	0.4691457
