XMFlib/PairProbML/models/mlp_a2p_111_2nn.pth (torch, 55098 bytes, 10 tensors)

net.0.weight f4 [128, 3]
0.0039910697 -0.50806594 0.33619684 -0.39228946 -0.05819135 -0.33259407 -0.0089054415 -2.993795e-05
-0.5064019 0.056259923 -0.33722213 1.4135945 0.04292413 -0.16346312 -3.3431592 0.041223723
-0.29765138 -1.0371761 -0.22038402 0.107817866 -0.037342336 0.19491704 -0.4430827 -2.174481
-0.25080585 0.5944548 -0.9331713 -0.24030094 0.26448816 -0.2401151 0.010369903 -0.5661394
-2.0354784 0.0014570487 0.2137509 -1.385684 -0.53717357 -0.1555288 0.12048939 0.039121572
-0.42046633 -2.7410612 -0.00649117 -0.2483471 -1.0166043 -0.20819499 0.54760987 0.6664318
0.01021028 0.024207173 -1.3463384 0.0013975037 0.25266552 1.999188 -0.8629525 -0.117781974
0.6643047 -0.3524331 -0.39889732 0.55819553 0.0050323703 0.09943481 -1.7266244 0.01688581
-0.08370858 0.026863046 0.042574644 0.0013829382 0.14554964 -0.09027051 -0.41187665 0.18610199
-0.09419872 0.18902285 -0.56017566 -0.33765495 0.26490822 -0.57590973 -0.449581 -0.17321517
-0.34898907 -0.44287395 0.51742226 0.035139278 -0.13651936 0.1947551 0.24150011 -0.39064664
0.06843854 0.67560893 0.06988419 -0.25105414 1.2318118 0.06314425 -0.034729343 -0.0375087
0.042685036 -0.10542712 1.8799411 -0.11326241 0.24794145 -1.5824212 -0.39322084 0.34644783
0.9001198 -0.3700836 -0.3934176 -0.22504663 0.039347466 -0.2880279 1.4273064 0.15367843
-0.38150814 2.0332677 -0.3567022 -0.17755014 0.37387398 -0.024540197 -0.7392637 0.83772284
0.02190899 -0.0049695526 -1.9090221 -0.35785565 0.46483588 -0.1558838 -0.0027356083 -0.74805266
-0.79783934 -0.103634655 0.4895072 1.4294609 -0.29580665 0.15860443 0.47577208 -0.13511927
0.2046432 0.67172235 0.16044252 -0.40344548 1.7398394 0.06490373 -0.017037593 1.1013458
-0.19873002 -0.41428748 -0.18772414 -0.023069315 -0.37463212 0.8975468 0.07527919 -0.09828676
-2.7298532 0.010704701 0.095575765 2.1597269 -0.005559354 -0.47179255 -0.50716895 0.005767589
-0.2304747 -1.3272227 -0.0001442846 0.03794323 -1.0627568 0.0035084162 -0.21444322 1.2051446
0.11259628 -0.24829945 1.8713216 -0.10948223 0.21583669 1.0700308 0.14821982 -0.33307442
1.6872574 -0.066637136 0.018590115 -0.26220444 0.050667938 -0.06218667 -3.1290393 -0.5440557
-0.5426648 -0.08066935 0.07744028 -0.18562043 1.878548 0.001178636 0.06498635 2.2712314
-0.17220101 -0.3204621 -0.2933033 0.01461732 -0.005453478 1.916894 0.018923745 0.10880601
-3.731445 0.06468161 -0.25630552 -3.5320156 -0.57154006 0.1797836 -0.5661236 -0.03879355
0.15563127 2.0196292 -0.015447132 -0.21275726 -0.13811189 0.001199768 0.3370705 -1.2868881
0.04619078 -0.095424816 -1.4390866 -0.14562914 -0.4727266 -0.49196565 -0.5741537 -0.46616656
0.5502972 -0.4501234 -0.08010622 -0.10690254 -0.021714605 0.28645048 1.7313597 -0.30173016
-0.3510089 0.19305922 -0.23231757 -0.23154823 -0.1537027 0.013108909 -0.21724595 -1.7153103
0.11222375 -0.6281577 -2.368046 -0.64101696 0.023561252 0.5454479 -0.24268599 0.49040174
-0.5024331 0.0064649284 -0.1519216 0.23061314 0.04777707 -0.11868939 -1.3582566 0.15019144
00000000: 85c7 823b 9c10 02bf fe21 ac3e 2ada c8be
00000010: 0e5a 6ebd c549 aabe 21e8 11bc 4223 fbb7
00000020: 8ea3 01bf ce70 663d 61a8 acbe aaf0 b43f
00000030: 36d1 2f3d e062 27be 52f6 55c0 35da 283d
00000040: c365 98be 30c2 84bf 59ac 61be 9dcf dc3d
00000050: 47f4 18bd 5598 473e bcdb e2be b22a 0bc0
00000060: a069 80be 312e 183f 50e4 6ebf 7311 76be
00000070: fe6a 873e bce0 75be 87e6 293c 83ee 10bf
00000080: 4745 02c0 71fa be3a 84e1 5a3e 185e b1bf
00000090: 3584 09bf f142 1fbe 24c3 f63d f13d 203d
000000a0: 5d47 d7be 8c6d 2fc0 e1b3 d4bb b44e 7ebe
000000b0: 1720 82bf 1131 55be 2930 0c3f 469b 2a3f
000000c0: 0549 273c 1f4e c63c d154 acbf 712c b73a
000000d0: 605d 813e 64e5 ff3f 74ea 5cbf ad37 f1bd
000000e0: df0f 2a3f 1c72 b4be 453c ccbe e7e5 0e3f
000000f0: 95e6 a43b 7aa4 cb3d 0702 ddbf 1c54 8a3c
00000100: 676f abbd e40f dc3c c062 2e3d b543 b53a
00000110: f70a 153e bfdf b8bd 7fe1 d2be 8591 3e3e
00000120: 42eb c0bd 358f 413e ac67 0fbf 1ce1 acbe
00000130: 0da2 873e d26e 13bf 7b2f e6be 515f 31be
00000140: b2ae b2be 60c0 e2be c975 043f 34ee 0f3d
00000150: bbcb 0bbe e26d 473e ce4b 773e d602 c8be
00000160: 8129 8c3d b5f4 2c3f 711f 8f3d 2b8a 80be
00000170: 02ac 9d3f c651 813d 5b40 0ebd b9a2 19bd
00000180: 81d6 2e3d 2dea d7bd e9a1 f03f 1ff6 e7bd
00000190: 5de4 7d3e c78c cabf 3e54 c9be 9c61 b13e
000001a0: 406e 663f 997b bdbe 086e c9be a072 66be
000001b0: cf2a 213d 6578 93be fab1 b63f e15d 1d3e
000001c0: 0955 c3be 0f21 0240 aca1 b6be b4cf 35be
000001d0: 696c bf3e 8608 c9bc 6340 3dbf 0175 563f
000001e0: 7b7a b33c a1d7 a2bb d65a f4bf db38 b7be
000001f0: f8fe ed3e 01a0 1fbe e447 33bb 6180 3fbf
00000200: 333f 4cbf 683e d4bd b0a0 fa3e 93f8 b63f
00000210: f873 97be 3369 223e 6698 f33e b55c 0abe
00000220: fd8d 513e fff5 2b3f 0b4b 243e 6890 cebe
00000230: 0fb3 de3f 3fec 843d 6c92 8bbc e6f8 8c3f
00000240: e27f 4bbe 7d1d d4be c23a 40be dcfb bcbc
00000250: c8cf bfbe a1c5 653f fa2b 9a3d 924a c9bd
00000260: eab5 2ec0 c562 2f3c 3abd c33d f738 0a40
00000270: 3e2b b6bb cb8e f1be d3d5 01bf 0bfe bc3b
00000280: 8f01 6cbe 6fe2 a9bf 1a4b 17b9 5c6a 1b3d
00000290: 6a08 88bf 75ed 653b 0197 5bbe 2e42 9a3f
000002a0: e198 e63d 3642 7ebe 7787 ef3f 3838 e0bd
000002b0: 4b04 5d3e c5f6 883f f0c6 173e bb88 aabe
000002c0: 0df8 d73f 0d79 88bd 4c4a 983c a93f 86be
000002d0: 2f89 4f3d 73b7 7ebd 2e42 48c0 3c47 0bbf
000002e0: 15ec 0abf f935 a5bd 0299 9e3d 4813 3ebe
000002f0: 4374 f03f 767c 9a3a 9017 853d db5b 1140
00000300: 7655 30be 9c13 a4be da2b 96be 7c7d 6f3c
00000310: 17b3 b2bb c85c f53f f805 9b3c afd5 de3d
00000320: ffcf 6ec0 cb77 843d 7a3a 83be 8b0c 62c0
00000330: 7350 12bf 3119 383e 7aed 10bf fce5 1ebd
00000340: ce5d 1f3e 9b41 0140 f815 7dbc 0add 59be
00000350: 346d 0dbe 8941 9d3a 8194 ac3e c0b8 a4bf
00000360: 8b32 3d3d 166e c3bd fd33 b8bf ce1f 15be
00000370: 3909 f2be ece2 fbbe bdfb 12bf 62ad eebe
00000380: 47e0 0c3f 9376 e6be bb0e a4bd b8ef dabd
00000390: d4e2 b1bc a3a9 923e 329d dd3f 607c 9abe
000003a0: 70b7 b3be 51b1 453e a8e4 6dbe fb1a 6dbe
000003b0: 3e64 1dbe c0c6 563c b975 5ebe 4a8f dbbf
000003c0: 91d5 e53d f1ce 20bf 118e 17c0 b019 24bf
000003d0: 8703 c13c 79a2 0b3f ad82 78be f015 fb3e
000003e0: 759f 00bf c0d7 d33b 5691 1bbe da25 6c3e
000003f0: e4b1 433d 6c13 f3bd 5adb adbf c9cb 193e

net.0.bias f4 [128]
-0.7432299 -0.5628606 1.7245212 -1.2808756 -0.4721973 0.9784489 0.9263528 0.6973013
0.6442779 0.7301694 -0.8874518 1.1470853 -0.11585399 0.039598145 0.76296854 0.55642515
1.2590047 -0.2662083 0.047010563 -0.2768764 0.5468336 1.7783426 -2.473359 -0.40869597
0.6258621 -0.35682422 -0.41228658 -0.07271409 0.7285009 0.23366456 -1.1278942 -2.6783457
-0.14033116 0.78233695 0.50748426 -0.47568285 -1.471167 -0.17782903 -0.36884835 -0.34271002
0.7891726 -0.48725593 0.40722695 -0.5635265 0.32410187 -0.32143047 -0.8992379 -1.7565417
-0.0043974686 0.047532126 0.39687654 -0.68608737 0.74574137 0.6969186 1.0167882 -0.14874794
-0.8589088 0.84860873 -0.8337056 -0.13200672 0.32975727 -0.43406317 -0.31346402 -0.18613996
0.52845645 -1.0316525 -0.6334346 -0.21394774 -0.33360338 0.7644223 0.5014039 1.2060479
1.3465018 0.39109397 -0.56766343 -0.14212517 -0.424395 -0.24143536 0.16249758 0.71252924
0.550082 0.32431495 -0.078182414 -0.98130006 1.2864038 -0.66136783 1.2200356 0.63483053
-0.27774373 1.2481012 -0.4942815 0.72752744 -0.36628574 -0.6935999 0.08287083 1.3076098
-0.79655236 0.30843794 -0.41353494 -0.22528979 0.58065015 -0.23995058 -0.3560026 0.7499429
0.37946138 0.73821294 0.13927521 -0.1442006 -0.7651842 -0.25354108 -0.24399433 -0.48106173
-0.09496994 0.8022477 -1.137608 -0.734914 -0.19246368 -0.42699784 0.5008035 1.117398
-2.0323133 -0.37852055 0.1808513 0.9106489 0.22022472 -0.11710764 -0.2687837 0.6976275
00000000: 5144 3ebf a217 10bf 1cbd dc3f bbf3 a3bf
00000010: d8c3 f1be a17b 7a3f 7525 6d3f 5782 323f
00000020: 65ef 243f 62ec 3a3f 0b30 63bf b1d3 923f
00000030: db44 edbd aa31 223d e851 433f e171 0e3f
00000040: 1127 a13f 744c 88be 268e 403d bec2 8dbe
00000050: 49fd 0b3f bba0 e33f 844b 1ec0 9940 d1be
00000060: 8038 203f aab1 b6be 3a17 d3be 20eb 94bd
00000070: 097f 3a3f c345 6f3e d65e 90bf 046a 2bc0
00000080: f9b2 0fbe 3c47 483f 7dea 013f b48c f3be
00000090: 334f bcbf d018 36be b1d9 bcbe b077 afbe
000000a0: 3707 4a3f 9c79 f9be 0d80 d03e 4643 10bf
000000b0: aef0 a53e 8992 a4be 7434 66bf 5cd6 e0bf
000000c0: a418 90bb 0cb1 423d 6733 cb3e 6ca3 2fbf
000000d0: e8e8 3e3f 4269 323f 1e26 823f 6151 18be
000000e0: 72e1 5bbf 6c3e 593f bb6d 55bf c52c 07be
000000f0: f2d5 a83e 873d debe 5b7e a0be 799b 3ebe
00000100: ec48 073f 300d 84bf c528 22bf 1e15 5bbe
00000110: 10ce aabe 2eb1 433f 025c 003f c75f 9a3f
00000120: 2c5a ac3f 783d c83e 6452 11bf 4389 11be
00000130: 4d4a d9be d53a 77be c465 263e 5168 363f
00000140: 2dd2 0c3f 9c0c a63e 1a1e a0bd 7b36 7bbf
00000150: e1a8 a43f 674f 29bf 202a 9c3f 4184 223f
00000160: 6d34 8ebe c8c1 9f3f 7712 fdbe 3d3f 3a3f
00000170: ce89 bbbe c38f 31bf 2fb8 a93d c25f a73f
00000180: dbea 4bbf 94eb 9d3e daba d3be 5eb2 66be
00000190: 7da5 143f 9bb5 75be f945 b6be 42fc 3f3f
000001a0: c348 c23e 86fb 3c3f 299e 0e3e 52a9 13be
000001b0: 1de3 43bf 23d0 81be a6d9 79be b94d f6be
000001c0: 9a7f c2bd 1b60 4d3f 249d 91bf 5323 3cbf
000001d0: 3315 45be 769f dabe a834 003f e606 8f3f
000001e0: 6c11 02c0 72cd c1be 1531 393e 4920 693f
000001f0: 9782 613e 21d6 efbd 049e 89be b797 323f

net.2.weight f4 [72, 128]
-0.015552434 0.04569107 0.16931967 -0.056276053 -0.12229527 0.08295285 0.45392615 0.13241221
0.039494656 0.61666286 -0.17552888 0.04467937 0.08410921 -0.068274386 0.04407421 0.23395675
0.4606496 -0.24946378 0.93934804 0.58435917 0.020211982 0.032479312 -0.12265786 0.0021934274
-0.031192094 -0.026911288 -0.004907516 0.084873945 0.38027725 0.38772148 -0.0899491 -0.032793686
-0.13016951 0.2464685 0.930469 0.053836856 -0.3543922 -0.106014125 0.08402234 0.23740879
0.98124987 -0.040132955 -0.17210403 -0.0012839165 0.7394074 0.2607895 -0.010903343 -0.16540664
-0.08609251 -0.044982348 0.3350278 -0.42586014 0.009897432 0.03645328 0.01759401 0.21018842
-0.10954953 0.0043664705 -0.13038422 0.053109445 0.25610012 0.066394985 -0.1413529 -0.79773647
-0.082359776 -1.1851875 0.17671584 -0.06070816 -0.07450736 -0.12018765 0.17489505 0.12966096
0.1841624 0.2385117 0.016858106 0.08628222 -0.15414058 0.054252245 0.3123095 0.18602958
0.12514365 0.35340452 0.035724796 -0.14162666 0.33170602 -0.10302128 -0.011381623 0.40746707
-0.053792045 0.10992161 -0.044753272 0.057811324 0.04905269 -0.016709136 0.9875483 0.19194429
-0.110858805 0.15739715 0.0742424 -0.041243892 -0.26659414 -0.18620256 0.0012923804 -0.23232898
0.7054938 0.12323279 0.8377148 0.03726405 -0.05805267 -0.033450488 -0.183428 0.17449991
0.033882607 0.15900639 -0.18435037 -0.821352 -0.5421344 0.068720646 0.1604781 0.07475179
-0.22409698 -0.0053841523 -0.11568802 0.036236938 0.007385604 0.27336252 -0.13330069 -0.056261238
0.16879871 -0.05045201 -0.55389744 0.2207743 -0.03793275 -0.15866257 -0.31601688 0.044444714
-0.1691468 -0.14297925 0.055642195 -0.11669237 -0.057594765 0.020027056 -0.0748726 0.019204801
-1.7725911 0.08605908 0.24390817 -0.061080955 0.02766721 -0.2975191 0.09421597 -0.02633138
-0.113163695 -0.024359487 -0.051365323 -0.06775886 -0.29585686 0.47979105 0.117360905 0.15411064
0.012265264 -0.02547403 0.15615432 -0.005005897 0.12326805 -0.03416408 0.030736107 0.5157787
-0.40494886 0.078540206 0.079734094 0.23898381 0.19291729 0.4022876 0.17230241 0.13204756
0.055800837 -0.035771944 -0.08306613 0.44169998 -0.1599882 0.053180855 -0.08091647 -0.11407978
0.13900883 -0.014224916 0.033805016 0.012514137 -0.044962216 0.043051742 0.06607679 0.3575549
-0.35394403 1.0087019 -0.04698836 0.005647774 -0.05076436 -0.036637586 -0.12745522 -0.28338063
-0.6990271 -0.10424981 0.004932003 -0.010561442 0.27244246 -0.0073686177 -0.04285094 -0.10799955
-0.102000006 -0.028591601 0.08016904 -0.083641015 -0.9066016 0.05481658 -0.11229032 -0.34624416
-0.020614522 -0.5630339 -0.004345751 -0.0002056329 -0.087440476 0.37189034 -0.07542119 -0.5226075
0.22825842 -0.11935478 0.0242561 0.082146816 -0.09904611 0.09814787 0.06860178 -0.047630727
-0.0021244476 -0.33129576 -0.073687024 0.09708187 0.2050292 -0.014313049 0.055211898 -0.1210952
0.075438745 -0.10337734 0.47248894 0.10181092 0.3979497 -0.039422907 0.01681337 -1.1671335
0.10793521 0.07289165 0.08305412 -0.11150786 -0.050620254 -0.067344435 -0.02884159 -0.1731577
00000000: a3cf 7ebc 8f26 3b3d 2362 2d3e b881 66bd
00000010: f175 fabd 2fe3 a93d 0269 e83e 1197 073e
00000020: 26c5 213d 9edd 1d3f d8bd 33be b701 373d
00000030: 7341 ac3d 71d3 8bbd 2987 343d 5c92 6f3e
00000040: 44da eb3e 6f73 7fbe 1d79 703f 9098 153f
00000050: 9993 a53c 0709 053d 0b34 fbbd 9bbf 0f3b
00000060: 9086 ffbc 1075 dcbc 3acf a0bb 64d2 ad3d
00000070: b3b3 c23e 6e83 c63e 3c37 b8bd ac52 06bd
00000080: 284b 05be 3d62 7c3e 3733 6e3f 0984 5c3d
00000090: e572 b5be ef1d d9bd e813 ac3d 4a1b 733e
000000a0: 3133 7b3f 7462 24bd 0a3c 30be 1749 a8ba
000000b0: ce49 3d3f 3486 853e efa3 32bc 5c60 29be
000000c0: 4551 b0bd 693f 38bd c488 ab3e 570a dabe
000000d0: d728 223c 0950 153d 5021 903c a23b 573e
000000e0: 815b e0bd 9c14 8f3b 7183 05be 4a89 593d
000000f0: 8e1f 833e 18fa 873d d1be 10be 7538 4cbf
00000100: 3eac a8bd 39b4 97bf fff4 343e 1fa9 78bd
00000110: 5197 98bd f124 f6bd b017 333e d8c5 043e
00000120: 1195 3c3e 693c 743e 031a 8a3c bcb4 b03d
00000130: 07d7 1dbe 9a37 5e3d 08e7 9f3e 8a7e 3e3e
00000140: a825 003e 70f1 b43e 2a54 123d 9406 11be
00000150: 5fd5 a93e d2fc d2bd fd79 3abc 869f d03e
00000160: 0c55 5cbd 951e e13d 354f 37bd 91cb 6c3d
00000170: 79eb 483d 99e1 88bc f7cf 7c3f 0b8d 443e
00000180: f109 e3bd b82c 213e 660c 983d 5bef 28bd
00000190: 077f 88be e2ab 3ebe 1765 a93a a6e7 6dbe
000001a0: 3e9b 343f 7961 fc3d 7a74 563f 30a2 183d
000001b0: a3c8 6dbd 6103 09bd 8dd4 3bbe 1bb0 323e
000001c0: 7dc8 0a3d 92d2 223e 58c6 3cbe 2044 52bf
000001d0: 52c9 0abf 69bd 8c3d 5f54 243e 7717 993d
000001e0: ae79 65be 8b6d b0bb d7ed ecbd 2f6d 143d
000001f0: f002 f23b 2cf6 8b3e fa7f 08be 2f72 66bd
00000200: 92d9 2c3e c4a6 4ebd 39cc 0dbf a812 623e
00000210: 5f5f 1bbd 7178 22be f7cc a1be a90b 363d
00000220: d234 2dbe 2769 12be 12e9 633d 69fc eebd
00000230: 7de8 6bbd c80f a43c ce56 99bd 6353 9d3c
00000240: 44e4 e2bf be3f b03d 10c3 793e 0630 7abd
00000250: 58a6 e23c 6c54 98be 4df4 c03d e8b4 d7bc
00000260: 5ec2 e7bd 8c8d c7bc 7264 52bd 28c5 8abd
00000270: 8d7a 97be 2ca7 f53e ea5a f03d 2ecf 1d3e
00000280: 3ff4 483c eaae d0bc ebe6 1f3e 8208 a4bb
00000290: f673 fc3d a2ef 0bbd 4aca fb3c 130a 043f
000002a0: 7555 cfbe b0d9 a03d a14b a33d 2cb8 743e
000002b0: 1c8c 453e a4f8 cd3e 0b70 303e 7a37 073e
000002c0: 6b8f 643d 9a85 12bd 931e aabd 8026 e23e
000002d0: f2d3 23be 2bd4 593d 89b7 a5bd a9a2 e9bd
000002e0: 5558 0e3e 9f0f 69bc 2177 0a3d 1808 4d3c
000002f0: 4d2a 38bd 0657 303d 4553 873d 7011 b73e
00000300: 2738 b5be 251d 813f de76 40bd f610 b93b
00000310: 4aee 4fbd 4b11 16bd 9f83 02be 4417 91be
00000320: 71f3 32bf ed80 d5bd a49c a13b e609 2dbc
00000330: 947d 8b3e 7274 f1bb 7884 2fbd de2e ddbd
00000340: 61e5 d0bd ef38 eabc aa2f a43d fb4b abbd
00000350: 0b17 68bf 5a87 603d 78f8 e5bd ea46 b1be
00000360: c9df a8bc fd22 10bf cd66 8ebb 299f 57b9
00000370: fe13 b3bd 6968 be3e 6d76 9abd 9bc9 05bf
00000380: 93bc 693e 4770 f4bd bbb4 c63c 973c a83d
00000390: b0d8 cabd c001 c93d 177f 8c3d 7018 43bd
000003a0: 513a 0bbb 999f a9be 39e9 96bd dcd2 c63d
000003b0: 2df3 513e 4781 6abc df25 623d c300 f8bd
000003c0: a17f 9a3d 80b7 d3bd 12ea f13e 3e82 d03d
000003d0: 10c0 cb3e ea79 21bd 31bc 893c a164 95bf
000003e0: 230d dd3d 3848 953d 4718 aa3d 3c5e e4bd
000003f0: 2f57 4fbd e1eb 89bd 3345 ecbc 4150 31be

net.2.bias f4 [72]
0.1473599 -0.7465159 0.97314256 -0.39083895 -0.4719388 0.8779792 0.6022659 -0.04004185
-0.010596232 -0.091475055 -0.2716971 0.07497903 -0.3732954 -0.03161577 0.1588015 -0.39158216
-0.04376189 0.53974366 0.0076835644 -0.08884686 -0.07287162 0.017138189 -0.23093212 0.06513323
-0.008172005 0.4613608 0.94666284 0.39396802 -0.07058693 -0.26952913 0.059736382 0.04868415
-0.0141317155 -0.2290705 0.48752353 0.25785294 0.3379584 0.38833755 0.038319495 0.06408208
-0.0005342387 -0.24574818 -0.0490872 0.07538361 0.05570642 -0.061912537 -0.02774711 0.0010516692
-0.035827324 -0.4164739 -0.059062485 0.0096201915 -0.11048296 -0.14115016 0.097851284 0.083603114
-0.1809669 -0.046200447 0.060653653 -0.026720699 0.027263584 0.52503014 0.08212081 0.008568521
0.16652654 -0.12815572 0.28621113 0.14874788 -0.22865814 -0.043981098 -0.005730352 0.27365434
00000000: 83e5 163e ab1b 3fbf df1f 793f 0b1c c8be
00000010: f6a1 f1be 3fc3 603f 192e 1a3f ec02 24bd
00000020: d19b 2dbc 4657 bbbd e21b 8bbe 9b8e 993d
00000030: 9320 bfbe 8a7f 01bd dc9c 223e 757d c8be
00000040: ab3f 33bd a42c 0a3f 69c6 fb3b 58f5 b5bd
00000050: b73d 95bd 6365 8c3c 7879 6cbe 9264 853d
00000060: e0e3 05bc 7c37 ec3e 7f58 723f 2db6 c93e
00000070: e18f 90bd b9ff 89be 23ae 743d 0869 473d
00000080: b688 67bc 7591 6abe af9c f93e 4d05 843e
00000090: e208 ad3e 2ed4 c63e e7f4 1c3d 773d 833d
000000a0: 270c 0cba 69a5 7bbe a90f 49bd b962 9a3d
000000b0: 6a2c 643d 0098 7dbd e84d e3bc 2ad8 893a
000000c0: acbf 12bd 113c d5be 81eb 71bd 029e 1d3c
000000d0: e444 e2bd ab89 10be 4166 c83d 1c38 ab3d
000000e0: 634f 39be ae3c 3dbd f76f 783d 5ee5 dabc
000000f0: e157 df3c 6068 063f f52e a83d fb62 0c3c
00000100: ef85 2a3e 413b 03be 448a 923e 5d51 183e
00000110: 5c25 6abe 8625 34bd adc5 bbbb 6c1c 8c3e

net.4.weight f4 [36, 72]
0.03596331 -0.15974061 0.17104939 0.014381741 -0.30188474 0.2548049 0.00951467 -0.031191949
0.06999832 0.054595828 -0.071984105 -0.06758074 0.047505744 -0.057712182 -0.04372427 0.3026003
0.00016128141 0.102845706 0.88488895 0.09232248 -0.102360606 -0.123775825 0.008515972 -0.09237145
0.06378889 0.25163347 0.027323697 0.2365757 0.08503777 0.18291965 -0.51019216 0.21262561
0.13366543 0.021862373 0.04171342 -0.054886274 0.017452778 -0.22588298 -0.2924312 -0.052819263
0.097592376 0.05758263 0.07574358 -0.06021761 0.015908282 -0.07056396 -0.18946448 -0.08883641
-0.03515784 0.07750154 -0.10147093 -0.04524469 -0.010251384 -0.017241905 0.37748224 -0.04073116
0.062495075 -0.027558485 -0.07722066 0.06948073 -0.037684873 0.010396931 -0.063199975 0.09507804
-0.0874703 -0.055694763 0.30610645 0.17727315 -0.17138772 -0.01892 0.06660459 0.33468834
0.13397425 0.29333913 -0.16934256 0.13246298 0.16034208 -0.25921544 0.18559803 0.0023288382
0.11956256 -0.015910737 -0.037597436 -0.05716283 0.051867697 -0.08956785 0.05663387 0.031839754
-0.0035577884 -0.045159448 -0.023582708 -0.21185905 -0.06657823 -0.015898006 -0.036119968 0.043445706
-0.037243325 -0.023042604 -0.04835808 -0.022642052 -0.07487561 -0.006819107 0.1833205 -0.023497136
-0.015270806 -0.011404297 0.10640123 -0.083026916 0.19720992 0.28647044 0.16384065 0.008614542
0.0896092 0.018671248 0.008855179 -0.062485144 -0.05067129 0.08583943 0.05681368 0.077301495
-0.0789931 0.11819431 0.0685277 0.03017275 0.074519075 0.064349644 -0.37043688 -0.023225848
-0.020471862 0.106107175 -0.015054329 -0.022549162 0.015747562 0.19806841 -0.02302205 0.07045792
0.02789616 0.09254402 -0.3977742 -0.016644552 0.042885497 0.0004995879 0.108010255 0.119326055
0.07605777 -0.08883116 -0.122490935 0.17549384 0.36248717 -0.20185399 0.11118727 -0.1093455
0.0703174 0.10583558 -0.09587492 0.075751685 0.3493704 -0.030902194 0.08497777 -0.00395257
0.08469658 -0.092469655 0.15061258 0.13928807 -0.10655605 0.07603529 -0.0075714253 0.09411971
0.055695806 0.7579683 -0.0057248725 -0.049906608 -0.031779658 -0.046915207 0.1714573 -0.21563363
0.17007957 0.29083288 0.00021706443 -0.08100376 -0.034770634 0.25159106 0.09053475 0.12828222
0.13458405 0.018219477 -0.07844587 0.012426789 -0.057904877 -0.10249282 0.15293653 0.06866136
0.047817484 0.042624373 -0.06692211 -0.049000554 0.092011034 0.15364355 -0.63781464 -0.058941506
0.01808244 0.09183593 0.05434654 -0.1134578 -0.005041618 -0.079201624 -0.018585714 -0.102716185
0.05696305 -0.11485894 0.24703704 0.21269165 0.12151152 -0.05389899 -0.049018044 0.27642643
-0.14482006 0.08882798 -0.027328392 -0.48878738 -0.18077046 0.13104405 -0.105639644 -0.106636934
0.07374115 -0.07559566 0.00072796055 -0.10863114 0.21786377 0.0010283579 -0.0063078697 -0.57219285
0.0558123 0.14136417 -0.3005694 -0.010923537 -0.048571743 -0.02028646 -0.092627674 -0.059637096
0.03488174 -0.4542504 -0.065474585 0.38982478 -0.04629465 -0.14059743 0.032087404 -0.01631557
0.16444878 -0.01727162 -0.28660077 -1.1769825 0.33662763 0.022619314 -0.04275028 -0.04840571
00000000: 444e 133d 0b93 23be 9227 2f3e 65a1 6b3c
00000010: a390 9abe ca75 823e 6be3 1b3c 4286 ffbc
00000020: 475b 8f3d e09f 5f3d 676c 93bd c567 8abd
00000030: 6295 423d 9c63 6cbd 3818 33bd 6dee 9a3e
00000040: a61d 2939 c5a0 d23d 1588 623f 9213 bd3d
00000050: 70a2 d1bd 2e7e fdbd 9386 0b3c 3e2d bdbd
00000060: c0a3 823d 1ad6 803e f2d5 df3c e640 723e
00000070: 4828 ae3d 4a4f 3b3e f49b 02bf 87ba 593e
00000080: 97df 083e b818 b33c b1db 2a3d 6ed0 60bd
00000090: 21f9 8e3c de4d 67be 8bb9 95be 0359 58bd
000000a0: 83de c73d c4db 6b3d 731f 9b3d bea6 76bd
000000b0: 1652 823c d683 90bd fa02 42be ddef b5bd
000000c0: ab01 10bd 21b9 9e3d fecf cfbd 7f52 39bd
000000d0: 6cf5 27bc e53e 8dbc 5a45 c13e b8d5 26bd
000000e0: d6fa 7f3d 55c2 e1bc de25 9ebd ea4b 8e3d
000000f0: 745b 1abd e457 2a3c fd6e 81bd 47b8 c23d
00000100: a123 b3bd 3120 64bd fcb9 9c3e 1887 353e
00000110: 4380 2fbe 1efe 9abc fd67 883d 455c ab3e
00000120: 8c30 093e 8c30 963e 2368 2dbe 60a4 073e
00000130: b730 243e e3b7 84be 690d 3e3e 6c9f 183b
00000140: 37dd f43d 3c57 82bc c5ff 19bd 9223 6abd
00000150: 3973 543d 596f b7bd ebf8 673d 676a 023d
00000160: c929 69bb 1df9 38bd 8630 c1bc 94f1 58be
00000170: 2b5a 88bd 893c 82bc 88f2 13bd 20f4 313d
00000180: 758c 18bd d8c3 bcbc 1f13 46bd d37b b9bc
00000190: 6258 99bd d172 dfbb 5fb8 3b3e 117d c0bc
000001a0: 6732 7abc 17d9 3abc e3e8 d93d 040a aabd
000001b0: 66f1 493e 41ac 923e d8c5 273e 0224 0d3c
000001c0: 0785 b73d 72f4 983c 5015 113c 6cf0 7fbd
000001d0: b38c 4fbd 95cc af3d 76b5 683d 3f50 9e3d
000001e0: 22c7 a1bd dc0f f23d 4058 8c3d d82c f73c
000001f0: 759d 983d bfc9 833d e7a9 bdbe 2244 bebc
00000200: 9bb4 a7bc b84e d93d 6fa6 76bc 05b9 b8bc
00000210: 0801 813c 72d2 4a3e bd98 bcbc 3e4c 903d
00000220: 7d86 e43c b887 bd3d 0fa9 cbbe 285a 88bc
00000230: b4a8 2f3d c7f6 023a 7b34 dd3d 3861 f43d
00000240: 2dc4 9b3d 1ced b5bd 87dc fabd a8b4 333e
00000250: eb97 b93e d0b2 4ebe 27b6 e33d 89f0 dfbd
00000260: 9202 903d 53c0 d83d 125a c4bd b323 9b3d
00000270: ade0 b23e 9926 fdbc d308 ae3d 8f84 81bb
00000280: 6775 ad3d bb60 bdbd 2f3a 1a3e 88a1 0e3e
00000290: 0f3a dabd 64b8 9b3d b819 f8bb d6c1 c03d
000002a0: 4921 643d 360a 423f b697 bbbb df6a 4cbd
000002b0: 632b 02bd 292a 40bd 8192 2f3e 10cf 5cbe
000002c0: 5729 2e3e 0ce8 943e ca9b 6339 4de5 a5bd
000002d0: a76b 0ebd 8bd0 803e 486a b93d 6a5c 033e
000002e0: 67d0 093e 0341 953c 3aa8 a0bd bb99 4b3c
000002f0: aa2d 6dbd c1e7 d1bd 659b 1c3e 549e 8c3d
00000300: 44dc 433d e596 2e3d 760e 89bd ceb4 48bd
00000310: 4870 bc3d bc54 1d3e d247 23bf a66c 71bd
00000320: a021 943c 7a14 bc3d 7a9a 5e3d 905c e8bd
00000330: 2834 a5bb 7634 a2bd 1141 98bc dd5c d2bd
00000340: 1652 693d 2a3b ebbd 47f7 7c3e d7cb 593e
00000350: 08db f83d 30c5 5cbd 25c7 48bd c487 8d3e
00000360: b64b 14be 72eb b53d cbdf dfbc 5742 fabe
00000370: e41b 39be 6930 063e 9959 d8bd 7764 dabd
00000380: 9a05 973d e6d1 9abd 9bd4 3e3a 017a debd
00000390: ae17 5f3e f7c9 863a 3fb2 cebb 3b7b 12bf
000003a0: 709b 643d c5c1 103e 3be4 99be a3f8 32bc
000003b0: 2af3 46bd ca2f a6bc 94b3 bdbd 0746 74bd
000003c0: 28e0 0e3d 8293 e8be 8a17 86bd 1d97 c73e
000003d0: 759f 3dbd c6f8 0fbe 156e 033d 3ba8 85bc
000003e0: 4365 283e 367d 8dbc 56bd 92be 5da7 96bf
000003f0: 755a ac3e 244c b93c eb1a 2fbd 1145 46bd

net.4.bias f4 [36]
-0.04151946 -0.67276084 -0.33364388 0.7140137 -0.41230848 0.07483449 0.038275026 -0.19982041
-0.974062 -0.008994794 0.611476 -0.17343913 0.08352112 -0.18444063 -0.4518037 0.13500968
0.36925197 0.12899417 0.5874002 -0.06158061 -0.6528684 0.0076763825 0.021999966 -1.1587232
0.30104005 -0.09218638 -0.14075448 0.3844426 -0.072307914 0.23120743 -0.04364837 -0.009609906
-0.5616964 0.2302116 0.46125022 0.022559658
00000000: 4f10 2abd 0e3a 2cbf 5fd3 aabe 9ac9 363f
00000010: 191a d3be d342 993d 46c6 1c3d b99d 4cbe
00000020: 215c 79bf e75e 13bc b189 1c3f 079a 31be
00000030: 1f0d ab3d 01de 3cbe d152 e7be fa3f 0a3e
00000040: 980e bd3e 0c17 043e dc5f 163f f33b 7cbd
00000050: 6222 27bf 2a8a fb3b 4639 b43c 0b51 94bf
00000060: ec21 9a3e 36cc bcbd f121 10be a9d5 c43e
00000070: 2c16 94bd a4c1 6c3e a2c8 32bd de72 1dbc
00000080: 56cb 0fbf 97bc 6b3e fd28 ec3e 08cf b83c

net.6.weight f4 [8, 36]
0.026699526 0.30448866 0.12809116 0.10025642 0.3114223 0.09167147 -0.0059279185 0.0923637
0.052298933 0.105417155 0.072181635 -0.09749597 0.14517666 -0.0036352307 -0.25445446 0.036817253
0.046842463 0.41749126 -0.049993206 -0.097219475 -0.3178722 -0.07973015 0.1377772 0.79708105
-0.053027984 0.18040116 0.030128013 0.007497336 -0.12319759 0.017419385 -0.121845186 0.23697978
-0.631996 0.016976941 -0.048963185 0.05762999 -0.14952704 0.16929829 -0.029039243 -0.11128595
0.16665326 -0.16172896 0.040555827 -0.12195192 0.1375744 -0.068220064 -0.123388305 0.07861046
-0.13797417 0.14792964 -0.08584556 0.09447553 -0.029273437 0.13269557 -0.17201723 0.15489613
0.1619322 0.102435134 -0.055776566 0.27488843 -0.015849218 0.036941376 0.035256702 -0.27634022
0.12122685 -0.14334455 0.007118364 -0.016077127 -0.1996681 -0.06545655 -0.1928624 -0.08102469
0.09800797 -0.05348051 -0.16610688 0.07122663 0.02001606 0.025548588 0.07425921 0.07826146
-0.13630435 -0.099795505 -0.043596566 0.11385962 0.115299866 -0.15973465 0.053489536 -0.14020503
0.031747084 -0.11910311 -0.04242927 -0.111489 -0.09516613 -0.021531641 -0.020266114 -0.099599846
-0.1363022 -0.060756784 0.024700483 -0.10112179 -0.14156267 -0.034361232 0.15759985 -0.010560712
-0.08225935 -0.013633713 -0.05856863 -0.0416982 0.2521744 -0.012619544 -0.05734715 0.07203725
-0.16493122 -0.036935966 0.004644502 0.3045737 -0.10532955 0.077287346 0.14467175 -0.078373395
-0.1948867 0.04457056 -0.026941279 0.21017684 0.022942798 0.096696585 -0.016512034 0.037946675
0.13091797 0.048858624 -0.0860968 -0.4428329 0.16988644 0.04101786 -0.08374676 -0.0170085
0.0016605284 0.06975234 0.3409183 0.01049523 0.7468253 0.005025021 0.17450413 -0.12978886
-0.07546681 0.05988891 0.004871797 0.05725764 -0.10158356 -0.039962064 -0.1266952 0.30715373
-0.20097135 -0.056773864 -0.050668713 -0.10110717 -0.0037244558 0.010451775 -0.29336622 0.22481804
-0.04504559 0.036527857 0.05521571 0.0049918834 0.09502836 -0.10526137 0.030037655 -0.11916429
-0.07346899 -0.033837117 -0.066984184 0.014313081 -0.044922974 0.037668638 -0.3922006 0.041091975
-0.6151899 -0.044909567 0.030509826 -0.04217337 -0.16455156 0.08040628 -0.16382442 0.68702924
-0.062523484 -0.0051160767 0.08536232 -0.10253444 -0.02435955 -0.18525204 0.29167643 -0.17092969
-0.011809175 -0.05367886 -0.024192499 0.6505664 0.18716392 0.101199195 0.006677654 0.10045228
0.07034499 -0.02472943 -0.15530144 -0.023682995 0.103350274 0.048754323 0.02646118 0.5564862
1.2858812 0.73779196 -0.42027876 0.04840073 0.043604836 0.7525164 -0.28860128 -0.03636339
0.015439441 -0.19256566 0.0361119 -0.11784421 -0.054351434 0.03456801 -0.045194946 0.0031184952
0.05212903 0.028195988 -0.0027891102 -0.059102774 0.16151604 -0.09550451 -0.24642782 -0.05441482
-0.08431902 -0.22703798 -0.07830621 0.15305808 0.11289302 0.05377239 0.12823269 0.08641653
-0.16081394 0.02414842 0.086744234 -0.03762736 0.14512685 0.060639035 -0.13976614 -0.051028527
-0.02111621 -0.08495742 -0.23301296 -0.04961636 -0.2453676 0.08225701 0.11845339 0.40716422
00000000: f7b8 da3c f0e5 9b3e 542a 033e 3d53 cd3d
00000010: be72 9f3e 40be bb3d fc3e c2bb 2e29 bd3d
00000020: 6837 563d f3e4 d73d f7d3 933d f8ab c7bd
00000030: 31a9 143e 0d3d 6ebb db47 82be b0cd 163d
00000040: e2dd 3f3d 6ac1 d53e adc5 4cbd 011b c7bd
00000050: 25c0 a2be 9049 a3bd 7715 0d3e 810d 4c3f
00000060: df33 59bd 15bb 383e 06cf f63c 36ac f53b
00000070: 054f fcbd 19b3 8e3c f889 f9bd d4aa 723e
00000080: 7dca 21bf 3a13 8b3c 9f8d 48bd 6d0d 6c3d
00000090: 9e1d 19be 885c 2d3e b5e3 edbc e3e9 e3bd
000000a0: 27a7 2a3e 479c 25be de1d 263d eec1 f9bd
000000b0: 4ee0 0c3e f6b6 8bbd 02b3 fcbd 85fe a03d
000000c0: 1a49 0dbe de7a 173e cccf afbd 637c c13d
000000d0: d9ce efbc 59e1 073e 4925 30be 179d 1e3e
000000e0: 8ed1 253e 83c9 d13d f875 64bd 2dbe 8c3e
000000f0: 38d6 81bc d74f 173d 5569 103d 777c 8dbe
00000100: c845 f83d eac8 12be 2a41 e93b 2eb4 83bc
00000110: cb75 4cbe 150e 86bd b97d 45be 46f0 a5bd
00000120: 67b8 c83d 610e 5bbd ec17 2abe 44df 913d
00000130: b8f8 a33c 464b d13c 3615 983d 8b47 a03d
00000140: 5e93 0bbe 9661 ccbd 5092 32bd 3c2f e93d
00000150: 5622 ec3d 7b91 23be d817 5b3d e891 0fbe
00000160: 3b09 023d 55ec f3bd 50ca 2dbd 5854 e4bd
00000170: 76e6 c2bd 2063 b0bc 1f05 a6bc 01fb cbbd
00000180: ce92 0bbe 1bdc 78bd ab58 ca3c f118 cfbd
00000190: cef5 10be 5dbe 0cbd db61 213e d606 2dbc
000001a0: 9777 a8bd f05f 5fbc a9e5 6fbd bbcb 2abd
000001b0: 011d 813e 34c2 4ebc d8e4 6abd 4488 933d
000001c0: bbe3 28be 2b4a 17bd e830 983b 16f1 9b3e
000001d0: 05b7 d7bd d448 9e3d d524 143e 3b82 a0bd
000001e0: 6190 47be 9f8f 363d f5b3 dcbc 9938 573e
000001f0: 89f2 bb3c dc08 c63d 3f44 87bc f96d 1b3d
00000200: 5c0f 063e fb1f 483d 8553 b0bd feba e2be
00000210: b6f6 2d3e 5802 283d 6c83 abbd 6955 8bbc
00000220: 16a6 d93a 51da 8e3d d88c ae3e 2ff4 2b3c
00000230: f12f 3f3f eea8 a43b 36b1 323e 5fe7 04be
00000240: 588e 9abd 134e 753d 98a3 9f3b fd86 6a3d
00000250: 0b0b d0bd 43af 23bd 63bc 01be 4143 9d3e
00000260: 6fcb 4dbe b68b 68bd ff89 4fbd 4711 cfbd
00000270: 0016 74bb ec3d 2b3c 1934 96be b336 663e
00000280: b981 38bd 3c9e 153d de29 623d f492 a33b
00000290: 3b9e c23d 4693 d7bd 8711 f63c 680c f4bd
000002a0: e976 96bd ca98 0abd 012f 89bd 6a81 6a3c
000002b0: 2701 38bd 6e4a 1a3d 84ce c8be 0f50 283d
000002c0: 167d 1dbf 18f3 37bd beef f93c fcbd 2cbd
000002d0: 3480 28be 0cac a43d 97c1 27be 26e1 2f3f
000002e0: 500c 80bd c3a4 a7bb 71d2 ae3d 94fd d1bd
000002f0: ae8d c7bc b6b2 3dbe 9d56 953e 3108 2fbe
00000300: 457b 41bc 5dde 5bbd 592f c6bc 858b 263f
00000310: e6a7 3f3e 8641 cf3d 39d0 da3b edb9 cd3d
00000320: 0911 903d 6095 cabc 5707 1fbe d702 c2bc
00000330: 4fa9 d33d 9db2 473d 1ec5 d83c e175 0e3f
00000340: c197 a43f efdf 3c3f c72e d7be d83f 463d
00000350: fc9a 323d eaa4 403f 8cc3 93be c7f1 14bd
00000360: b6f5 7c3c ef2f 45be 12ea 133d 4e58 f1bd
00000370: 9c9f 5ebd 3097 0d3d 561e 39bd ab5f 4c3b
00000380: 4085 553d 46fb e63c 81c9 36bb c015 72bd
00000390: 7664 253e de97 c3bd 9357 7cbe 13e2 5ebd
000003a0: 73af acbd a57c 68be 025f a0bd 42bb 1c3e
000003b0: 7534 e73d 7040 5c3d 6e4f 033e 26fb b03d
000003c0: 69ac 24be e8d2 c53c f6a6 b13d 261f 1abd
000003d0: 229c 143e a360 783d db1e 0fbe 4a03 51bd
000003e0: e7fb acbc 28fe adbd f39a 6ebe 863a 4bbd
000003f0: a541 7bbe 5d76 a83d b197 f23d d477 d03e

net.6.bias f4 [8]
0.14217085 -1.0055959 -0.105644375 0.0095769605 0.49941537 0.7490369 -0.074635446 -0.5792512
00000000: 3c95 113e 5eb7 80bf 145c d8bd afe8 1c3c
00000010: 5fb3 ff3e e2c0 3f3f 78da 98bd cf49 14bf

net.8.weight f4 [3, 8]
-0.24999 -8.853781 0.098131604 0.2596606 -0.0015908083 0.35338733 0.10538107 -0.1487239
0.2600847 0.22506206 0.12075033 -0.08747422 -0.02534732 -0.059262905 0.0042512286 0.21630654
0.26648703 0.027807238 0.07315524 0.08996046 0.04209501 0.3543159 0.20232947 -0.16974473
00000000: 61fd 7fbe 16a9 0dc1 39f9 c83d 3cf2 843e
00000010: ab82 d0ba 2fef b43e 08d2 d73d 144b 18be
00000020: d229 853e ab76 663e f34b f73d af25 b3bd
00000030: 2fa5 cfbc a9bd 72bd e44d 8b3b 767f 5d3e
00000040: fd70 883e 01cc e33c 6ad2 953d 313d b83d
00000050: d16b 2c3d e568 b53e 752f 4f3e 90d1 2dbe

net.8.bias f4 [3]
0.06367995 -0.6836549 0.45324835
00000000: a26a 823d 0204 2fbf 2b10 e83e
