XMFlib/PairProbML/models/mlp_a2p_111_pee_lr0.0005_hl128-64-32.pt (torch, 46564 bytes, 7 tensors)

net.0.weight f4 [128, 2]
-0.30731294 -0.41302335 0.5730042 0.3734844 0.6510773 -0.3063207 0.502213 -0.27079132
-0.007204361 0.5493941 -0.055277005 0.6905124 0.4250426 -0.770799 -0.065946415 0.14862092
0.3349465 0.1324277 -0.2208958 -0.18649536 0.011397673 0.545023 0.6135296 -0.072772734
-0.52535754 -0.5685507 0.6673863 0.466985 0.08117107 0.36777052 -0.5472913 0.075961985
-0.30120748 0.85871744 0.043789603 -0.68118197 0.05509846 0.060266208 -0.31255051 0.11490467
-0.6950847 -0.21477245 -0.59045815 0.2801147 0.5872601 0.38650104 0.6018527 0.5027742
0.7552545 -0.4303371 0.042825602 0.3676197 -0.3538583 0.2868584 0.03269257 0.41230625
-0.53394574 0.2693838 0.5149587 -0.8934304 -0.028512843 0.64653826 -0.4660047 -0.4898667
0.49708694 0.07412062 0.32496712 0.21418417 0.19577213 0.58147776 -0.62136346 0.40179396
0.6232878 -0.09250167 -0.3028317 -0.05032297 0.34882432 0.65421945 -0.004462199 0.529549
0.75687355 -0.5179002 0.77566075 -0.5316855 0.017478732 -0.58490306 0.2521709 0.60966593
0.55187637 -0.53434443 0.35185352 0.5056908 -0.25843 -0.318074 -0.1372812 -0.46078923
0.73980653 0.22119808 -0.030523071 0.38507396 -0.61190677 -0.11231249 0.5438617 -0.4502382
0.5431173 0.44512 0.6572639 -0.63965535 0.75830096 -0.67449504 0.3880385 -0.79248285
-0.62305576 -0.0008289663 -0.007988839 -0.43439353 0.25624466 0.24326655 -0.44661903 -0.06856693
-0.3739163 0.5673638 -0.18277635 -0.51562864 -0.541759 -0.32136333 -0.8091045 0.39740875
0.335803 -0.03307637 0.36039627 -0.08446402 -0.07338865 -0.45563325 -0.2361563 -0.43374032
-0.15974857 0.721692 0.02075644 -0.6891858 -0.017479224 0.15561654 0.48152554 0.19113244
0.08846478 0.6634414 -0.027283996 -0.3822121 0.64378464 0.04162222 -0.0022361584 -0.8562755
-0.113925 0.30398557 -0.32431462 -0.546525 -0.4434324 -0.2880759 0.66602015 -0.025486175
-0.24434489 -0.58578557 0.41346455 0.580819 0.20277596 0.4244751 0.053802192 0.94736254
-0.29160896 -0.018681556 0.017335633 -0.57808495 0.17203951 -0.00880112 0.0011121241 -0.68985885
-0.030265568 0.061648533 -0.86291087 0.12842731 -0.1596334 -0.29842383 0.5877863 -0.14218752
-0.55759406 -0.059274547 -0.3820434 0.4185406 -0.7712621 -0.41753644 0.24678211 -0.8300674
0.3056176 0.20072259 -0.7071162 0.44290847 0.040189885 0.5834561 -0.10202272 -0.049441814
0.55585825 0.05070373 -0.3331428 -0.62175256 -0.51034206 -0.6524979 -0.07879859 0.024887038
-0.6397253 -0.6627629 0.45648226 0.5442414 -0.032263186 -0.023168562 0.5202273 -0.48250863
0.1584021 -0.55898386 -0.5159026 -0.65248364 -0.4288117 -0.45503122 -0.03577916 -0.61733437
-0.09308958 -0.5941934 0.7305304 0.6461874 0.48652962 -0.07296854 0.10987148 -0.5689929
-0.16274996 0.022953594 0.12516043 0.67846394 0.15446213 -1.131247 0.39490014 0.4461429
-0.46349418 0.087276936 -0.298187 -0.4729385 0.7225958 -0.675809 -0.09581459 0.22307369
-0.5617905 -0.24422769 -0.5169266 0.36780864 0.50906193 0.09127114 0.39701158 0.37606284
00000000: 1f58 9dbe cc77 d3be 67b0 123f 5939 bf3e
00000010: 00ad 263f 11d6 9cbe 0891 003f 29a5 8abe
00000020: 8f12 ecbb 17a5 0c3f 246a 62bd 6cc5 303f
00000030: 2f9f d93e 1553 45bf ea0e 87bd 1530 183e
00000040: 1c7e ab3e 219b 073e 8232 62be a4f8 3ebe
00000050: 4ebd 3a3c a186 0b3f 4710 1d3f df09 95bd
00000060: d57d 06bf 8a8c 11bf d4d9 2a3f a818 ef3e
00000070: 053d a63d 6b4c bc3e 481b 0cbf f591 9b3d
00000080: de37 9abe e8d4 5b3f ba5c 333d f161 2ebf
00000090: ecae 613d b3d9 763d 9f06 a0be 2453 eb3d
000000a0: 12f1 31bf 4fed 5bbe 4428 17bf 326b 8f3e
000000b0: ae56 163f 77e3 c53e 0513 1a3f cfb5 003f
000000c0: 5c58 413f 2555 dcbe e669 2f3d a638 bc3e
000000d0: ea2c b5be 1bdf 923e a5e8 053d ce19 d33e
000000e0: abb0 08bf acec 893e 55d4 033f dbb7 64bf
000000f0: c493 e9bc 8883 253f 2b98 eebe cfcf fabe
00000100: 2e82 fe3e 8dcc 973d 1762 a63e 1853 5b3e
00000110: 7d78 483e badb 143f ad11 1fbf f0b7 cd3e
00000120: ca8f 1f3f 8471 bdbd c20c 9bbe 751f 4ebd
00000130: 1a99 b23e ed7a 273f a337 92bb 8690 073f
00000140: 77c2 413f 1c95 04bf b491 463f 8a1c 08bf
00000150: 8f2f 8f3c 35bc 15bf 8b1c 813e 1113 1c3f
00000160: c547 0d3f ccca 08bf 2526 b43e f474 013f
00000170: f050 84be 98da a2be 7193 0cbe 91ec ebbe
00000180: f663 3d3f c081 623e 850b fabc 6a28 c53e
00000190: eca5 1cbf 1704 e6bd 853a 0b3f 9f85 e6be
000001a0: bc09 0b3f c5e6 e33e 7242 283f 74c0 23bf
000001b0: 0320 423f b5ab 2cbf fbac c63e 28e0 4abf
000001c0: 9580 1fbf fd4e 59ba 9fe3 02bc d468 debe
000001d0: 8032 833e de1a 793e 40ab e4be d26c 8cbd
000001e0: f571 bfbe c13e 113f b929 3bbe 3d00 04bf
000001f0: b8b0 0abf bc89 a4be 7921 4fbf 2979 cb3e
00000200: 5fee ab3e 167b 07bd dc85 b83e 79fb acbd
00000210: ca4c 96bd c348 e9be f5d2 71be 3613 debe
00000220: 2195 23be cfc0 383f 6909 aa3c 7b6e 30bf
00000230: 9730 8fbc f159 1f3e 848a f63e 39b8 433e
00000240: 062d b53d 4cd7 293f b082 dfbc 4eb1 c3be
00000250: 12cf 243f 107c 2a3d 838c 12bb df34 5bbf
00000260: 8351 e9bd ffa3 9b3e 910c a6be 10e9 0bbf
00000270: 9209 e3be af7e 93be 4c80 2a3f 62c8 d0bc
00000280: 8c35 7abe 0bf6 15bf a0b1 d33e 8eb0 143f
00000290: 80a4 4f3e cd54 d93e b05f 5c3d 5a86 723f
000002a0: c54d 95be 100a 99bc 7503 8e3c 60fd 13bf
000002b0: 202b 303e 9332 10bc b1c4 913a 979a 30bf
000002c0: 7fef f7bc 2c83 7c3d bae7 5cbf 7382 033e
000002d0: f076 23be 02cb 98be 2a79 163f 9b99 11be
000002e0: 7cbe 0ebf dec9 72bd 319b c3be f44a d63e
000002f0: 6f71 45bf 56c7 d5be 73b4 7c3e 4c7f 54bf
00000300: e979 9c3e 398a 4d3e 9105 35bf e6c4 e23e
00000310: 269e 243d 615d 153f 4af1 d0bd 8083 4abd
00000320: ba4c 0e3f b7ae 4f3d b191 aabe 2d2b 1fbf
00000330: c7a5 02bf 1a0a 27bf 2861 a1bd e7df cb3c
00000340: 0ac5 23bf d4aa 29bf 0bb8 e93e 6853 0b3f
00000350: 6726 04bd ffcb bdbc 9e2d 053f 5f0b f7be
00000360: 2934 223e 9119 0fbf 3112 04bf 2b09 27bf
00000370: 358d dbbe daf9 e8be 2b8d 12bd a009 1ebf
00000380: c0a5 bebd 0f1d 18bf 0a04 3b3f 8a6c 253f
00000390: 691a f93e 8870 95bd 4c04 e13d 85a9 11bf
000003a0: eda7 26be 2d09 bc3c 0e2a 003e d0af 2d3f
000003b0: 522b 1e3e b4cc 90bf 5a30 ca3e d86c e43e
000003c0: 1c4f edbe 40be b23d f7ab 98be ff24 f2be
000003d0: 0afc 383f d201 2dbf 713a c4bd 6e6d 643e
000003e0: 81d1 0fbf d316 7abe 4d55 04bf 6a51 bc3e
000003f0: e251 023f 5dec ba3d 1a45 cb3e 4f8b c03e

net.0.bias f4 [128]
-0.3836977 0.38368118 -0.521023 -0.33834738 -0.23922127 -0.31864622 0.19546442 -0.5646046
-0.43690562 0.61360604 0.1618877 -0.45926806 -0.35890758 -0.010981592 0.17150606 -0.2098817
-0.09848648 0.4811477 0.2811592 0.27540484 -0.04952217 0.17919266 0.29307708 0.4220362
-0.12309975 -0.13754329 0.37899613 -0.19067407 -0.28596422 0.18312852 -0.4745404 -0.18607756
-0.3932735 0.38367707 0.1958884 0.5390125 0.72887903 0.2662608 0.44962147 -0.38973957
-0.54423106 0.52057546 0.43944922 0.15187974 -0.07989693 -0.70361894 -0.48354262 -0.34559667
0.60988164 -0.22162415 0.3485074 -0.20608015 -0.15444064 0.5031148 -0.19386211 0.29524708
0.04858446 -0.5147476 -0.36024472 -0.61125964 0.3472131 0.008952496 0.68140274 0.35990575
0.63944864 0.31322616 -0.20258828 -0.08331572 0.3494214 0.5177338 -0.67761 -0.53110814
0.5308105 0.3288829 -0.42572984 0.6823577 0.24185498 -0.21474023 0.34574348 -0.4241788
-0.54252166 -0.1327445 0.62131816 -0.75795984 0.7070152 0.43432316 0.21919872 0.54423463
-0.24333905 -0.31050178 0.70108443 -0.5022905 0.57364833 0.29007375 0.5164435 0.37637803
0.4132439 -0.06954622 -0.18238059 0.30836296 -0.014892054 0.65249395 -0.44728777 -0.6867355
0.4263171 0.02690402 0.08311259 -0.6253361 -0.5629616 -0.29486308 0.49949163 -0.092433594
-0.34613383 0.5814484 -0.22640237 -0.40307605 -0.19118805 -0.5374556 0.69180214 -0.5022393
-0.4483527 -0.13511974 -0.13388284 0.21341898 -0.47697103 -0.07594022 0.25459898 0.6074608
00000000: 0674 c4be dc71 c43e c361 05bf de3b adbe
00000010: 6cf6 74be 9925 a3be d327 483e ed89 10bf
00000020: 18b2 dfbe 4915 1d3f e4c5 253e 2f25 ebbe
00000030: bcc2 b7be 23ec 33bc 499f 2f3e 3aeb 56be
00000040: 48b3 c9bd fe58 f63e 19f4 8f3e dd01 8d3e
00000050: c2d7 4abd 487e 373e 330e 963e 2115 d83e
00000060: b91b fcbd 26d8 0cbe c80b c23e 1040 43be
00000070: e769 92be 0b86 3b3e f6f6 f2be 1e8b 3ebe
00000080: 255b c9be 5271 c43e f896 483e b9fc 093f
00000090: d197 3a3f 5653 883e c934 e63e f28b c7be
000000a0: ba52 0bbf 6f44 053f 7dff e03e 5d86 1b3e
000000b0: 00a1 a3bd 5f20 34bf e692 f7be 0cf2 b0be
000000c0: 3421 1c3f 71f1 62be 906f b23e ad06 53be
000000d0: b025 1ebe 22cc 003f ca83 46be a02a 973e
000000e0: 8000 473d 80c6 03bf ff71 b8be 837b 1cbf
000000f0: eac5 b13e 7dad 123c 6970 2e3f 9145 b83e
00000100: e8b2 233f 2e5f a03e 4d73 4fbe 6fa1 aabd
00000110: 5de7 b23e 348a 043f d977 2dbf b4f6 07bf
00000120: 32e3 073f 5763 a83e 43f9 d9be ffae 2e3f
00000130: d5a8 773e dde4 5bbe 4a05 b13e f72d d9be
00000140: b3e2 0abf 2dee 07be b50e 1f3f a809 42bf
00000150: f3fe 343f 9b5f de3e a175 603e f652 0b3f
00000160: df2d 79be 17fa 9ebe 457a 333f 1c96 00bf
00000170: 9eda 123f 8c84 943e a435 043f 9fb4 c03e
00000180: b494 d33e 406e 8ebd fac1 3abe c0e1 9d3e
00000190: cdfd 73bc d809 273f e702 e5be e6cd 2fbf
000001a0: 3c46 da3e d265 dc3c ef36 aa3d 0716 20bf
000001b0: 401e 10bf 4bf8 96be 5ebd ff3e d34d bdbd
000001c0: 7438 b1be cdd9 143f 06d6 67be fc5f cebe
000001d0: cdc6 43be b196 09bf f219 313f c192 00bf
000001e0: 7c8e e5be d45c 0abe 9518 09be 818a 5a3e
000001f0: 8c35 f4be 8c86 9bbd cc5a 823e 8d82 1b3f

net.2.weight f4 [64, 128]
-0.07673043 0.11838205 0.06315724 -0.0703152 -0.060522243 0.0011181392 0.024553465 0.0013128321
-0.013194936 0.009474657 0.11341752 0.07369668 -0.055350214 0.08784442 0.098428525 -0.023405425
0.0031149094 0.048797596 0.0047793933 -0.0022105395 -0.034219947 -0.065328844 -0.020138407 0.07546148
0.076971866 0.11154215 0.07374948 0.11535909 -0.045845643 0.017650122 -0.14763783 0.03213677
-0.01042531 0.029313711 -0.026373202 0.0204662 0.024126504 -0.07516307 0.01590569 -0.0953282
0.07726327 0.0950146 0.046045218 0.042831928 0.005018616 -0.0721963 -0.050920583 0.04071869
0.09050396 0.07822008 0.07487694 0.020851318 0.025023857 0.034404363 0.017188115 -0.029787425
0.012437117 0.038070828 -0.029188232 -0.022629054 0.048899215 -0.036517207 -0.011286912 -0.0033671833
0.08741999 0.02675556 0.055283234 0.02669142 0.08657603 -0.06053556 0.047703993 0.057700735
0.016567491 -0.07551761 -0.0314909 -0.014893129 0.065426484 -0.08196875 -0.069024235 -0.023893427
-0.058828317 0.068949334 -0.014844015 -0.06482983 -0.03787058 0.053171806 -0.01771024 -0.012030917
-0.060719162 -0.09888921 -0.036059413 -0.06919671 0.02879869 0.091836676 -0.0002587888 0.024889644
-0.019888937 -0.007115313 0.034036536 0.100243255 0.045293707 -0.04464376 0.060010295 0.07982944
-0.060801663 -0.0009523502 0.07815462 0.038034886 -0.037200283 -0.061170027 0.055407763 0.0778204
0.020582095 0.054197438 0.00057120796 -0.025074622 0.032552972 -0.017541615 -0.020930137 0.035712507
-0.061339416 -0.061604813 0.004144452 0.116887406 -0.07610516 0.0066424888 0.11291969 -0.007519007
-0.02159571 -0.047952227 0.0023905823 0.07935935 -0.054386593 -0.04517785 -0.076670066 0.049780928
-0.040604338 0.0155007765 -0.05572533 0.0024759683 -0.023328457 0.06504406 0.04555705 0.11613368
-0.042786345 -0.05784028 0.0502649 -0.04558408 0.10489188 0.042900663 -0.051229786 -0.039889827
-0.004254812 -0.049532995 0.018987557 -0.003926102 0.066638604 -0.06949238 0.17512473 -0.030606229
0.04926395 -0.0055618635 -0.0059595094 0.055860102 -0.08338422 0.08905222 0.021920519 0.15364268
0.008375507 0.031989515 -0.0053598103 -0.042305943 0.07228475 -0.021789256 -0.045023512 0.08211634
-0.03332684 0.048937354 0.046986867 -0.08091022 -0.05962284 -0.022938265 -0.05548294 0.08115225
0.107753985 -0.18029022 -0.034872405 -0.08245921 0.0027617605 -0.01963156 0.02191021 0.1068814
-0.019282088 0.010069234 0.0074612987 0.078616336 0.0040653027 0.037324466 -0.018158749 -0.07823746
-0.030909302 -0.014535385 0.05013463 0.09247233 0.056443788 0.06408229 -0.025327332 0.043623086
-0.06619296 0.0479698 -0.03682641 -0.050596032 0.027887901 -0.030679353 0.08656632 -0.02309723
0.02660506 0.011673936 0.06842593 0.0291918 0.047399327 0.05989194 0.0638081 0.088268295
0.07491061 0.0516889 0.0050943326 -0.009371468 0.091891065 -0.02789419 -0.044227347 -0.010419807
0.040152814 0.052017067 0.0726107 0.00027114234 -0.077853 0.054524384 0.050753694 -0.040053982
-0.055816203 0.05173974 0.07660998 -0.024254508 -0.065145425 -0.13013901 -0.06650874 -0.052410606
0.011955343 0.0863565 -0.047254235 -0.014986419 -0.022151643 -0.015926192 -0.0034714774 0.048276834
00000000: d824 9dbd 4a72 f23d 9558 813d 6a01 90bd
00000010: 2ce6 77bd 878e 923a 5924 c93c 5613 ac3a
00000020: 932f 58bc 973b 1b3c 7247 e83d 49ee 963d
00000030: e8b6 62bd c6e7 b33d e594 c93d bcbc bfbc
00000040: 8223 4c3b fddf 473d 759c 9c3b b3de 10bb
00000050: 372a 0cbd 21cb 85bd 4df9 a4bc 8c8b 9a3d
00000060: 6da3 9d3d 3670 e43d f809 973d 6341 ec3d
00000070: a4c8 3bbd fd96 903c 5f2e 17be d9a1 033d
00000080: ebce 2abc 4f23 f03c 9d0c d8bc bba8 a73c
00000090: f2a4 c53c 18ef 99bd a64c 823c 6e3b c3bd
000000a0: 353c 9e3d 0497 c23d e999 3c3d 8870 2f3d
000000b0: 3473 a43b a7db 93bd 1a92 50bd a4c8 263d
000000c0: 245a b93d d931 a03d 1559 993d 62d0 aa3c
000000d0: d5fe cc3c 97eb 0c3d 17ce 8c3c c204 f4bc
000000e0: 0dc5 4b3c 28f0 1b3d 291c efbc 9160 b9bc
000000f0: 8b4a 483d 1193 15bd bdec 38bc f6ab 5cbb
00000100: 4009 b33d 7a2e db3c ac70 623d f7a7 da3c
00000110: c64e b13d 23f4 77bd 4365 433d 9b57 6c3d
00000120: 8cb8 873c faa8 9abd 9afc 00bd 4f02 74bc
00000130: 52fe 853d 3bdf a7bd 945c 8dbd 26bc c3bc
00000140: f6f5 70bd 4f35 8d3d 5034 73bc 80c5 84bd
00000150: 2e1e 1bbd aeca 593d 1115 91bc 531d 45bc
00000160: a8b4 78bd 6d86 cabd 09b3 13bd 01b7 8dbd
00000170: 3beb eb3c de14 bc3d 0bae 87b9 5ee5 cb3c
00000180: 20ee a2bc 9227 e9bb e569 0b3d 564c cd3d
00000190: e585 393d 60dc 36bd 5bcd 753d 9e7d a33d
000001a0: 2a0b 79bd 24a7 79ba 880f a03d 78ca 1b3d
000001b0: 535f 18bd 6c8d 7abd 40f3 623d 4d60 9f3d
000001c0: c89b a83c 22fe 5d3d 1ebd 153a 4b69 cdbc
000001d0: 4456 053d 6fb3 8fbc ae75 abbc 4747 123d
000001e0: 0a3f 7bbd 5455 7cbd 2fce 873b aa62 ef3d
000001f0: 06dd 9bbd 3ca9 d93b 7042 e73d 0162 f6bb
00000200: 7de9 b0bc 8e69 44bd 51ab 1c3b 2887 a23d
00000210: 7ac4 5ebd 690c 39bd 3205 9dbd 16e7 4b3d
00000220: bc50 26bd f8f6 7d3c 3e40 64bd db43 223b
00000230: 521b bfbc d235 853d 079a 3a3d 7fd7 ed3d
00000240: bc40 2fbd eee9 6cbd 91e2 4d3d 5fb6 3abd
00000250: 8ed1 d63d 9bb8 2f3d 53d6 51bd 8463 23bd
00000260: f36b 8bbb 1ce3 4abd cb8b 9b3c 88a6 80bb
00000270: d279 883d 0552 8ebd e653 333e eab9 fabc
00000280: ffc8 493d 4b40 b6bb fd47 c3bb 90cd 643d
00000290: 59c5 aabd 0361 b63d a992 b33c 8254 1d3e
000002a0: 6c39 093c 7007 033d 59a1 afbb ff48 2dbd
000002b0: 070a 943d 627f b2bc 936a 38bd 9d2c a83d
000002c0: b981 08bd 8972 483d 4d75 403d 42b4 a5bd
000002d0: 1437 74bd 07e9 bbbc 1442 63bd 2733 a63d
000002e0: 1fae dc3d 009e 38be 5ed6 0ebd 60e0 a8bd
000002f0: a7fe 343b 5ed2 a0bc 0a7d b33c a3e4 da3d
00000300: 78f5 9dbc 6ef9 243c e97d f43b 9a01 a13d
00000310: 3b36 853b 8ae1 183d a8c1 94bc f63a a0bd
00000320: 8135 fdbc d325 6ebc f859 4d3d 2262 bd3d
00000330: 9a31 673d 933d 833d 447b cfbc 1fae 323d
00000340: 2d90 87bd fb7b 443d 4ad7 16bd c93d 4fbd
00000350: 2b75 e43c 4453 fbbc af49 b13d 6736 bdbc
00000360: dbf2 d93c 0944 3f3c e522 8c3d a423 ef3c
00000370: cc25 423d 4051 753d d2ad 823d 02c6 b43d
00000380: bc6a 993d bdb7 533d 5cee a63b c98a 19bc
00000390: 6231 bc3d 5b82 e4bc bc27 35bd d7b7 2abc
000003a0: 4777 243d d90f 553d ebb4 943d 1c28 8e39
000003b0: 6571 9fbd f654 5f3d 1be3 4f3d a50f 24bd
000003c0: 889f 64bd 0ded 533d b1e5 9c3d 64b1 c6bc
000003d0: f76a 85bd 2943 05be bc35 88bd 81ac 56bd
000003e0: 58e0 433c addb b03d a88d 41bd 9989 75bc
000003f0: 5d77 b5bc a577 82bc ba81 63bb eebd 453d

net.2.bias f4 [64]
0.077478014 -0.041313417 0.005251377 0.081343874 7.729746e-05 -0.09614959 0.0049558687 -0.02872379
0.08176926 -0.05672493 0.066049166 0.029086197 -0.010241035 -0.07114164 -0.078751445 0.1164433
0.05602417 0.07073214 0.045677986 0.013867781 -0.04892975 0.061232477 0.0072048316 0.020618262
0.019204281 -0.016418254 0.04250258 -0.044737957 0.058359437 -0.0099155875 -0.025249781 0.029816976
-0.101854324 0.08710196 0.049129963 0.06875753 0.10049692 0.029100936 -0.052819856 0.07969787
-0.029258458 0.072442934 -0.0678643 0.0033565313 -0.0102386195 -0.035679843 0.031911466 0.040986918
-0.055435847 0.015041216 0.045076717 0.0031127094 0.09564776 0.026071008 0.096201144 0.06517351
-0.05423248 -0.08011431 0.008092665 -0.04569376 0.046866056 0.01928694 -0.0031864766 0.006332062
00000000: cbac 9e3d 4238 29bd be13 ac3b 9e97 a63d
00000010: c21a a238 14ea c4bd d764 a23b 274e ebbc
00000020: a476 a73d 6658 68bd c944 873d 2d46 ee3c
00000030: 04ca 27bc b5b2 91bd 7048 a1bd d379 ee3d
00000040: 9a79 653d 03dc 903d d718 3b3d b035 633c
00000050: 906a 48bd e8ce 7a3d 8216 ec3b a1e7 a83c
00000060: 4c52 9d3c 937f 86bc 2f17 2e3d 263f 37bd
00000070: 4e0a 6f3d fd74 22bc a1d8 cebc bb42 f43c
00000080: 0099 d0bd 8362 b23d 803c 493d bfd0 8c3d
00000090: 54d1 cd3d 1665 ee3c a259 58bd a338 a33d
000000a0: 6faf efbc f65c 943d 70fc 8abd 40f9 5b3b
000000b0: e2bf 27bc 0725 12bd 99b5 023d e6e1 273d
000000c0: b310 63bd 6f6f 763c 5da2 383d 99fe 4b3b
000000d0: f9e2 c33d de92 d53c 1b05 c53d b079 853d
000000e0: e022 5ebd f912 a4bd 1997 043c 6129 3bbd
000000f0: 9ff6 3f3d a5ff 9d3c 35d4 50bb 307d cf3b

net.4.weight f4 [32, 64]
-0.09762589 -0.01741112 -0.0667819 0.1015807 0.1092394 0.40915003 0.09339158 -0.06073782
0.025225759 -0.039675042 0.019503837 -0.05330676 0.13904426 0.36898893 -0.095439404 -0.107921705
0.07051171 -0.019766549 -0.0920708 -0.17939678 -0.028312996 -0.036429435 -0.007012397 -0.10556152
-0.43173343 0.03177507 0.059617795 -1.0673269 -0.038059454 -0.06579741 -0.070410386 0.044374965
-0.046271488 0.41659343 -0.04774394 0.05442554 0.018121295 -0.013117867 -0.06088094 0.08149611
0.0630348 0.107118905 0.12850846 0.07163988 -0.093102336 -0.0665485 -0.0045492733 -0.014970412
0.08344845 -0.0844169 0.06039068 0.067241445 0.036483347 -0.40041748 0.06581398 0.30510533
-0.040702343 -0.0589229 0.21453515 0.050544202 -0.05742195 0.038539384 0.1410857 0.05236848
0.073868856 0.035893105 0.06801342 -0.111805506 0.07305189 -0.25402588 0.10165344 -0.044390835
0.046184085 0.049268406 -0.11157588 -0.027228713 0.10741302 -0.35621682 -0.021587268 0.13956533
-0.006882232 -0.09243629 0.08896152 0.035257775 0.10240282 0.03177607 -0.0677662 0.0942396
0.019986894 -0.09041933 0.084529534 -0.021437494 -0.07846241 -0.05991323 0.040848944 0.08124005
-0.42273957 0.09285501 0.02516103 0.03546904 0.043428503 -0.08041298 0.1407924 -0.074271865
0.039955094 -0.07068887 0.11813547 -0.06526899 0.052050017 0.13719648 0.08589073 -0.076176085
0.13965242 -0.03080701 -0.10581118 0.101538286 -0.06677885 -0.4707374 0.008945599 -0.634771
-0.039788783 0.08220261 -0.119438656 -0.016795024 -0.115563035 -0.033561192 -0.25039434 0.1037475
0.067592874 -0.026114361 -0.11276989 -0.07326731 0.029905284 0.12136923 0.08693889 -0.028446063
0.00015560676 0.048869543 -0.114652686 0.058966994 0.11151386 0.05844751 -0.050131544 0.04059763
0.0728774 -0.061270617 -0.023482636 -0.040569317 -0.048987523 0.11527264 0.095353894 -0.1064682
0.111022614 0.109005876 -0.11344591 -0.07952689 0.017091947 -0.12763406 -0.1001012 -0.12617269
0.013905775 0.025552956 0.014300964 -0.076788254 -0.020575328 -0.12256781 0.06017545 0.028032362
-0.06428689 0.014224892 -0.013525397 0.07377627 -0.08872161 0.07004567 -0.11106831 0.003034764
-0.04527888 0.11415324 0.1073298 -0.071337014 -0.10562854 -0.02351425 -0.050902635 0.04540522
0.04229538 -0.02320671 0.026342258 0.076462865 0.08430761 0.016015276 -0.08312139 0.09788889
0.13466041 0.0688818 -0.072577804 -0.019853476 -0.059671655 0.17221281 0.039138258 0.1075814
0.15411346 0.015754968 -0.0068765227 -0.11364188 -0.13424201 0.2335122 0.08197698 -0.09071435
-0.027259508 0.090912506 0.06459757 0.14261845 -0.032859147 -0.118371904 -0.07083385 -0.01940712
0.4051969 0.15586075 0.04226439 -0.07196698 0.0326891 -0.07468588 0.06425055 0.21642344
0.26460412 -0.00591869 0.15669236 0.15750998 0.16787058 -0.083574966 0.10684141 -0.09650089
0.005442366 -0.09215368 -0.03588256 0.0059088874 0.077053495 -0.08505374 -0.098530404 -0.06323785
0.08979449 0.103896014 -0.12186469 -0.06612667 0.00034699828 0.4177614 0.08601019 0.37957063
-0.08950217 -0.07136911 0.21547501 0.058922738 -0.008825492 0.04107904 0.050882548 -0.12995438
00000000: 15f0 c7bd c4a1 8ebc f3c4 88bd 8b09 d03d
00000010: e8b8 df3d 1d7c d13e 1644 bf3d 38c8 78bd
00000020: 40a6 ce3c 4c82 22bd 83c6 9f3c 3058 5abd
00000030: 9e61 0e3e 1eec bc3e bc75 c3bd 0e06 ddbd
00000040: 7268 903d 75ed a1bc 9e8f bcbd cab3 37be
00000050: a8f0 e7bc 0837 15bd 40c8 e5bb a330 d8bd
00000060: 2a0c ddbe 9326 023d ca31 743d 2b9e 88bf
00000070: 3be4 1bbd cbc0 86bd 5233 90bd 86c2 353d
00000080: 2c87 3dbd bc4b d53e 268f 43bd 51ed 5e3d
00000090: 1c73 943c 52ec 56bc 4b5e 79bd 6fe7 a63d
000000a0: 6418 813d 2861 db3d b997 033e eeb7 923d
000000b0: 70ac bebd 944a 88bd 1212 95bb 7546 75bc
000000c0: 05e7 aa3d c5e2 acbd 385c 773d e2b5 893d
000000d0: 906f 153d 8503 cdbe 7bc9 863d c436 9c3e
000000e0: 80b7 26bd 2459 71bd 1aaf 5b3e 7007 4f3d
000000f0: 4733 6bbd 79db 1d3d c578 103e 5580 563d
00000100: 8e48 973d a604 133d 9f4a 8b3d 49fa e4bd
00000110: 3b9c 953d ae0f 82be ae2f d03d 2ad3 35bd
00000120: 862b 3d3d abcd 493d e581 e4bd c00e dfbc
00000130: 5cfb db3d 0d62 b6be c8d7 b0bc 37ea 0e3e
00000140: 5984 e1bb 3d4f bdbd 7531 b63d 756a 103d
00000150: 92b8 d13d a027 023d 01c9 8abd b100 c13d
00000160: 8ebb a33c c52d b9bd d21d ad3d af9d afbc
00000170: e6b0 a0bd 9367 75bd 3951 273d 2f61 a63d
00000180: 5271 d8be c42a be3d 811e ce3c fc47 113d
00000190: 16e2 313d 8faf a4bd e22b 103e d91b 98bd
000001a0: f4a7 233d 54c5 90bd 02f1 f13d c0ab 85bd
000001b0: 6632 553d 3c7d 0c3e 7be7 af3d 3502 9cbd
000001c0: 0b01 0f3e fc5e fcbc 88b3 d8bd 4ef3 cf3d
000001d0: 5ac3 88bd 7e04 f1be 9090 123c 5a80 22bf
000001e0: 90f9 22bd d859 a83d 419c f4bd b895 89bc
000001f0: 50ac ecbd 7677 09bd b033 80be 9279 d43d
00000200: 226e 8a3d c9ed d5bc e6f3 e6bd 2c0d 96bd
00000210: edfb f43c 6e90 f83d 040d b23d b807 e9bc
00000220: 5f2a 2339 6e2b 483d 07cf eabd 6087 713d
00000230: 6161 e43d a866 6f3d bc56 4dbd b349 263d
00000240: bf40 953d e6f6 7abd a85e c0bc 032c 26bd
00000250: 24a7 48bd 1014 ec3d e748 c33d 000c dabd
00000260: d35f e33d 793e df3d 5456 e8bd fede a2bd
00000270: 6904 8c3c 81b2 02be dc01 cdbd 6a33 01be
00000280: 0cd5 633c 6f54 d13c 974e 6a3c 2943 9dbd
00000290: 978d a8bc d504 fbbd 887a 763d 20a4 e53c
000002a0: d8a8 83bd 850f 693c a099 5dbc 0318 973d
000002b0: adb3 b5bd 1b74 8f3d c877 e3bd e4e2 463b
000002c0: 5976 39bd 2dc9 e93d bacf db3d 2419 92bd
000002d0: c753 d8bd f5a0 c0bc 487f 50bd d3fa 393d
000002e0: ec3d 2d3d 001c bebc b8cb d73c 9098 9c3d
000002f0: 78a9 ac3d 7832 833c 8c3b aabd f879 c83d
00000300: 6be4 093e e711 8d3d aca3 94bd c2a3 a2bc
00000310: 446a 74bd 8e58 303e 704f 203d a353 dc3d
00000320: ebcf 1d3e 9010 813c 7454 e1bb 13bd e8bd
00000330: bd76 09be d21d 6f3e 8ce3 a73d 72c8 b9bd
00000340: 554f dfbc 5630 ba3d bb4b 843d 920a 123e
00000350: 5097 06bd f86c f2bd 5611 91bd aefb 9ebc
00000360: f875 cf3e f699 1f3e 6d1d 2d3d 6d63 93bd
00000370: 01e5 053d e9f4 98bd cb95 833d 1b9e 5d3e
00000380: 317a 873e 92f1 c1bb f673 203e 4c4a 213e
00000390: 44e6 2b3e 5a29 abbd abcf da3d 42a2 c5bd
000003a0: e055 b23b 12bb bcbd 97f9 12bd 579f c13b
000003b0: 39ce 9d3d a830 aebd 4fca c9bd d982 81bd
000003c0: 2ce6 b73d 6fc7 d43d 3294 f9bd 6b6d 87bd
000003d0: 52ed b539 d2e4 d53e 1c26 b03d 1557 c23e
000003e0: ea4c b7bd f829 92bd 7ba5 5c3e f858 713d
000003f0: cc98 10bc 7f42 283d 386a 503d c312 05be

net.4.bias f4 [32]
-0.10232436 -0.049718577 -0.08211224 0.10609633 -0.038901273 0.037464265 0.11137113 0.037010014
0.079435006 -0.019629844 -0.00053916336 -0.037978146 -0.086476184 -0.024734678 0.011496562 0.05505551
0.01652824 -0.09021812 -0.02494975 -0.049924385 -0.054642428 -0.0067256843 0.08439889 -0.006264345
0.09311173 0.031291787 0.04060287 -0.013049979 0.1140813 -0.06493084 -0.049829222 -0.07240638
00000000: 6f8f d1bd b5a5 4bbd 762a a8bd 0849 d93d
00000010: f156 1fbd 2174 193d 8c16 e43d d097 173d
00000020: d2ae a23d c4ce a0bc a456 0dba f98e 1bbd
00000030: 6d1a b1bd 61a0 cabc 135c 3c3c e381 613d
00000040: 3b66 873c 47c4 b8bd 6b63 ccbc 837d 4cbd
00000050: bdd0 5fbd 2163 dcbb 53d9 ac3d 2245 cdbb
00000060: 5db1 be3d d12b 003d 324f 263d 94cf 55bc
00000070: 75a3 e93d 76fa 84bd ba19 4cbd cc49 94bd

net.6.weight f4 [1, 32]
0.08135788 0.052284237 -0.114606746 -0.18839115 0.15906945 0.06343774 -0.122285634 -0.12525523
-0.182678 0.031121839 -0.136256 -0.36896962 0.21726568 0.08886128 0.12011422 -0.1667771
0.01755064 0.14780594 0.06986827 0.141572 0.18056943 -0.078048825 0.029566988 -0.3806202
0.095450595 0.07087248 -0.45453262 -0.18523353 0.12459091 0.070743404 -0.17290255 0.089368664
00000000: f69e a63d ff27 563d f1b6 eabd 9ce9 40be
00000010: 1ae3 223e a5eb 813d e470 fabd e842 00be
00000020: f10f 3bbe 3af3 fe3c b186 0bbe 96e9 bcbe
00000030: e57a 5e3e e7fc b53d 72fe f53d 9ec7 2abe
00000040: 5cc6 8f3c 715a 173e 1817 8f3d 40f8 103e
00000050: 31e7 383e 10d8 9fbd 7836 f23c a7e0 c2be
00000060: 9a7b c33d 9725 913d 80b8 e8be dcad 3dbe
00000070: 8529 ff3d ebe1 903d 5e0d 31be eb06 b73d
