XMFlib/PairProbML/models/mlp_a2p_100.pth (torch, 54276 bytes, 10 tensors)

net.0.weight f4 [128, 2]
0	0x3eae759f	0.34074113
1	0xbed9e129	-0.42554596
2	0xbe798d74	-0.24370366
3	0x3ee5e72f	0.44902942
4	0x3f0e05a2	0.55477345
5	0x3e6bafb7	0.23016249
6	0xb7261d9c	-9.901265e-06
7	0xbf0f716c	-0.56032443
8	0x3dd5a02f	0.10430943
9	0xbfb56b26	-1.4173324
10	0xbecaa8db	-0.39581951
11	0xbf32a719	-0.6978622
12	0xbf0591b6	-0.5217546
13	0xbedffb74	-0.4374653
14	0xbeb54431	-0.35403588
15	0xbf09d230	-0.53836346
16	0xbbd5cd2e	-0.0065247035
17	0x3faf575c	1.3698535
18	0xbe80d65a	-0.25163537
19	0x3f3b6c5e	0.7321223
20	0xbecc35ef	-0.39884898
21	0x3c1174dd	0.00887796
22	0xbad98fb9	-0.0016598619
23	0x3f5c6ef1	0.86106783
24	0xbf1e315d	-0.6179407
25	0x3e222824	0.15835625
26	0x3a89a2f0	0.001050083
27	0xbf128df9	-0.57247883
28	0x3eb9d9c1	0.36298946
29	0x3f99ff9e	1.2031133
30	0xbbc8126b	-0.006105711
31	0xbdb9da35	-0.09074823
32	0x3c82e68a	0.01597907
33	0x3f284547	0.6573071
34	0xbee1b2b5	-0.44081655
35	0x3ddec0e0	0.10876632
36	0xbb387dbb	-0.0028151113
37	0x3d82dfa2	0.06390311
38	0x3eebd82f	0.46063372
39	0x3f749766	0.95543516
40	0xbdcaefed	-0.099090435
41	0xbedcf724	-0.43157303
42	0x3e51e26a	0.20496526
43	0xbef978ee	-0.48725075
44	0xbc67f94d	-0.014158559
45	0x3d19671e	0.037451856
46	0x3bc48a87	0.005997959
47	0x3f708705	0.93956023
48	0x3dd3a0c8	0.10333401
49	0xbfd0d638	-1.6315374
50	0x3e62398e	0.22092268
51	0x3f310a39	0.69156224
52	0xbeeb5256	-0.45961255
53	0xbf2c8577	-0.6739115
54	0xbecac08b	-0.39600024
55	0xbf09cdf6	-0.53829896
56	0x3efb1220	0.49037266
57	0x3f5a1a73	0.8519661
58	0x3ec1152f	0.37711474
59	0xbf69749f	-0.91193575
60	0xbe9e30b1	-0.30896524
61	0xbebfadeb	-0.37437376
62	0x3f0f294b	0.55922383
63	0xbe03773d	-0.12838455
64	0xbd37332c	-0.044726536
65	0x3f381525	0.71907264
66	0xbf0360d4	-0.51319623
67	0x3ecc0217	0.39845344
68	0x3f040909	0.51576287
69	0xbe53730a	-0.20649353
70	0xbedcee58	-0.43150592
71	0xbf0a9129	-0.54127747
72	0xbf297cc0	-0.6620598
73	0xbea4ae9e	-0.32164472
74	0x3f204a6b	0.6261355
75	0xbf2e2d58	-0.6803794
76	0x3e66c543	0.22536187
77	0xbf9d0f3e	-1.2270277
78	0x3ec79aeb	0.3898538
79	0xbf7c39ae	-0.9852551
80	0xbed2f312	-0.41201073
81	0xbe8da66a	-0.27666026
82	0xbd380ec4	-0.044935957
83	0x3eb0553b	0.34440026
84	0x3ed7cc77	0.42148182
85	0xbf89cb15	-1.0765101
86	0x3eff3eac	0.49852502
87	0x3f40b11d	0.75270253
88	0xbf0e9347	-0.5569348
89	0xbed7517b	-0.42054352
90	0x3f1115ca	0.5667387
91	0xbe6ac508	-0.22926724
92	0x3e8b70bb	0.27234444
93	0x3f86bd98	1.052661
94	0x3e75c653	0.24001436
95	0xbf0ffaf0	-0.56242275
96	0x3ce12c6c	0.027487002
97	0x3fabbdb3	1.3417267
98	0x3f12e068	0.57373667
99	0x3f981995	1.1882807
100	0xbf2c01c5	-0.671902
101	0xbe162d43	-0.14665703
102	0xbf20ffd3	-0.62890357
103	0x3cc231ac	0.023705326
104	0x3dbc0cfc	0.09182164
105	0xbfb84694	-1.4396539
106	0x3e538fe1	0.20660354
107	0x3dfd3cd7	0.1236512
108	0x3e63ed59	0.2225851
109	0x3dac2110	0.08404744
110	0x3da209bc	0.07912013
111	0xbfd0a4fa	-1.6300347
112	0xbe9cbbc9	-0.3061202
113	0xbe07ba07	-0.13254558
114	0xbeca53af	-0.3951697
115	0x3f0ff33e	0.56230533
116	0x3e9b5fca	0.3034652
117	0x3f935a6f	1.1511973
118	0x3c0cbe24	0.008590255
119	0x3f7c2cc2	0.98505795
120	0xbdfa5c65	-0.12224654
121	0xbf38a003	-0.7211916
122	0x3f0d800b	0.55273503
123	0x3efa4378	0.488796
124	0x3e946abd	0.28987685
125	0x3f35a12a	0.7094904
126	0xbee7ae7e	-0.45250314
127	0x3f5b2091	0.8559657
128	0x3e5c396b	0.21506278
129	0xbf956683	-1.1671909
130	0x3ee1f512	0.44132286
131	0xbfc2876f	-1.5197581
132	0x3e366911	0.17813517
133	0xbea868c9	-0.32892445
134	0xbf1f813d	-0.62306577
135	0xbe6c68d5	-0.23086865
136	0xbf0af2db	-0.5427682
137	0xbec9dc07	-0.3942568
138	0xba47b225	-0.0007617793
139	0x3f8f13c7	1.117791
140	0x3edaf5c6	0.42765635
141	0xbf1a6dd0	-0.6032381
142	0x3f07a99b	0.5299317
143	0x3f4e27b6	0.80529344
144	0xbe3bd321	-0.18342258
145	0xbed3a3e7	-0.41335985
146	0xbe67a7e5	-0.2262264
147	0xbf0b3d0c	-0.54390025
148	0x3ee3e1d8	0.44508243
149	0x3eb5934d	0.35463944
150	0xbe57dabd	-0.21079536
151	0x3f277fe6	0.6542953
152	0x3e593a73	0.21213703
153	0xbec5da10	-0.3864293
154	0x3eb644a1	0.35599235
155	0x3dac1345	0.08402113
156	0x3ec5dfaf	0.3864722
157	0xbf8818cb	-1.0632566
158	0x3e27210a	0.16321197
159	0xbfc9029f	-1.5703925
160	0xbece4fac	-0.4029516
161	0x3f1df6da	0.6170479
162	0x3bda3bf4	0.006659979
163	0xbf687597	-0.9080443
164	0x3ec83280	0.39101028
165	0xbf0a553d	-0.54036313
166	0x3eb45712	0.3522268
167	0x3eb9ca2f	0.36287066
168	0xba35dcfd	-0.0006937532
169	0xbf2c19c6	-0.6722683
170	0x3f03866a	0.51376975
171	0x3f661e2d	0.89889795
172	0x3ea2d7cc	0.31805265
173	0xbea50eeb	-0.32237944
174	0x3ef4773c	0.4774722
175	0xbf98a21e	-1.1924474
176	0x3de4d13e	0.11172722
177	0xbf7a64fa	-0.9781033
178	0x3e86f64a	0.2635978
179	0xbf5b7ef3	-0.85740584
180	0x3ee4e49d	0.44705668
181	0xbfbe20a2	-1.4853709
182	0x3e07a8f5	0.13248046
183	0xbfb083d8	-1.3790236
184	0xbe6f551c	-0.2337231
185	0x3ed555ac	0.41666925
186	0x3eb3a366	0.350856
187	0x3d91cce2	0.071191564
188	0x3ee62c0b	0.44955477
189	0xbf86d231	-1.0532895
190	0x3de34c50	0.1109854
191	0x3f8f0750	1.1174107
192	0xbd5c36cf	-0.053763207
193	0x3f645b26	0.8920158
194	0xbf30e3ec	-0.6909778
195	0x3f0cf312	0.55058396
196	0xbead3fa5	-0.3383762
197	0x3f197d10	0.59956455
198	0xbe9b43c5	-0.30325142
199	0xbf093945	-0.5360301
200	0xbe91dc85	-0.28488556
201	0x3ef29267	0.4737732
202	0xbf33f9f7	-0.7030329
203	0xbdbccd17	-0.09218805
204	0x3e8cd40d	0.27505532
205	0x3db52033	0.08844032
206	0x3ed6b935	0.41938177
207	0xbea9aa83	-0.33137903
208	0xbe538039	-0.20654382
209	0x3e594c5b	0.21220534
210	0xbe66a463	-0.22523646
211	0xbe3c7120	-0.18402529
212	0x3dcffc29	0.101555176
213	0x3fa027c8	1.251214
214	0x3eb23319	0.3480461
215	0x3eeaa06a	0.4582551
216	0x3e83c871	0.25738862
217	0x3f8bed1d	1.0931736
218	0xbb083061	-0.002078079
219	0x3f306d07	0.6891636
220	0x3e01406e	0.12622234
221	0x3f1463fd	0.5796507
222	0x3d98aeb7	0.07455199
223	0xbf911061	-1.1333123
224	0xbe6e3e31	-0.23265912
225	0xbf0b3eec	-0.54392886
226	0xbeef5e04	-0.46751416
227	0xbebd594f	-0.369822
228	0x3d702a27	0.05863395
229	0xbf97ddfb	-1.1864618
230	0x3e653d26	0.22386608
231	0xbf76decf	-0.9643373
232	0xbed745c8	-0.42045426
233	0x3e4a0f70	0.19732451
234	0xbed85ea8	-0.42259717
235	0x3ef61608	0.48063684
236	0x3edeab7a	0.434902
237	0xbfa29126	-1.2700546
238	0x3e5f90f5	0.2183264
239	0xbf99300a	-1.1967785
240	0xbf13da29	-0.5775476
241	0x3ea3ca83	0.31990442
242	0xbf1ad61e	-0.60482967
243	0x3ea2f870	0.31830168
244	0xbef7fef9	-0.48436716
245	0xbf130537	-0.5742983
246	0xbe9fc30b	-0.31203493
247	0x3e9abf7b	0.30224213
248	0xbe6911ab	-0.22760646
249	0x3efee0a2	0.49780756
250	0x3b33758b	0.0027383293
251	0x3faf7f6f	1.3710765
252	0x3cca886c	0.024723254
253	0x3f071b40	0.52775955
254	0x3a46c2b7	0.00075821154
255	0xbf3052a0	-0.68876076

net.0.bias f4 [128]
0	0xbe8b080e	-0.27154583
1	0x3e7e9625	0.24861963
2	0xbf72bd4c	-0.94820094
3	0x3f3e5a10	0.74356174
4	0xbee93d7c	-0.4555472
5	0xbef02beb	-0.46908507
6	0xbf2834b4	-0.6570542
7	0xbefcf00b	-0.49401888
8	0x3f40330d	0.750779
9	0x3eaba5bc	0.33524883
10	0xbc9a496c	-0.018833838
11	0x3f045869	0.51697403
12	0xbedb82ae	-0.42873138
13	0x3f217356	0.63066614
14	0xbf026725	-0.50938636
15	0x3f91e56d	1.139814
16	0xbf24f10a	-0.64430296
17	0x3f635929	0.8880792
18	0x3f55687f	0.83362573
19	0xbf6c08a5	-0.9220069
20	0x3eab3fb2	0.33447033
21	0x3f464530	0.7744932
22	0xbd729ac7	-0.05922964
23	0xbccafdb6	-0.024779182
24	0xbe3f9f06	-0.18713006
25	0xbd0632de	-0.032763354
26	0xbe8c31d5	-0.2738177
27	0xbefe567b	-0.49675354
28	0xbed17930	-0.4091277
29	0xbf939c90	-1.1532154
30	0xbf195bc3	-0.5990564
31	0xbf7ee27c	-0.9956434
32	0x3f27f1ab	0.6560313
33	0xbf2ece9b	-0.68284005
34	0xbf52e30f	-0.82377714
35	0xbee94a0a	-0.455643
36	0xbbcadbf0	-0.0061907694
37	0xbf044a39	-0.51675755
38	0xbf025b2b	-0.5092036
39	0xbc1d1363	-0.009587142
40	0xbe9b5f22	-0.30346018
41	0xbeed076e	-0.4629473
42	0x3eb96486	0.36209506
43	0x3f1a0a52	0.60172
44	0xbece4e37	-0.40294048
45	0xbfad78dc	-1.3552508
46	0x3e3ff7ba	0.18746844
47	0xbf136a88	-0.5758443
48	0xbf1747a7	-0.5909371
49	0x3f2ad378	0.66728926
50	0xbe909d9d	-0.2824525
51	0xbd64d23a	-0.05586455
52	0x3eb6dde7	0.35716173
53	0x3f058203	0.5215151
54	0xbfa40c32	-1.2816222
55	0xbed113b7	-0.40835354
56	0x3f37c8f0	0.7179098
57	0xbd3314a6	-0.043720864
58	0xbe228874	-0.15872365
59	0xbd7d4527	-0.061833527
60	0x3ed55f39	0.41674212
61	0x3f0444d3	0.5166752
62	0xbf4de2a9	-0.8042398
63	0x3e4a5cee	0.19762012
64	0x3da25179	0.07925696
65	0xbec5af13	-0.38610134
66	0xbf4cbbbe	-0.7997397
67	0x3e84092e	0.25788254
68	0xba9a1a36	-0.0011757079
69	0x3e9b3290	0.30312014
70	0xbf6c3052	-0.9226123
71	0x3e153db9	0.14574327
72	0x3f39399a	0.7235352
73	0xbf07b37b	-0.5300824
74	0x3f13e52c	0.57771564
75	0x3de1cb2f	0.11025082
76	0x3f5698ee	0.838271
77	0xbed20472	-0.41019017
78	0x3eb80cd1	0.35947278
79	0xbf4caf78	-0.79955244
80	0x3dcfbc13	0.10143294
81	0x3f687457	0.9080252
82	0x3f49450f	0.78621
83	0x3ee5014f	0.4472756
84	0x3f807891	1.0036794
85	0x3eacf1fa	0.33778363
86	0x3f5e63f7	0.86871284
87	0x3f059297	0.52176803
88	0xbe5d94d7	-0.21638809
89	0x3f5c66f9	0.86094624
90	0xbf1e0cf8	-0.6173854
91	0xbf3e761d	-0.74398977
92	0x3ee601cf	0.44923255
93	0x3f5399ea	0.8265673
94	0xbe0dfd79	-0.13866223
95	0xbd84fcd0	-0.06493533
96	0x3ec8f1c8	0.39246964
97	0xbf0d5224	-0.5520346
98	0x3ef2920f	0.4737706
99	0x3f2c6eba	0.67356455
100	0xbef870ad	-0.48523465
101	0xbeecd906	-0.46259326
102	0x3f53b932	0.8270446
103	0xbea1ac67	-0.31576845
104	0x3eb9c810	0.36285448
105	0x3f73a41e	0.951723
106	0xbe63e11f	-0.22253846
107	0xbe296118	-0.16540945
108	0x3df75ab0	0.12077844
109	0x3eace84e	0.33770984
110	0xbb4a3ce3	-0.0030859045
111	0xbf55a824	-0.8345969
112	0xbf04419a	-0.516626
113	0xbe802f22	-0.2503596
114	0x3eb25da1	0.34837058
115	0xbedfc7cc	-0.4370712
116	0x3ed50c7d	0.4161109
117	0xbf326e10	-0.6969919
118	0xbf06b54a	-0.52620375
119	0x3f3b92f8	0.7327113
120	0xbdcedf91	-0.10101236
121	0xbeb33c12	-0.35006768
122	0xbe7e729c	-0.24848408
123	0x3ef75810	0.48309374
124	0xbf01dcf5	-0.5072778
125	0x3d910f20	0.07082963
126	0xbf20d109	-0.6281896
127	0x3f41975f	0.756216

net.2.weight f4 [72, 128]
0	0xbd337cf0	-0.04382032
1	0x3decfca8	0.11571628
2	0xbb44b7fe	-0.0030016894
3	0x3f37d6e4	0.7181227
4	0x3db5d4ff	0.088785164
5	0x3d3a0ed0	0.045424283
6	0x3db25d5c	0.08709213
7	0xbd2aa33f	-0.04165959
8	0x3db59d01	0.08867837
9	0x3d47af55	0.048751194
10	0x3cb5b233	0.022179699
11	0x3e340fea	0.17584196
12	0xbb9934a6	-0.0046754656
13	0x3f33ff23	0.7031118
14	0x3c50dea0	0.01274839
15	0x3ef67a80	0.48140335
16	0xbe81d8b3	-0.2536064
17	0x3d68882c	0.05677049
18	0x3ec1e87b	0.3787268
19	0xbb89773f	-0.0041951234
20	0x3e69f25c	0.22846359
21	0xbc5c75ae	-0.013455791
22	0xbc3402b9	-0.010986977
23	0xbe97a75a	-0.29619867
24	0xbc2e18fd	-0.010626075
25	0xbcc32a02	-0.023823742
26	0x3d53355a	0.051564552
27	0x3d030246	0.03198459
28	0x3cb48322	0.022035185
29	0xbd98df26	-0.07464437
30	0xbc2f87c0	-0.010713518
31	0xbdba9c10	-0.09111798
32	0xbd8944d5	-0.06702582
33	0xbda6451b	-0.081186496
34	0xbd4bf9ec	-0.04979889
35	0x3da7846b	0.081795536
36	0xbda2e8b9	-0.079545446
37	0x3d2de8e1	0.04245842
38	0xbc810773	-0.015750622
39	0xbd1cc521	-0.038273934
40	0x3d72e901	0.05930424
41	0x3d4eeef5	0.050520856
42	0xbd3e3f3a	-0.046447016
43	0xbd86a614	-0.06574646
44	0xbd8fa04f	-0.07012998
45	0xbd7f6e07	-0.06236079
46	0xbb12597b	-0.0022331167
47	0x3d0ce1a3	0.03439487
48	0xbef9460c	-0.48686254
49	0xbc80fc4e	-0.015745308
50	0x3d135691	0.035971228
51	0xbd1632a2	-0.03666938
52	0x3e041098	0.12896955
53	0x3b09691d	0.0020967193
54	0xbda3571b	-0.079755984
55	0x3bae7594	0.005324075
56	0x3e05d234	0.13068467
57	0x3beb8de1	0.007188544
58	0xbd286842	-0.041115053
59	0xbec3bd61	-0.38230422
60	0x3f35343e	0.7078284
61	0x3b3a2699	0.0028404354
62	0xbd8710f5	-0.06595031
63	0x3e0d97ea	0.13827482
64	0x3d6e4c38	0.058178157
65	0x3d882fce	0.06649743
66	0xbd96dffd	-0.07366941
67	0x3e415c3a	0.18882838
68	0xbce74646	-0.028231751
69	0xbe1195b0	-0.14217257
70	0x3c4760a8	0.012169041
71	0xbd41343a	-0.047168948
72	0xbdc1daf5	-0.09465591
73	0x3d59a9b1	0.053140346
74	0x3d81159f	0.06302952
75	0xbd8fb631	-0.07017172
76	0x3df3a765	0.11897162
77	0xbd0b3dc3	-0.033994447
78	0x3d85d778	0.06535238
79	0x3d10592b	0.035241287
80	0x3d110e69	0.035414133
81	0x3f4fbf45	0.8115123
82	0x3c9ee140	0.019394517
83	0x3d6bc9c9	0.057565484
84	0x3f38bf5f	0.7216701
85	0x3db29a89	0.087208815
86	0x3dadbfa5	0.08483819
87	0x3dab95a1	0.08378149
88	0x3daeb88f	0.085312955
89	0x3d81b853	0.06333985
90	0xbbb5c164	-0.0055467356
91	0x3c72a64d	0.014810157
92	0x3c89a660	0.016802967
93	0x3d0b7134	0.034043506
94	0xbd8fd71f	-0.07023453
95	0xbca1262c	-0.019671522
96	0xbe05d536	-0.13069615
97	0x3c925fa5	0.017867872
98	0xbdbd1432	-0.092323676
99	0x3eacb7ac	0.3373388
100	0xbd45ba92	-0.04827363
101	0xbd945dce	-0.07244454
102	0x3dc82cf0	0.09774196
103	0x3d907d5c	0.070551604
104	0xbdcefbd7	-0.101066284
105	0xbdf093da	-0.117469504
106	0xbddcb8de	-0.10777448
107	0xbca0b5d1	-0.019617947
108	0x3d16b663	0.03679503
109	0xbd95971e	-0.07304214
110	0x3d9a3d3f	0.07531213
111	0xbd196294	-0.037447527
112	0xbd8edbac	-0.06975493
113	0xbce98b01	-0.028508665
114	0x3d8e6797	0.06953352
115	0x3d858e9b	0.065213405
116	0x3e079587	0.13240634
117	0x3d9b578b	0.07585057
118	0xbb98d8b7	-0.0046645063
119	0x3e16d606	0.14730081
120	0xbccba150	-0.024857193
121	0xbdab32f8	-0.08359331
122	0x3b2226e1	0.0024742412
123	0x3c399289	0.011326441
124	0x3d761b4d	0.06008463
125	0xbe7cbf5a	-0.2468237
126	0xbd2bc44a	-0.041935243
127	0x3f3f647e	0.74762714
128	0xbd0e597c	-0.034753308
129	0xbd503aca	-0.050837316
130	0x3bca0bf4	0.0061659757
131	0xbe811a73	-0.25215492
132	0xbdae4919	-0.08510036
133	0xbd24ac53	-0.040203404
134	0x3d670f84	0.05641128
135	0xbd8a2855	-0.06745974
136	0x3efab11e	0.48963255
137	0x3e369e48	0.17833817
138	0xbc5edfce	-0.013603164
139	0x3ec1ac21	0.37826636
140	0xbd6aeaca	-0.05735282
141	0xbe03ee1c	-0.128838
142	0x3d86337a	0.06552787
143	0x3e0aea85	0.13566025
144	0x3e455236	0.19269642
145	0x3e300f66	0.17193374
146	0x3e0b77a4	0.13619858
147	0x3c954f44	0.018226273
148	0x3e503ac7	0.20334922
149	0xbd4fe335	-0.05075379
150	0x3da99d33	0.082819365
151	0x3ef32e7a	0.47496396
152	0xbd134750	-0.03595668
153	0xbd79277a	-0.060828663
154	0x3cbf0d89	0.023321884
155	0x3d22c521	0.039738778
156	0x3c317301	0.010830642
157	0xbdadec9b	-0.084923945
158	0xbc187281	-0.009304644
159	0xbd55e49b	-0.05221997
160	0xbd2846a3	-0.04108299
161	0xbdaf0094	-0.08545032
162	0x3d8f0484	0.06983283
163	0xbd9635d6	-0.07334487
164	0x3d1094b3	0.03529806
165	0xbd4d895f	-0.050179835
166	0xbd3a11b4	-0.04542704
167	0xbc3b5ed0	-0.011436179
168	0xbd73b394	-0.05949743
169	0xbce50228	-0.02795513
170	0x3d737509	0.059437785
171	0xbc3785fc	-0.011201378
172	0xbda8b82d	-0.08238254
173	0x3cf83052	0.030296478
174	0x3dab38fb	0.083604775
175	0xbda1f95e	-0.07908891
176	0x3eed71ff	0.46376035
177	0x3ddccebe	0.107816204
178	0xbd417a9c	-0.04723607
179	0xbda242b9	-0.079228826
180	0xbcdd3f94	-0.027007855
181	0x3cb5c95d	0.022190744
182	0xbd7302e1	-0.059328917
183	0xbe685605	-0.22689064
184	0x3dcc0e42	0.09963657
185	0x3d9003fc	0.0703201
186	0x3cd86edf	0.026420055
187	0x3eb458d0	0.3522401
188	0xbbf483a3	-0.0074619814
189	0xbc499505	-0.012303595
190	0x3c66d06c	0.014087778
191	0x3d983d16	0.07433526
192	0xbd6651df	-0.056230422
193	0xbd79b89d	-0.060967077
194	0xbc937224	-0.017998762
195	0xbd9ffcc7	-0.07811885
196	0xbd670c5e	-0.05640828
197	0x3eececbc	0.46274364
198	0x3d6fe540	0.05856824
199	0x3d9c3504	0.076272994
200	0x3ebf18b7	0.37323543
201	0xbd0bcff7	-0.034133878
202	0x3da4e29e	0.08051036
203	0x3dee824d	0.11645947
204	0x3d9f83ff	0.07788848
205	0xbcbd27e2	-0.023090307
206	0xbd276496	-0.04086741
207	0xbcaca426	-0.021074366
208	0x3db1c125	0.086794175
209	0xbf06d5b1	-0.5266982
210	0xbcc61dea	-0.024184186
211	0x3d7306fc	0.059332833
212	0xbe39d593	-0.18147878
213	0xbd58bf30	-0.052916706
214	0xbd9a4cfa	-0.07534213
215	0x3a91a0bd	0.0011110526
216	0xbc85505e	-0.016273674
217	0x3ca674c5	0.020319352
218	0x3d6b72c2	0.05748249
219	0xbdd4954c	-0.103800386
220	0x3d30d3d9	0.043170784
221	0x3d8fb48d	0.07016859
222	0xbc60754a	-0.013699839
223	0x3db597f1	0.08866871
224	0x3cab0e3f	0.020880817
225	0x3e10126c	0.14069527
226	0x3da51072	0.08059777
227	0x3e5e7749	0.21725191
228	0xbd9df1c2	-0.07712127
229	0x3d8fa0c3	0.07013085
230	0x3c68587f	0.014181255
231	0x3c6a0884	0.014284257
232	0xbb914bb3	-0.004434073
233	0x3e8db599	0.2767761
234	0x3db197de	0.086715445
235	0x3c8f1985	0.017468223
236	0x3d965136	0.073397085
237	0x3e319e1d	0.17345472
238	0x3d40c2d6	0.04706081
239	0xbe2e17c1	-0.17001249
240	0xbdb36bca	-0.087607935
241	0x3d2cf827	0.042228844
242	0xbd88f495	-0.06687275
243	0x3d1ab29b	0.037767988
244	0x3daf33a3	0.08554771
245	0x3db16245	0.086613216
246	0xbc9b9831	-0.018993469
247	0xbd5c3aac	-0.05376689
248	0xbd30eb04	-0.04319288
249	0x3d1ae303	0.03781415
250	0x3d97a6d3	0.07404866
251	0x3c9a55ff	0.018839834
252	0xbca69604	-0.020335205
253	0x3f05b929	0.52235657
254	0x3cf09114	0.029366054
255	0xbebaa94d	-0.3645729

net.2.bias f4 [72]
0	0x3ee99cc7	0.45627424
1	0x3dbe27f9	0.09284968
2	0xbd4284d0	-0.04748994
3	0x3ec5ad57	0.3860881
4	0x3dcf6281	0.1012621
5	0x3e12e766	0.14346084
6	0x3da1804b	0.07885798
7	0xbc2d5554	-0.010579426
8	0x3e0e9f8d	0.13928051
9	0xbdd6a775	-0.10481159
10	0x3c8adcff	0.016951082
11	0x3bc5600a	0.0060234116
12	0xbd990204	-0.074710876
13	0x3d93a722	0.072096124
14	0x3ec19653	0.3781
15	0x3d7f1958	0.06228003
16	0x3d865be6	0.06560497
17	0xbde4d242	-0.11172916
18	0xbe00560a	-0.12532821
19	0x3b704476	0.00366619
20	0xbd50e5a8	-0.051000267
21	0xbd9a5733	-0.07536163
22	0xbbe3bf96	-0.006950329
23	0x3e9b2cee	0.30307716
24	0xbcb91dc9	-0.02259721
25	0x3e646d56	0.22307333
26	0x3de9e16e	0.114199504
27	0x3e07d3d3	0.13264398
28	0x3daa3bdc	0.083121985
29	0x3d155ef4	0.036467507
30	0xbc8201a5	-0.015869925
31	0xbd0f96f0	-0.035056055
32	0x3eaa46b5	0.3325707
33	0xbc29a50a	-0.01035429
34	0xbe69e9e8	-0.22843134
35	0xbe06b611	-0.1315539
36	0xbd370d48	-0.0446904
37	0x3cd5756f	0.026056973
38	0x3da0285a	0.078201964
39	0x3e0254ab	0.12727611
40	0xbdd51775	-0.10404865
41	0x3d87d69c	0.0663273
42	0x3de3ed6f	0.11129271
43	0x3d5eab60	0.054362655
44	0x3cb14a04	0.021641739
45	0x3cc2a075	0.023758152
46	0xbcd02bab	-0.025411448
47	0x3ee01793	0.43767986
48	0x3d80f776	0.062971994
49	0xbdd90db1	-0.105983146
50	0xbc9a03d1	-0.018800648
51	0xbc93200b	-0.017959615
52	0x3c1a4bd7	0.009417496
53	0x3c17e09d	0.009269861
54	0x3dc23c1e	0.09484123
55	0xbd743b3b	-0.0596268
56	0xbe1e800c	-0.15478534
57	0x3ea1fa73	0.3163639
58	0x3e5a0303	0.21290211
59	0x3dd09ea8	0.10186511
60	0x3d046f66	0.0323328
61	0x3ce6af3d	0.028159732
62	0xbbe9684a	-0.007123028
63	0xbde3b1f1	-0.11117924
64	0x3ceb3eee	0.02871653
65	0x3e995566	0.29947966
66	0x3e5f3c3c	0.21800321
67	0xbea27539	-0.3173006
68	0x3e33123b	0.17487423
69	0xbcb693f9	-0.022287356
70	0x3d4044a0	0.046940446
71	0x3e14174d	0.14462014

net.4.weight f4 [36, 72]
0	0x3e96bb9f	0.2944002
1	0xbd5aef22	-0.05345071
2	0x3db6415e	0.088991866
3	0x3d3ad9e8	0.045617968
4	0x3dc6d68c	0.0970889
5	0x3d9a9c95	0.07549397
6	0xbdee5993	-0.11638179
7	0xbc9b68da	-0.018970896
8	0x3db246ee	0.08704935
9	0x3db9c857	0.09071415
10	0x3dd8d7d8	0.10588044
11	0xbda190fb	-0.07888981
12	0x3a9bab20	0.0011876561
13	0xbd81b19d	-0.06332705
14	0x3dd79d19	0.10528011
15	0xbd64f4a9	-0.05589739
16	0xbd63e2db	-0.055636268
17	0xbe47def7	-0.19518648
18	0xbe0a5dfa	-0.13512412
19	0x3db94b23	0.09047534
20	0xbd683730	-0.056693256
21	0x3d77df0e	0.060515456
22	0xbd667af3	-0.056269597
23	0x3e10f06a	0.1415421
24	0x3bab8047	0.0052337977
25	0x3e09012d	0.13379355
26	0x3e283f27	0.1643034
27	0x3c3de695	0.01159062
28	0xbdc276c7	-0.09495311
29	0x3d409a61	0.047022227
30	0x3cec4806	0.028842937
31	0xbc942f0a	-0.018088836
32	0x3cd7e9d1	0.02635661
33	0x3d98778b	0.07444676
34	0xbabe6208	-0.0014525065
35	0x3bac41c0	0.0052568614
36	0x3c2f9220	0.010715991
37	0x3db064c8	0.086129725
38	0x3d8433e7	0.06455212
39	0x3dd64e06	0.104641005
40	0x3da7c3b1	0.08191622
41	0x3d054ae9	0.032542143
42	0xbde08a23	-0.109638475
43	0x3d904c02	0.07045747
44	0xbd261c58	-0.040554374
45	0x3c701425	0.01465324
46	0xbcbe3fa8	-0.023223713
47	0x3eb9b2d3	0.36269245
48	0x3e116b0d	0.14200993
49	0x3dbac6e1	0.091199644
50	0xbca07f9a	-0.019592095
51	0x3de64cc6	0.11245112
52	0xbd3c178f	-0.045920905
53	0xbd05766f	-0.03258365
54	0xbe141bdf	-0.14463757
55	0x3ded49fa	0.115863755
56	0x3ca2219d	0.019791419
57	0x3e047d1f	0.12938355
58	0x3d873309	0.06601531
59	0xbd288bcd	-0.04114895
60	0x3d3b2faf	0.04569977
61	0xbd4f84a7	-0.050663617
62	0x3d0060da	0.031342365
63	0x3cf98c18	0.03046231
64	0xbcfc8a13	-0.030827558
65	0x3e32a3b0	0.17445254
66	0x3e004f1f	0.12530182
67	0xbe1761b5	-0.14783366
68	0x3b460bc3	0.0030219413
69	0x3db9a910	0.09065449
70	0xbc805d39	-0.015669452
71	0x3e3fda0c	0.18735522
72	0xbd254ff7	-0.040359464
73	0xbd4d4e9f	-0.050123807
74	0xbceb7c06	-0.028745662
75	0x3d8fbd65	0.07018546
76	0xbb97e379	-0.004635271
77	0x3d782dc3	0.060590517
78	0x3d841895	0.06450001
79	0xbddad9ad	-0.106860496
80	0x3cc0ce9c	0.023536019
81	0x3d6be2e1	0.057589415
82	0xbd7f4bd7	-0.062328186
83	0xbdd2e7c4	-0.10298112
84	0xbdbfd16c	-0.09366116
85	0x3df1664e	0.11787091
86	0x3dbb68f2	0.09150876
87	0x3d3a36c5	0.04546239
88	0xbd581f45	-0.052764196
89	0xbd78fd23	-0.060788285
90	0xbdd009a7	-0.10158091
91	0x3d924de1	0.071437605
92	0x3d93eaeb	0.072225414
93	0xbdebfe23	-0.11523082
94	0xbdbf979a	-0.093550876
95	0x3bf77641	0.0075519388
96	0xbcd89c22	-0.026441637
97	0x3c9b6ea9	0.018973665
98	0x3c9b599e	0.018963631
99	0x3cf58642	0.029971246
100	0x3de08c9b	0.10964318
101	0x3dd3badf	0.10338377
102	0x3d7ba172	0.061433263
103	0x3db90794	0.090346485
104	0xbc9197f7	-0.017772658
105	0x3de0d74c	0.109785646
106	0xbd895e89	-0.06707484
107	0xbe0dbeec	-0.13842362
108	0x3bce5ac5	0.0062974417
109	0xbd50f424	-0.05101408
110	0xbd91be0a	-0.07116325
111	0xbdd5f536	-0.10447161
112	0xbd4064fb	-0.046971302
113	0x3d59321b	0.0530263
114	0xbd55a6cd	-0.052161027
115	0xbcc3b383	-0.023889309
116	0xbd8e3a18	-0.06944674
117	0x3ce14d34	0.027502634
118	0xbd9f7f11	-0.07787908
119	0x3bf13f72	0.0073622996
120	0x3cca1f1f	0.024673043
121	0xbd8ea979	-0.06965918
122	0x3dce8963	0.10084798
123	0x3d99d37e	0.07511042
124	0x3caa7323	0.020806855
125	0xbdb80d34	-0.08986893
126	0xbd8a942b	-0.06766542
127	0x3a8bfdb6	0.001068047
128	0xbdaf1d0d	-0.08550463
129	0x3cf0cf4b	0.02939572
130	0xbe0dd45c	-0.1385054
131	0xbd49ea1e	-0.049295537
132	0x3d729488	0.05922368
133	0xbd539690	-0.05165726
134	0x3db73c1a	0.0894701
135	0xb92c100a	-0.00016409173
136	0xbd77ec6b	-0.0605282
137	0xbda5be3d	-0.08092926
138	0x3caa7185	0.020806083
139	0xbe2777b4	-0.16354257
140	0x3d6d1cca	0.057888784
141	0x3ce4058f	0.027834682
142	0xbd9a2dc9	-0.07528264
143	0x3c98c43a	0.018648256
144	0x3d33643b	0.04379676
145	0xbdf152f4	-0.117834
146	0xbd1f77bc	-0.038932547
147	0x3dc5a537	0.09650653
148	0xba120ef9	-0.0005571689
149	0x3d66992f	0.05629843
150	0x3c5f27fb	0.013620372
151	0xbc731bf2	-0.014838206
152	0x3d52d12c	0.051469013
153	0xbd6361ed	-0.05551331
154	0x3d444eba	0.047926642
155	0xbd94b4e0	-0.07261062
156	0xbd6f6b26	-0.058451794
157	0xbb3503c6	-0.0027620657
158	0xbd68ae83	-0.056807052
159	0x3d86ab67	0.06575661
160	0x3dc53245	0.09628729
161	0xbe01f3c1	-0.12690641
162	0x3d74338f	0.059619483
163	0xbdde17c9	-0.108443804
164	0xbd44ccaa	-0.048046745
165	0x3de89bb2	0.113578215
166	0x3d9a1df5	0.07525245
167	0x3d2e9d87	0.0426307
168	0x3bb2c22c	0.005455276
169	0x3cf3f843	0.029781466
170	0xbddd0c48	-0.10793358
171	0x3c59dbb3	0.013297009
172	0xbcd668d7	-0.026173038
173	0xbdb99609	-0.0906182
174	0xbd8de3d1	-0.06928218
175	0x3c430144	0.011902157
176	0xbdc733e1	-0.09726692
177	0x3cf181bc	0.029480807
178	0xbe03c101	-0.12866594
179	0x3d9de7d4	0.07710233
180	0xbdb84071	-0.08996666
181	0x3dbf6b2f	0.093466155
182	0xbce37ef0	-0.02777049
183	0xbd484cda	-0.048901416
184	0x3db159ea	0.08659728
185	0x3dac853e	0.084238514
186	0x3d546367	0.05185261
187	0xbdde8833	-0.10865822
188	0x3d684ed5	0.056715805
189	0xbcbe3c23	-0.023222035
190	0xbceb9b57	-0.028760595
191	0xbd0ae641	-0.033910993
192	0x3d245ec8	0.040129453
193	0x3dadfdb2	0.08495654
194	0x3c91cf0c	0.017798923
195	0x3decfc61	0.11571575
196	0xbd1d3b62	-0.03838671
197	0x3d8ac7d0	0.067763925
198	0xbca97fa2	-0.020690743
199	0xbde6c1de	-0.11267446
200	0xbdfc7705	-0.12327389
201	0xbe0b1fa2	-0.13586286
202	0xbd8b0ea2	-0.067899
203	0xbdef8057	-0.11694401
204	0xbd1239b4	-0.03569956
205	0x3bbc6ab3	0.005750024
206	0x3d75644f	0.059910115
207	0x3d11536c	0.035479948
208	0xbc524c0c	-0.012835514
209	0xbcb4e43d	-0.022081489
210	0x3cf46d5e	0.029837307
211	0xbcd3959e	-0.025828179
212	0xbd05a544	-0.032628313
213	0xbdfda0e4	-0.12384203
214	0xbdfc0fe6	-0.1230772
215	0xbd56fa1f	-0.052484628
216	0xbddfc0df	-0.10925459
217	0x3de7d21a	0.113193706
218	0xbca31457	-0.01990716
219	0xbdc082a9	-0.093999214
220	0xbd3c2593	-0.04593427
221	0xbdbf47e2	-0.093398824
222	0x3e56319c	0.20917362
223	0xbc47694c	-0.012171101
224	0x3dae4973	0.08510103
225	0x3d7ae732	0.06125564
226	0xbcaf4693	-0.021395957
227	0xbca36406	-0.019945156
228	0x3dea7b0c	0.114492506
229	0x3d9ca155	0.07647959
230	0xbd39a346	-0.045321725
231	0x3da0ccfb	0.07851597
232	0x3dc2a647	0.09504371
233	0x3d1b3324	0.03789057
234	0xbdc110f3	-0.09427061
235	0xbd67f95b	-0.05663429
236	0x3d9279cf	0.071521394
237	0xbd3783c7	-0.044803407
238	0xbd8e2672	-0.069409266
239	0xbe401f66	-0.18761978
240	0x3cef465d	0.029208357
241	0xbd96b933	-0.07359543
242	0x3d41d0a5	0.04731812
243	0xbc397216	-0.011318704
244	0xbcddb02f	-0.02706155
245	0x3cd9ed84	0.026602514
246	0xbdb083e4	-0.08618906
247	0x3d84a7f7	0.06477349
248	0xbe113b7e	-0.1418285
249	0xbde0bb6c	-0.10973248
250	0xbd1840c9	-0.03717116
251	0xbcbae2ba	-0.02281319
252	0xbdc16b10	-0.09444249
253	0x3d92207c	0.07135102
254	0xbdfd4890	-0.12367356
255	0x3c826a11	0.015919717

net.4.bias f4 [36]
0	0x3eaddb36	0.33956307
1	0x3dfee45c	0.124459
2	0xbddd5afe	-0.10808371
3	0xbd2695d9	-0.04067025
4	0x3d411ded	0.04714768
5	0xbde1cfa2	-0.11025931
6	0xbe027294	-0.1273902
7	0xbd817f28	-0.06323081
8	0xbdeccb6e	-0.11562239
9	0xbb8504b2	-0.0040593976
10	0xbdc2ce92	-0.095120564
11	0xbb0e8b4f	-0.0021750515
12	0xbd974d54	-0.07387796
13	0xbd7d00bb	-0.061768275
14	0xbe0d297f	-0.13785361
15	0x3e1ccef7	0.15313326
16	0x3e3533eb	0.17695586
17	0xbd9d26f5	-0.07673446
18	0xbe174428	-0.14772093
19	0x3eb91f03	0.36156473
20	0xbdd35f74	-0.103209406
21	0x3dcaaa76	0.09895794
22	0x3e8638a4	0.26215088
23	0x3e5873d0	0.21137929
24	0x3e9be299	0.30446318
25	0x3eb4b7cd	0.3529648
26	0x3d80598d	0.062670805
27	0xbd9bda61	-0.07610012
28	0xbe91d8b5	-0.28485647
29	0xbd9c4854	-0.07630983
30	0x3e8f6bab	0.28011832
31	0xbb998a7b	-0.0046856976
32	0xbe176d22	-0.14787725
33	0x3d2acf2c	0.04170148
34	0xbe289159	-0.16461696
35	0xbd1010cd	-0.035172272

net.6.weight f4 [8, 36]
0	0xbc481924	-0.012213025
1	0xbe07ebf5	-0.13273604
2	0xbdae4818	-0.085098445
3	0xbce1102a	-0.027473528
4	0xbdb5cce8	-0.088769734
5	0x3d847a2e	0.064686164
6	0xbccd604b	-0.02507033
7	0x3e10d112	0.14142254
8	0xbe1e17f0	-0.15438819
9	0x3d05e50f	0.03268915
10	0x3c943180	0.01809001
11	0x3de57184	0.11203292
12	0xbe0531d0	-0.13007283
13	0x3d01ff80	0.031737804
14	0xbdfe0ed6	-0.124051735
15	0xbd928f44	-0.07156232
16	0x3d5e449c	0.05426465
17	0x3d92adad	0.07162032
18	0xbe0b9b44	-0.13633448
19	0xb92cec38	-0.00016491197
20	0xbe095d72	-0.13414553
21	0xbd0f46ca	-0.03497962
22	0x3b7b02fd	0.0038301342
23	0xbc8728ce	-0.01649895
24	0xbcd8a881	-0.026447536
25	0xbd7ec9d4	-0.062204197
26	0xbd2262c0	-0.039644957
27	0xbd25af10	-0.040450156
28	0xbd887061	-0.066620596
29	0xbcfe084f	-0.031009821
30	0xbdbcf022	-0.09225489
31	0xbdcfb3fc	-0.10141751
32	0xbdd7c9cf	-0.10536539
33	0xbe6efc86	-0.23338518
34	0xbe24b162	-0.16083291
35	0x3d5bf536	0.05370065
36	0xbdca0f71	-0.098662265
37	0xbd776a22	-0.06040395
38	0x3d54c37b	0.051944237
39	0x3d527772	0.051383443
40	0xbcb6c927	-0.022312714
41	0xbc7ae262	-0.015312763
42	0xbd5f8f7b	-0.054580193
43	0x3d3a4e0b	0.045484584
44	0xbda883ef	-0.08228289
45	0xbd2d5071	-0.042313043
46	0xbd3e6b05	-0.04648878
47	0xbb45507f	-0.0030107794
48	0x3dcf3a58	0.1011855
49	0x3e1529a5	0.14566667
50	0x3d1c67e9	0.038185034
51	0x3d0d7d30	0.034543216
52	0x3db6c3a3	0.089240335
53	0x3c889edd	0.016677314
54	0xbd72266d	-0.059118677
55	0xbdf8ccab	-0.12148412
56	0xbd3ecb6f	-0.04658073
57	0x3e1ef137	0.15521704
58	0x3e47a12c	0.19495076
59	0xbe422d5f	-0.1896262
60	0xbdd1278a	-0.102126196
61	0x3cd6fe01	0.026244165
62	0xbcb2bac3	-0.02181757
63	0x3d89cc18	0.06728381
64	0xbc7fae24	-0.015605483
65	0x3d02b1ed	0.031907964
66	0xbdbec9ce	-0.09315835
67	0xbe2dddbd	-0.16979118
68	0x3e2368f7	0.1595801
69	0x3978ad3d	0.0002371566
70	0x3e08669c	0.13320392
71	0xbdbc2bc8	-0.09188038
72	0x3e1eb73e	0.15499589
73	0x3c80e794	0.015735425
74	0x3e19995f	0.14999913
75	0x3d17c23b	0.037050467
76	0xbe03650f	-0.1283152
77	0xbe2baf51	-0.16766097
78	0x3d6c032b	0.05762021
79	0xbd376f60	-0.04478395
80	0x3d928d00	0.071558
81	0x3de17503	0.11008646
82	0x3e4dbc11	0.20091273
83	0x3d517ef0	0.051146448
84	0x3c4e0fdd	0.012577024
85	0x3d72b433	0.059253883
86	0xbc9b4676	-0.018954497
87	0x3c49636e	0.012291772
88	0x3e010d77	0.12602793
89	0x3dea223d	0.11432312
90	0xbe355bc5	-0.17710789
91	0x3defe781	0.11714078
92	0xbb0f8a76	-0.0021902598
93	0x3e1f12e2	0.15534547
94	0xbdb8f711	-0.09031499
95	0xbd3fbefa	-0.04681299
96	0x3d8a65d4	0.067577034
97	0x3e24c7ef	0.16091894
98	0xbdc43b11	-0.095815785
99	0xbddf3320	-0.10898423
100	0x3d534f83	0.0515895
101	0x3d13e5c1	0.036107782
102	0x3d9eda6f	0.07756507
103	0x3dbf02b3	0.09326687
104	0xbd6b1907	-0.057396915
105	0xbe18dab4	-0.14927179
106	0x3d952360	0.07282138
107	0xbdffa17e	-0.12481974
108	0xbd501c6b	-0.05080835
109	0x3d4e7d93	0.050412726
110	0x3c39152b	0.011296551
111	0x3e05d259	0.13068523
112	0x3b446a83	0.0029970712
113	0x3eb00768	0.3438065
114	0x3d90a653	0.07062974
115	0x3d49deab	0.04928462
116	0x3da3fbaf	0.08006989
117	0x3df6bbd5	0.12047545
118	0xbe0f5d3b	-0.14000408
119	0x3d398481	0.04529238
120	0xbdb7191e	-0.089403376
121	0xbcedcff8	-0.029029831
122	0x3d842ceb	0.0645388
123	0xbcd1487e	-0.025547262
124	0xbdb1c780	-0.0868063
125	0x3d1b9726	0.037985943
126	0xbe01dde9	-0.12682308
127	0xbe5724fa	-0.21010199
128	0xbd5d12d3	-0.05397303
129	0x3ca28663	0.019839471
130	0x3dbc3673	0.09190073
131	0xbded00c1	-0.115724094
132	0x3e4a83ce	0.19776842
133	0x3c7dee39	0.015498691
134	0xbda746c0	-0.08167791
135	0x3d086856	0.033302628
136	0x3d4d0bc4	0.05006005
137	0x3de8e9a2	0.11372687
138	0xbe4e16e9	-0.20125927
139	0xbe58a844	-0.21157938
140	0xbd27bb49	-0.040950093
141	0xbddcf31b	-0.10788556
142	0xbe6e875e	-0.23293826
143	0xbdfa00a6	-0.12207155
144	0x3e2a0dd9	0.16606845
145	0xbb7590e3	-0.0037470392
146	0xbe1780fd	-0.14795299
147	0x3ccd5814	0.025066413
148	0xbe13807e	-0.14404485
149	0x3e7e77a0	0.24850321
150	0x3e0abd18	0.13548696
151	0x3dcf2f69	0.10116465
152	0xbcc045b1	-0.023470731
153	0x3d4f54aa	0.05061785
154	0x3d83be6a	0.06432803
155	0x3e1a850e	0.15089819
156	0x3d7e8286	0.062136196
157	0xbdded864	-0.10881117
158	0xbd87b493	-0.06626239
159	0x3dd8be85	0.10583214
160	0xbd656d22	-0.05601228
161	0xbde50136	-0.111818716
162	0xbdb11cb3	-0.08648052
163	0x3dc9c080	0.098511696
164	0x3e03631d	0.12830777
165	0xbe16e85a	-0.14737073
166	0xbe930815	-0.28717104
167	0x3d6b6867	0.057472613
168	0xbde39934	-0.111132056
169	0x3dc4b1fc	0.0960426
170	0xbdcc9a21	-0.09990335
171	0x3d923768	0.07139474
172	0x3dd66515	0.104684986
173	0xbe8a5a43	-0.2702199
174	0x3de09c1c	0.109672755
175	0x3e0ca8ff	0.13736342
176	0xbe8f791a	-0.2802208
177	0xbe27c1e3	-0.16382556
178	0x3bc32781	0.005955637
179	0xba90b6fe	-0.0011040864
180	0x3d8ff9e2	0.07030083
181	0x3da5aaab	0.08089193
182	0x3cf3a0fa	0.029739846
183	0x3dd7a3f3	0.10529318
184	0xbdaf42e1	-0.08557678
185	0xbe3c3363	-0.18378977
186	0xbe04d5f0	-0.12972236
187	0x3de6a2f9	0.11261553
188	0xbe2397d3	-0.15975885
189	0x3df34c06	0.11879735
190	0x3e000b03	0.125042
191	0x3d4ebf2a	0.050475277
192	0xbb2fe170	-0.0026837252
193	0xbcf18431	-0.02948198
194	0x3d7611dd	0.06007563
195	0xbc50d76b	-0.012746672
196	0x3d81818c	0.06323537
197	0x3b215043	0.002461449
198	0x3dff7fb3	0.124755286
199	0x3d8b6c81	0.06807805
200	0x3e12f44a	0.14351001
201	0x3e048d8c	0.12944621
202	0x3e176fc3	0.14788727
203	0xbdbe558b	-0.0929366
204	0x3dd04f36	0.10171358
205	0x3e10f566	0.14156112
206	0x3d902463	0.0703819
207	0x3d357625	0.044302125
208	0x3daf4ca8	0.08559543
209	0xbd2eb2e1	-0.04265106
210	0xbbac15b2	-0.0052516097
211	0xbdcbb25e	-0.0994613
212	0xbca613f9	-0.020273196
213	0xbc880b86	-0.016607057
214	0xbd3bc9af	-0.045846637
215	0xbe06f6f9	-0.1318015
216	0x3ce80826	0.028324198
217	0xbd49cc60	-0.049267173
218	0xbd0268a0	-0.03183806
219	0xbd4cbff1	-0.049987737
220	0x3cbcb51c	0.023035578
221	0xbe0121bb	-0.12610523
222	0x3d9fbb41	0.07799388
223	0x3da8a8de	0.08235334
224	0x3cea2e87	0.02858664
225	0xbe1882b0	-0.14893603
226	0x3dd7f0af	0.105439536
227	0xbdecd0ab	-0.11563238
228	0xbd464726	-0.048407696
229	0x3df4219e	0.119204745
230	0xbe066cd2	-0.13127449
231	0x3c001edb	0.0078198565
232	0xbe324216	-0.17408022
233	0x3dba5bd8	0.09099549
234	0x3debf4db	0.11521312
235	0xbdae1e3b	-0.0850186
236	0x3d66ef32	0.05638046
237	0x3df33a4a	0.11876352
238	0xbe111814	-0.14169341
239	0xbe1f409a	-0.15551987
240	0xbe552505	-0.20814903
241	0x3dbf0095	0.09326283
242	0x3db18fbd	0.08669994
243	0x3d9d7967	0.07689171
244	0xbe1d1dae	-0.15343353
245	0x3d9ce48d	0.0766078
246	0x3d2e929e	0.042620294
247	0x39532651	0.00020136802
248	0xbde32b7b	-0.110922776
249	0xbce83f3a	-0.028350461
250	0x3d9739dd	0.073840834
251	0xbce791cd	-0.028267765
252	0x3dbf7f02	0.09350397
253	0x3cfb1f45	0.030654559
254	0x3e13b48d	0.14424343
255	0xbd454121	-0.048157815

net.6.bias f4 [8]
0	0xbe2f4780	-0.17117119
1	0xbdb07607	-0.08616262
2	0xbeafaf1c	-0.34313285
3	0xbd211c16	-0.039333425
4	0xbd8c840c	-0.068611234
5	0x3e77a8aa	0.24185434
6	0xbd76884e	-0.060188584
7	0x3ecef302	0.40419775

net.8.weight f4 [3, 8]
0	0xbc10b98d	-0.008833301
1	0xbd2804e2	-0.04102028
2	0xbd4a1082	-0.04933215
3	0x3dd05187	0.101718
4	0x3e012fd7	0.12615906
5	0xbdd42ff8	-0.10360712
6	0xbe4b45d1	-0.19850852
7	0x3dd0ab55	0.10188929
8	0xbd91e44a	-0.07123621
9	0x3e5df5ec	0.21675843
10	0xbe0e15e7	-0.13875543
11	0x3de97194	0.113986164
12	0x3ca5beaf	0.020232527
13	0x3d5b72ff	0.053576466
14	0xbe8cf0b2	-0.27527386
15	0x3d363fb1	0.044494335
16	0x3e53316f	0.20624326
17	0xbe728e03	-0.23686986
18	0xbe044b03	-0.1291924
19	0xbe6a5fb4	-0.2288807
20	0xbde482e3	-0.11157777
21	0x3e8830a3	0.26599607
22	0xbe7682cf	-0.24073337
23	0x3e801ab5	0.25020376

net.8.bias f4 [3]
0	0x3df9c7c3	0.12196305
1	0x3cc62e76	0.024192076
2	0x3d5cbdb8	0.053891867
