XMFlib/PairProbML/models/mlp_a2p_111_paa_lr0.001_hl16-32-64-128-128-64-32-16.pt (torch, 160524 bytes, 17 tensors)

net.0.weight f4 [16, 2]
000000 7a 78 56 bd ad 5c 20 3f 9c 5e a8 be b8 ad 28 bf
       -0.05236099 0.6264141 -0.3288468 -0.65890074
000010 5f ce ad be 1b 73 33 3f b5 bc 10 3f 60 72 ae 3e
       -0.3394651 0.7009751 0.56537944 0.34071636
000020 02 f9 e5 3e 79 2a f4 3e 99 c3 98 3e 96 d8 1a 3f
       0.4491654 0.47688654 0.2983673 0.60486734
000030 85 3d 22 3f 1b e1 82 3d b5 04 89 3e 64 aa 8b be
       0.6337512 0.06390592 0.26761404 -0.27278435
000040 20 31 9e 3e 61 1a 02 bf 37 64 e1 be 43 76 23 3f
       0.30896854 -0.508215 -0.4402177 0.6385233
000050 ed a4 25 3f 79 f2 75 3e e3 2d 09 bf 87 c1 1e 3e
       0.6470478 0.24018277 -0.5358564 0.15503512
000060 5c a7 90 3e 0f aa e8 be f6 fc 2e 3f 66 6b f9 be
       0.28252685 -0.45442244 0.6835474 -0.4871475
000070 ef a5 41 be ea 3b f2 be ef 7a 47 be 18 d5 ce 3e
       -0.18910955 -0.47311336 -0.19480489 0.40396953

net.0.bias f4 [16]
000000 7d ff 0c 3e 3c 6f 0c bf aa 92 01 bf 7d fc 9d bd
       0.13769336 -0.5485723 -0.50614417 -0.07714174
000010 9e d2 0d bf 90 54 08 3f 8b 52 e6 3e 03 5b c0 3d
       -0.553995 0.5325403 0.4498485 0.09392359
000020 e8 57 a5 3e a2 90 9a 3e a3 a9 a6 3c ce 96 be bc
       0.3229363 0.3018847 0.020344561 -0.023265269
000030 93 06 0e bf 50 61 6f bd ed 7d eb 3e c0 2e 25 be
       -0.5547878 -0.058442414 0.4599451 -0.16131115

net.2.weight f4 [32, 16]
000000 ec 20 88 bd af b8 75 3c 78 bc 38 3e 7a 76 7e 3e
       -0.06646904 0.014997645 0.18040645 0.24849883
000010 69 b4 a7 be 98 74 c4 3c 2a c4 90 3e 7f eb 18 be
       -0.3275483 0.023981377 0.2827466 -0.14933585
000020 35 83 84 be b5 7d 5b 3e 01 0c 55 3e 06 a3 34 be
       -0.25881353 0.21434672 0.2080536 -0.17640314
000030 72 20 4f 3d 94 50 4e 3e ce 86 89 3d 1b c7 7e 3c
       0.05056805 0.20147926 0.06715165 0.0155504
000040 c2 cd 7f be 94 a2 f4 3d e8 5f 50 3e cc 0b 2e 3e
       -0.24980834 0.11945072 0.20349085 0.16996688
000050 c4 3b bc 3d 9c e0 96 bd 1a e3 24 be 60 07 ff bd
       0.09191087 -0.073670596 -0.16102257 -0.124525785
000060 30 bc 24 bd 4e 0b 3a be 4c 4c bf 3d 10 c5 05 bd
       -0.040218532 -0.18168375 0.09340724 -0.032658637
000070 bc d0 34 3e 26 a3 6b be 90 18 2d be 92 ce 05 3e
       0.17657751 -0.23011455 -0.16903901 0.13067082
000080 de 83 7c 3e aa e8 8f 3b ba 1e 16 3e 74 59 ce bc
       0.24659678 0.0043917494 0.14660159 -0.025189139
000090 ea 66 92 bc d1 eb bc bc 2f 67 0d be fe 35 f9 bd
       -0.017871339 -0.023061665 -0.13808893 -0.12168501
0000a0 d5 2f 0d be 97 15 41 3e 62 eb f5 ba 68 7c 92 3e
       -0.13787778 0.18855892 -0.0018762166 0.2861054
0000b0 65 37 45 3d c2 7d 66 be 43 fd 08 be a2 4e a8 3d
       0.04814853 -0.2250891 -0.13377862 0.08218123
0000c0 b8 51 7a bd 63 45 ca 3d 7c e7 d9 bd 43 d6 d2 bd
       -0.06111309 0.09876516 -0.10639855 -0.102947734
0000d0 9b d7 62 be 61 66 62 3e 1e 7f 59 3e 4a c3 92 3d
       -0.2215256 0.22109367 0.21239898 0.07166155
0000e0 a1 97 8a bc 5f 4e 00 be 23 9e ea ba 72 64 04 3e
       -0.016918005 -0.12529896 -0.0017899912 0.12928942
0000f0 1e 0b a6 bd 4f 52 10 bd 7b 68 f7 bd 52 61 9a 3c
       -0.08107589 -0.035234746 -0.12080475 0.018845234
000100 26 27 14 be ce ed 2d be 40 10 b4 3d e0 1f 46 be
       -0.14468059 -0.16985247 0.08792162 -0.19348097
000110 02 53 4a 3e 10 0d e1 3d ce 8d 69 be cc e0 03 3e
       0.19758227 0.109888196 -0.22808 0.12878722
000120 78 69 c8 bd f0 79 6e be 98 f0 e2 bd e2 aa 69 3e
       -0.097857416 -0.23288703 -0.11081046 0.22819093
000130 c0 cf b5 bd d0 d1 d5 3c 10 a5 b3 bc c0 3c d0 bd
       -0.08877516 0.026101023 -0.021929294 -0.10167837
000140 19 33 04 be 2b b2 2f be 00 dd f7 bd 40 63 11 be
       -0.12910117 -0.1715781 -0.12102699 -0.14198017
000150 fc 3d ab bd 46 40 ba be b5 97 73 3e 02 60 ed 3d
       -0.08361432 -0.36377162 0.2378834 0.11590578
000160 fc 4d 89 3e c6 42 d5 3e e4 06 e7 bd 36 20 ad be
       0.2681731 0.41652507 -0.11280611 -0.33813637
000170 a3 62 d2 3e 68 33 64 bd b2 e2 8c 3d bf 5c d7 bd
       0.4109088 -0.055713087 0.06879176 -0.10515737
000180 32 77 11 bf 90 7a 3d 3e 24 34 de bd 4a 30 f7 3c
       -0.568225 0.18503785 -0.10849789 0.030174393
000190 11 ca 3f bd 2f 74 9f bd 85 e4 e0 3d c9 d6 69 3e
       -0.046823565 -0.07785832 0.10981087 0.2283584
0001a0 8e d0 22 be fa 87 9c be 95 cf 44 3e a4 00 f5 bd
       -0.1589987 -0.30572492 0.19219811 -0.11963013
0001b0 94 df a0 be 02 60 a8 3c 8b d9 ac be 08 d8 e0 3d
       -0.31420577 0.020553593 -0.33759722 0.10978705
0001c0 9e 66 da bd 97 9b 6a bf 19 30 1d 3e ee c9 1d 3e
       -0.10664104 -0.9164366 0.15350379 0.15409061
0001d0 51 80 8f be a0 c2 65 3d 66 0b a6 3e 8b d6 1d be
       -0.28027585 0.056093812 0.3243057 -0.15413873
0001e0 15 3e e4 3d 7e 64 11 bd f3 65 8d 3e 61 e2 9f be
       0.11144654 -0.035496227 0.27616844 -0.312274
0001f0 4d 3f d5 be be ff 69 bb 2f 30 11 bd 60 05 0a 3e
       -0.41649857 -0.0035705413 -0.035446342 0.13478613
000200 39 16 33 be 70 3b 9c 3c c7 6e 2b 3e 1f 01 a4 3e
       -0.17488946 0.01907131 0.16741477 0.32032105
000210 49 75 26 be f9 14 33 3c 5c 34 c1 3c 47 97 38 3e
       -0.16255678 0.010930293 0.023584537 0.18026458
000220 3b 04 8b 3c 1c 69 37 3e 4a 64 8d bd f9 77 9c bd
       0.01696979 0.1791119 -0.06903894 -0.076400705
000230 31 cc 64 bd a5 59 a1 be 0d af dc 3d e5 6e bf bd
       -0.055858795 -0.31513706 0.10775576 -0.09347323
000240 16 2a ca 3e 24 52 a1 bd 88 20 ce bd 78 86 8a 3d
       0.39485234 -0.07876995 -0.100647986 0.06763929
000250 49 29 2f be 10 dc f1 be 10 67 d7 bd c9 80 4f 3e
       -0.17105593 -0.47238207 -0.105177045 0.20263971
000260 cc d3 40 bc 19 64 75 bc 55 15 16 bd 5c d3 ce be
       -0.011769246 -0.014977478 -0.036641438 -0.4039563
000270 11 d8 d1 3e 10 60 0b bd 28 3c 11 3e 91 2e 58 be
       0.40985158 -0.03402716 0.14183104 -0.21111514
000280 17 b2 e7 3c 60 7c c2 3d 65 e1 b8 be 0a ed a5 3b
       0.028283162 0.09496379 -0.36109462 0.0050636576
000290 03 0f 72 3e 02 0f e5 3d 73 bd 34 3e b3 cf 65 bd
       0.23638539 0.11184503 0.17650394 -0.05610628
0002a0 7f da 02 be 25 90 86 bd 5c c2 2c be 97 ac 27 3e
       -0.12778662 -0.06570462 -0.16871017 0.16374432
0002b0 43 62 86 3d c7 60 22 3c 98 d8 95 bd 04 4b 93 bd
       0.06561711 0.009910769 -0.073167026 -0.071920425
0002c0 2a 42 de 3d 99 94 85 3d ed d6 fb bd 0b f9 87 bd
       0.108524635 0.065224834 -0.12296853 -0.06639298
0002d0 d8 1b 2f 3e 92 ae bf bd 12 e8 b4 bd ca 01 b1 bd
       0.17100465 -0.093594685 -0.088333264 -0.08642919
0002e0 07 dc 81 be 52 33 ce bd ec c5 01 3e 25 23 fd ba
       -0.2536318 -0.10068382 0.12673157 -0.0019312842
0002f0 39 13 d4 bb ff 80 78 3e fb 40 ae bc 4e 3e fa 3d
       -0.006472018 0.24267958 -0.02127122 0.12218915
000300 fd 15 9e 3d 63 96 6b be 9e 70 8f 3d 37 be 07 3d
       0.07719038 -0.23006587 0.07003902 0.033140387
000310 85 e0 92 3e 4f 44 e8 bd 5b a4 1f 3d b3 ec 10 3d
       0.2868692 -0.11341154 0.0389751 0.035381984
000320 0f d2 15 be 24 26 14 3e 31 f5 c1 bd 16 27 c0 3d
       -0.14630912 0.14467674 -0.09470595 0.09382455
000330 04 6f 96 bd bc 1e 65 be b4 8f 68 3e 68 97 43 be
       -0.07345393 -0.22375005 0.22711068 -0.19100726
000340 07 a8 4f 3e db 59 4c bd 36 a3 48 3e c2 10 6f bd
       0.20278941 -0.04989038 0.1959351 -0.05836559
000350 e0 b4 1a 3e f2 42 3f bb 2f 6f c3 3c 7d 76 d1 3d
       0.15108061 -0.002918419 0.023856727 0.10227678
000360 d8 d6 cd 3d 56 a7 4a 3d 9e 37 53 3e 69 ea 6e 3e
       0.10050744 0.04947599 0.20626685 0.23331608
000370 fa 44 15 be eb 6f 3b be 07 33 b9 3d 08 ab b4 3d
       -0.14577094 -0.18304412 0.09042936 0.08821684
000380 88 77 69 3e 78 59 44 be da d0 2a be f8 37 cb bd
       0.22799504 -0.19174755 -0.16681233 -0.099227846
000390 ce 4f 7e be 68 99 3e be 88 51 6d 3e a8 4d 67 3d
       -0.2483513 -0.18613207 0.23175633 0.056470543
0003a0 60 e8 02 bd e8 4e 11 bd bc ac 15 be 78 ac b2 3d
       -0.03195989 -0.03547564 -0.14616674 0.08724302
0003b0 50 55 a5 bd 16 15 00 be a8 a3 25 be 38 a4 0c bd
       -0.08072913 -0.12508044 -0.16175711 -0.0343363
0003c0 78 4b 14 3d bc 37 16 3e a8 12 a3 3d 58 b1 2f 3d
       0.036204785 0.14669698 0.07962543 0.042893738
0003d0 40 41 9e bd 84 5e 75 be a0 59 10 3d c4 ea fb bd
       -0.07727289 -0.23961836 0.035241723 -0.12300637
0003e0 c6 1c 79 be d4 2b 33 be d4 78 88 bd 0c 79 3f 3e
       -0.24327382 -0.17497188 -0.06663671 0.1869852
0003f0 b8 a3 10 be 0c 12 37 3e 00 04 28 be a0 b5 29 bc
       -0.14124954 0.17877978 -0.16407776 -0.010358244

net.2.bias f4 [32]
000000 3d 4d 5c 3c 60 52 6d bd 47 d9 8c 3e 83 ce c9 3c
       0.013446149 -0.057939887 0.2750952 0.024634605
000010 20 7d 52 be 8f 25 31 be 0c 99 1f be 97 88 8b bd
       -0.20555544 -0.17299484 -0.15585726 -0.06813162
000020 0b 8c 66 bd 44 70 49 3e 52 8e 8b bd ae 7f 46 3e
       -0.0562859 0.19671732 -0.06814255 0.19384643
000030 f8 12 99 3e 35 31 98 bd 0e 7e 29 be 00 f9 77 bd
       0.29897285 -0.074312605 -0.16551992 -0.0605402
000040 52 78 88 3e 40 21 37 3e e1 12 d3 bd 5d 49 d4 bb
       0.26654297 0.17883778 -0.10306335 -0.006478472
000050 5f 82 c3 3c ab 58 da 3d e2 a2 80 3d fe 52 4a be
       0.023865877 0.10661443 0.062810674 -0.19758222
000060 ed 6e 6d 3e 8a d0 29 3e 90 f8 ef bd 63 fa f6 3d
       0.23186846 0.16583458 -0.117173314 0.12059476
000070 f1 b1 6e be 82 d1 46 3d 88 1a a6 bd 58 8b 09 bd
       -0.23310067 0.048539646 -0.08110529 -0.033580154

net.4.weight f4 [64, 32]
000000 ef 1f 57 3d 3a a3 f5 bd d9 62 0e 3e b7 25 b9 bd
       0.05252069 -0.119940236 0.13904895 -0.09040397
000010 cd 94 0b 3e 89 39 dc 3d 7f 49 1a 3d 8f ac 71 bd
       0.13630982 0.107531615 0.037667748 -0.059002455
000020 82 d7 ff bd f1 ae 1f be ba 4f be 3d c7 93 38 3e
       -0.12492277 -0.15594079 0.092925504 0.18025123
000030 21 df 33 3d 69 4a 79 3b 64 0d 93 bc de f6 08 3e
       0.043913964 0.0038038737 -0.017950721 0.13375422
000040 85 38 00 be cb 51 a3 be c4 fc 35 3e c6 21 dd bc
       -0.1252156 -0.3189834 0.17772204 -0.026993643
000050 7d c0 bd bd 9e 3c d7 3d 8c ce 4e 3d 75 fb d4 bc
       -0.0926523 0.10509609 0.050489947 -0.02599881
000060 78 6d 11 3d fb b5 18 3e cf a0 b2 be fb 00 0d bd
       0.03550479 0.1491317 -0.34888312 -0.034424763
000070 79 c6 28 be fd 9c 24 be c0 d3 31 3d 09 27 38 bd
       -0.16481961 -0.16075511 0.04341483 -0.0449591
000080 f8 60 16 bd 0f 62 1d bc e1 37 e0 bd 65 a8 94 3d
       -0.03671357 -0.0096058985 -0.10948158 0.07258681
000090 16 ac 4f 3d c2 b5 d8 bd 47 d1 45 be 9d ec 39 3e
       0.050701223 -0.105815426 -0.19318114 0.18156667
0000a0 30 7c f6 bd 50 09 c8 3c 0c 2e 72 be e2 e5 05 3d
       -0.12035406 0.024418503 -0.23650378 0.032689936
0000b0 ac ee 91 3d 56 0f 99 bb b5 0d 38 3d 50 fa 42 3b
       0.07125601 -0.0046710176 0.044934947 0.0029751249
0000c0 ed b7 49 3e bc c4 f0 bb a7 d1 1f be a2 3a 37 38
       0.19699068 -0.0073476713 -0.1560732 4.3685206e-05
0000d0 a0 8b b9 3d b8 54 39 bc 5c c5 bf bd 50 9f a2 bd
       0.090598345 -0.011311702 -0.09363815 -0.07940543
0000e0 be 27 70 3e e2 b7 bc 3d d1 7a ff bd 1d 50 9f 3b
       0.2345266 0.0921476 -0.12474597 0.004861845
0000f0 ce 1d 1a 3b eb 27 3a 3e 14 0e 88 bd a2 cd 7c 3c
       0.00235163 0.1817929 -0.0664331 0.015429886
000100 f0 f9 53 bd 86 c6 13 be 8b 79 8c 3d 2b bb a1 3b
       -0.05175203 -0.144312 0.0685912 0.0049356422
000110 b6 c3 31 3e 29 9f 52 3c 20 d0 6a 3d 89 eb f4 bd
       0.17359814 0.01285533 0.05732739 -0.11958987
000120 0a ad 02 3e 9e 16 fd bd 23 01 a0 3d 1c dd f4 bc
       0.12761322 -0.123578295 0.07812717 -0.02989059
000130 c3 c5 ab 3c a6 ad 9d bd 45 29 7e 3d 64 e9 21 3e
       0.020968324 -0.076991364 0.062051076 0.15811688
000140 21 11 06 3e d0 85 8f bc bb 3d 56 3c 6e f4 15 bd
       0.13092472 -0.017519861 0.013076241 -0.03661006
000150 e3 f2 dc 3c 0c 66 5a be 16 b2 2a 3e 47 46 63 bd
       0.026971286 -0.2132799 0.16669497 -0.055486944
000160 4a 5e 7f be 05 eb 10 3e d6 7e 58 be c6 55 8c 3d
       -0.24938312 0.14152153 -0.21142134 0.068522975
000170 fb 6a db bc f9 8e d9 3d 79 60 fe 3d 5a ca 0f 3d
       -0.02678441 0.10622973 0.124207444 0.035105087
000180 d7 46 14 be f6 96 cb 3d 66 05 19 3b f0 26 07 be
       -0.14480148 0.09940903 0.0023349165 -0.13198447
000190 dc 76 63 3d 1c 54 91 be 61 38 e4 3c 90 73 01 bf
       0.055533275 -0.28384483 0.027858915 -0.5056696
0001a0 1e 34 e4 bd b2 59 d4 3d 3b fd 69 be e7 1f d7 bd
       -0.11142753 0.103686705 -0.22850506 -0.10504132
0001b0 c6 40 5c 3e 60 50 ae 3c e7 9f 92 3d d2 ef 28 be
       0.21509084 0.02127856 0.07159405 -0.16497734
0001c0 97 c6 36 3d 15 6e 25 3e 9b f2 1e be e3 c2 3f 3b
       0.044622984 0.16155274 -0.15522234 0.0029260449
0001d0 82 67 1c 3e 92 43 bd 3d d9 06 c2 be c8 42 a1 3d
       0.1527386 0.09241404 -0.3789585 0.07874066
0001e0 0c 77 d9 3e c3 91 29 be 34 22 ed bd 78 a5 cf 3b
       0.42473638 -0.1655951 -0.11578789 0.006336864
0001f0 39 b4 72 bd fe 26 2c 3e 52 29 1e be 36 e1 9b bd
       -0.059253905 0.1681175 -0.1544545 -0.07611315
000200 f6 b9 1a 3d 07 a2 26 3e b2 fb 44 3e 3a ea 17 3e
       0.037775002 0.16272746 0.19236639 0.14835444
000210 4a bc 0a 3e 0c a4 62 be 6a e3 23 be e0 a1 af bc
       0.13548389 -0.22132891 -0.1600472 -0.021439493
000220 a9 d8 01 3e 7b 63 af 3c d9 f3 00 be 64 58 88 3d
       0.12680306 0.02140974 -0.1259302 0.06657484
000230 15 b5 f5 bd 10 2a 32 3e 17 37 1b be cd ff 0e 3e
       -0.11997429 0.17398858 -0.15157734 0.13964768
000240 14 07 0b 3e 72 72 bb bd 3f ab 8b 3d a2 de 10 3d
       0.13576919 -0.09152688 0.06819772 0.03536857
000250 42 49 b0 3c c0 02 7b bd 86 1e f5 bd 07 f3 03 3e
       0.021519307 -0.06128192 -0.119687125 0.12885676
000260 c1 e7 5a 3e 8f d4 38 bd ef cc 9b 3d bb 75 a4 3c
       0.2137747 -0.045124587 0.07607447 0.02007567
000270 27 bd 9f bd be 32 cc bd b2 fe 32 3d e4 d8 8e 3d
       -0.0779975 -0.09970616 0.043699928 0.06974962
000280 90 93 19 bd fc 73 e6 bd 84 25 83 bd ba d4 5c 3d
       -0.037494242 -0.11252591 -0.0640364 0.05391381
000290 54 23 3e bd 62 4f 6d be 66 b2 1b be b9 32 1d 3e
       -0.04642041 -0.23174813 -0.15204772 0.1535138
0002a0 5d a3 26 3e ef eb 1c be 71 f3 2a be 7d 60 04 be
       0.16273256 -0.15324377 -0.16694428 -0.12927432
0002b0 40 7b 71 3e 99 b4 fb bd 49 65 d0 bd c2 78 c0 bd
       0.23582172 -0.12290306 -0.101755686 -0.09398033
0002c0 b0 4e 4b bd 7f 71 5b 3d d8 3a 7f 3d 87 eb a3 3d
       -0.04963559 0.053575035 0.062311977 0.08003908
0002d0 7a a8 48 3c 51 43 fd bc 2d e3 1b bd 2c b7 11 3e
       0.012247199 -0.030915888 -0.03805845 0.14230031
0002e0 d3 50 6d 3e 7d ce 92 3d 73 0c 90 bd d1 dc 58 3e
       0.23175363 0.07168291 -0.070336245 0.21177985
0002f0 44 fc c8 b7 cc 3e ab bc cd 40 e2 bd 4d e7 a8 3c
       -2.3959328e-05 -0.020903967 -0.11047516 0.020618105
000300 db 70 26 be f8 36 bf 3d b7 85 b0 bd 2c db 27 be
       -0.16253988 0.09336656 -0.08619254 -0.16392201
000310 ce c2 ff bd 14 72 c6 bd a3 c8 ea be 70 87 3a be
       -0.12488328 -0.096897274 -0.458562 -0.18215728
000320 b3 40 0f bd f9 c1 24 3d 55 5f 8e 3c 5a 95 57 be
       -0.03497381 0.04022405 0.017379442 -0.21053067
000330 c6 9e 24 be c0 95 9c bd ec 16 c2 bd 67 ac e3 bd
       -0.16076192 -0.0764575 -0.09477028 -0.111168675
000340 7e 4b 29 3d 53 a9 b2 bd e0 d1 d3 bd a9 6d 4f bd
       0.04133176 -0.08723702 -0.10342765 -0.05064169
000350 34 95 f3 bd 68 98 66 3d 72 da ad 3d 3d 25 c2 bd
       -0.118936926 0.05629769 0.08488931 -0.09479759
000360 96 6a c7 bc f0 12 35 3c a6 cd b8 3c de 14 5d 3e
       -0.024342816 0.011051878 0.022558998 0.21589991
000370 3e fc df 3d 6b e4 24 3d 00 aa d1 bc 27 e3 b9 3d
       0.10936783 0.0402569 -0.025593758 0.09076529
000380 e7 07 10 3e 9c aa 2e be f3 00 b0 bd 6b 3b 7c 3e
       0.14065515 -0.1705727 -0.08593931 0.24632041
000390 d8 13 27 be 5c 29 ca bd cb 0a 87 be 6d fc 5e bd
       -0.16316164 -0.0987117 -0.26375422 -0.05443995
0003a0 2a 99 9f bd 15 95 08 be e5 7b 2d be d2 41 25 be
       -0.077928856 -0.1333812 -0.16941793 -0.1613839
0003b0 e5 7c c4 3d cd de 19 3e e5 d6 29 be 93 46 ad 3d
       0.09594134 0.15026398 -0.16585882 0.084607266
0003c0 3e 3f 61 3d 28 0d 3f bd 47 09 bb bd 6f d3 17 3e
       0.054991953 -0.046643406 -0.09132629 0.1482675
0003d0 e4 49 06 be 0d 55 9d 3d cc 3b a0 3d 3e 1f 94 bd
       -0.13114125 0.07682238 0.07823905 -0.072325215
0003e0 3d c6 ec 3c b5 d4 38 bc ca 8f 09 3d 78 e4 42 3e
       0.028903121 -0.011281182 0.033584394 0.19032466
0003f0 ac ab 2b bb d8 6c a4 bc 7e 9f 8d bd 50 1b 56 be
       -0.0026194854 -0.020071432 -0.06915186 -0.20908856

net.4.bias f4 [64]
000000 ed 9a f2 bd 94 f3 9e 3d 1b 38 49 3d ca 53 c9 3c
       -0.11845956 0.077613026 0.049125772 0.024576087
000010 a3 17 a2 3d 94 b9 86 3d 46 52 00 3e 27 f0 9d 3d
       0.079146646 0.06578365 0.12531385 0.07711821
000020 0c 97 4c bd f2 e5 f0 3b 8c 48 f7 3d 0a 97 04 be
       -0.049948737 0.0073516304 0.12074384 -0.12948242
000030 61 60 98 3d 27 5b 8b 3d 8d 31 1a 3e 05 f0 08 3d
       0.07440258 0.06804495 0.15057965 0.033432025
000040 c4 f3 e7 3d ca 45 c8 3d fb 55 19 3d 6d 04 8c 3c
       0.113257915 0.09778936 0.037435513 0.017091954
000050 8c 57 19 3d fb fe 02 be 2f 86 a9 bd e6 34 11 3e
       0.037437007 -0.1279258 -0.082775466 0.14180335
000060 29 53 88 bd d5 9b 50 bd 34 ba 24 be 30 4b 23 bd
       -0.066564865 -0.050929863 -0.16086656 -0.039866626
000070 f5 0b 2a be 56 4d 01 be 23 bf 07 bd dc 02 f2 bd
       -0.16606124 -0.12627158 -0.033141267 -0.11816952
000080 c8 7f 00 bd 10 a1 01 3e 46 7f 1e 3e 3f 34 82 bd
       -0.03137186 0.12659097 0.15478238 -0.063576214
000090 ca 92 b3 bd 1d f5 4b 3e 73 73 bf 3c 1e 7b 94 bd
       -0.08768232 0.19917722 0.02337048 -0.07250045
0000a0 59 8e be bd c6 00 8e 3d 1a 09 56 bd 92 25 51 3e
       -0.093044944 0.06933741 -0.052254774 0.20424488
0000b0 59 77 b8 3c 43 d0 de 3d 24 ee 96 3d e7 c0 48 bd
       0.022517847 0.108795665 0.073696405 -0.04901209
0000c0 a5 62 94 3c 26 4d 1a be e7 f6 0c 3e 6b ad 07 3e
       0.018113444 -0.15068492 0.13766061 0.13249747
0000d0 e5 a3 6e bc fb bf 9f 3d 4b a8 57 bd 8b e9 b6 3d
       -0.014565443 0.07800289 -0.05265073 0.089312635
0000e0 c2 22 01 3e ff 16 b7 bd 48 ab c2 3c d7 e3 27 bc
       0.12610915 -0.08939933 0.023763314 -0.010247192
0000f0 c4 95 15 3e d0 44 4d 3c b3 b5 83 bd b0 26 33 be
       0.14607912 0.012528613 -0.06431141 -0.17495227

net.6.weight f4 [128, 64]
000000 a5 8e 94 3d 32 3c e0 bd 32 48 6b 3d ec 38 99 3b
       0.0725377 -0.10948981 0.057441898 0.004675975
000010 d9 3f d4 3d d1 d6 dc bd d2 f7 d0 3d 41 6a ec bd
       0.103637405 -0.107831605 0.10203518 -0.11543704
000020 78 cb a0 3d 30 1a c3 3b 1c 6b aa 3d af d1 5f 3d
       0.078513086 0.0059540495 0.08321211 0.05464333
000030 37 1d 8d bc 2e 80 03 be 7c fb 4f 3d 27 6e a2 bd
       -0.017225845 -0.12841865 0.050776944 -0.07931166
000040 0b 87 9c bd 3c 73 f0 bd f9 e6 9e 3d f2 d8 e5 3a
       -0.07642945 -0.11740729 0.07758898 0.0017535968
000050 00 92 b1 3c 84 b4 64 3d 1d 2d 5f bd 87 3a e0 bd
       0.021676064 0.055836216 -0.054486383 -0.10948663
000060 62 56 97 3d a0 0b bd 3d 2c 2b 04 bd a0 b6 2b 3d
       0.07389523 0.09230733 -0.032267734 0.04192221
000070 80 35 d6 3b 28 e6 2b bd b6 dd 37 3d 18 c2 07 be
       0.0065371394 -0.04196754 0.044889174 -0.13257635
000080 63 20 9a bd d3 93 8e bd 5a a4 ba bc 4c 54 e8 bd
       -0.075257085 -0.06961789 -0.022783447 -0.11344203
000090 e4 e7 87 bd b9 3d 3c 3d dd 40 3f 3b b3 a3 8b bd
       -0.066360265 0.0459573 0.0029182949 -0.068183325
0000a0 16 a9 fc 3d 8f 35 af bc c0 bc dd bb 3c cd af bc
       0.12336938 -0.021387843 -0.0067668855 -0.021460168
0000b0 4a 6d 24 3d ce fb 03 bd 53 f3 83 bd 7c 9e 62 3d
       0.04014329 -0.03222256 -0.06442895 0.055326924
0000c0 f2 06 50 bd 52 a4 80 bd b4 27 30 3d 8c 97 e5 bd
       -0.050787874 -0.062813416 0.043006614 -0.11210546
0000d0 47 90 24 bd 1c 9a 01 be 76 08 f6 bd 55 5e d5 bd
       -0.040176656 -0.12656444 -0.120133325 -0.10418383
0000e0 0b 0a f9 bd 4c 02 9e 3d ca bc d7 bd 5f 86 85 bd
       -0.12160119 0.07715282 -0.105340555 -0.0651977
0000f0 da 75 a1 bd 05 89 ee bc e8 97 d0 bc 00 10 85 3c
       -0.078838065 -0.02911807 -0.02546306 0.016242981
000100 fd f4 9b bd 43 cd de 3d c2 20 0b bd 8f e1 82 be
       -0.07615087 0.10878994 -0.033966787 -0.25562713
000110 e0 74 8f 3d 6b d1 cd bc 09 f1 fc bc ef 49 ae 3c
       0.07004714 -0.025124272 -0.030876653 0.021275489
000120 a7 45 dc 3d fb 41 2b 3d 87 e2 5a 3e 3c 8d 13 3e
       0.10755473 0.04181097 0.21375476 0.14409345
000130 57 96 96 be 06 9d 20 be 95 93 97 bd ac 09 d3 bd
       -0.29411575 -0.156849 -0.07401196 -0.10304579
000140 64 c7 1a bd 9e 76 29 be bd 23 9c be 62 dc c0 3c
       -0.03778781 -0.16549155 -0.30496016 0.023542587
000150 ff 34 c6 3c 18 ec e6 bd b0 45 06 3c 6c f0 ac bd
       0.024195192 -0.112755 0.008195326 -0.08444294
000160 63 5c da 3d 46 9a d7 3d fc 19 c8 3d c2 aa 4c be
       0.106621526 0.10527472 0.09770581 -0.19987014
000170 c5 cd 4a bd aa 6c d7 bd 00 8c 6f bd e9 89 99 3c
       -0.049512643 -0.10518773 -0.058483124 0.018742518
000180 5f b1 c6 3d ce 4c 6c be 9f 8c 48 3e 2d 21 3d 3e
       0.097017996 -0.23076174 0.19584893 0.18469687
000190 8e 4f 0a 3e f6 b0 bd 3c 28 d4 8d 3c e8 68 c1 bc
       0.1350691 0.02315567 0.017313078 -0.023609594
0001a0 02 4d dc 3d 49 2d 5d be 43 2c 90 bc bb 6d 86 3d
       0.107568756 -0.21599306 -0.01759923 0.06563898
0001b0 32 3c 5b 3d 3f c4 39 bd e6 52 05 3e 7a 78 6c bc
       0.053524204 -0.04535317 0.13019904 -0.014433021
0001c0 7f 6a 16 3e e0 94 f9 bc 2d 1c d5 3b 38 8b 1f be
       0.14689063 -0.030466497 0.006503603 -0.15580451
0001d0 e1 5a 64 3e 7a df 1b be bc a3 e5 3c 4c 5e 2f 3d
       0.22300293 -0.15221968 0.028032176 0.042814538
0001e0 ac 5f 31 bc 6e f2 8f 3d 35 8c 16 bd 85 1d af 3d
       -0.010826033 0.07028662 -0.036754806 0.08550552
0001f0 af ee 06 3d 41 92 08 bd 43 56 44 3e 8e 48 86 3d
       0.03294247 -0.033342604 0.19173531 0.065568075
000200 3b 4b 1c be f0 e7 5b bd c5 62 3b 3d 50 18 92 bb
       -0.15263073 -0.05368799 0.04574849 -0.0044584647
000210 2c 77 05 bd e3 ec cd 3d 0e 59 04 be 1f 68 74 3a
       -0.032584354 0.10054948 -0.12924597 0.00093233766
000220 95 d8 9a 3d 3e ef 3b 3c 9d df 04 3e 10 b0 66 3d
       0.07560841 0.011470614 0.12975927 0.05632025
000230 e2 b1 2a 3e 43 ca 55 3e 9a e8 21 3e 4b 3e 42 bd
       0.1666942 0.20877938 0.15811387 -0.04742269
000240 15 7d 70 3d 40 83 60 bd d5 b3 bf 3d 21 61 2e be
       0.058713038 -0.05481267 0.09360472 -0.17029239
000250 7d 16 96 bd 10 5c d3 bc 06 48 97 3d c8 0d 76 3d
       -0.07328508 -0.025800735 0.07386784 0.060071737
000260 73 a7 18 bd b8 b6 a2 bc d8 85 d5 bd c7 a0 8a 3d
       -0.037269067 -0.019862518 -0.10425919 0.06768947
000270 b9 c8 d4 bb 00 e6 a5 bb 00 7f b7 bc 7b 45 f2 bd
       -0.0064936546 -0.0050628185 -0.022399426 -0.118296586
000280 2d f5 9e bd af 3d 88 bd 68 7a 1a bd b3 54 ca 3d
       -0.07761607 -0.0665239 -0.037714392 0.09879436
000290 22 b2 72 3c d6 e7 0d 3e 7f ba 3f bd b8 95 9e 38
       0.014812978 0.1385797 -0.046808716 7.5619144e-05
0002a0 5c 0d 5d bd 67 3d e7 bd c9 a0 3e bd d7 02 77 bd
       -0.05396782 -0.112910084 -0.046540055 -0.060305443
0002b0 55 48 80 3d ad c7 b7 bc 0b f2 43 bd 2a ee 31 bd
       0.06263796 -0.02243408 -0.047838252 -0.04344002
0002c0 3f f6 34 be f8 ef 29 3d 76 d0 09 3e 97 3b 74 bd
       -0.1767206 0.041488618 0.13458428 -0.05962714
0002d0 cb 0b 10 3e c3 66 82 3c b1 2a 74 be 97 2e f3 3c
       0.14066999 0.015918141 -0.2384441 0.029685302
0002e0 d0 65 12 3e 70 41 1d bd 22 dc 44 3d d7 02 4b bf
       0.14296651 -0.038392484 0.048061498 -0.7930121
0002f0 52 cd 81 bd cb e1 7b bc a0 c1 32 be 1d b6 23 3d
       -0.0633799 -0.015373657 -0.17456675 0.0399686
000300 9e f5 92 bd ac c9 28 3c d3 e1 11 3e 21 11 e4 bd
       -0.07175754 0.010301989 0.14246301 -0.111360796
000310 b5 b0 1a 3c 96 8d cc 3d 9f 4a cf 3d 66 cb 93 3d
       0.009441544 0.09987943 0.10121655 0.072165295
000320 2c 9e ba 3c f5 1e 85 3c cb 8f f7 bc 38 88 f3 bc
       0.0227805 0.016250113 -0.030219933 -0.02972804
000330 b6 99 74 3d 27 99 06 3f 37 1f 02 3e 6f 7f fd 3d
       0.059716903 0.5257744 0.1270722 0.12377822
000340 35 77 09 3e 31 e3 a2 bd b8 43 76 3d e7 1a 27 be
       0.1342438 -0.079534896 0.060123175 -0.16318856
000350 a8 ea 31 bd 20 69 ea 3c 6e 27 01 3e 27 2d 27 bc
       -0.043436676 0.02861458 0.12612697 -0.010203636
000360 e3 7b 4c bd 06 05 ee bd a0 9c 84 bc 66 a7 fd 3d
       -0.049922835 -0.11622052 -0.016187966 0.12385444
000370 cf 10 5d bd d0 32 d8 bc 74 26 08 3d 2c 4c c9 bd
       -0.053971108 -0.026391417 0.033239797 -0.09828982
000380 1e f0 d4 bd d8 96 e1 3d 41 a7 a9 bd 47 1f fe 3c
       -0.10397361 0.11015099 -0.08283854 0.031020774
000390 f1 0a 5a bd 3f d6 a2 b8 ee a0 6e 3d 42 dc 34 be
       -0.05323309 -7.7646684e-05 0.058258943 -0.17662147
0003a0 40 3a 81 bb fb 81 34 be 6a d7 32 3d b4 a2 29 bd
       -0.0039437115 -0.17627709 0.043662466 -0.04141493
0003b0 de 42 25 3e 5d 84 41 3d 71 77 66 bd a8 83 8e 3d
       0.16138789 0.047245372 -0.056266252 0.06958705
0003c0 f5 d8 96 3c 1c 14 ca 3d 56 09 8b bc 6b 6b 14 bd
       0.018414 0.09867117 -0.016972225 -0.036235254
0003d0 fb 7e c0 3d b3 86 2a 3d ef 85 16 bd 6c c6 cc 3d
       0.093992196 0.041632365 -0.036748823 0.099987835
0003e0 3f c9 b3 3d ee 4f bc 3d eb 0e 00 be ae 87 81 be
       0.08778619 0.09194933 -0.12505691 -0.25298828
0003f0 89 06 1f 3e 10 8b a1 bd db 5a 34 be 5d ab ed bd
       0.15529837 -0.07887852 -0.17612784 -0.116049506

net.6.bias f4 [128]
000000 b1 50 bd 3d fa f9 17 be 71 e1 b1 bc 51 05 e6 3c
       0.09243906 -0.14841452 -0.021713944 0.028078707
000010 13 d0 dd 3d 32 7b 4d bd fb 97 74 bd 08 7f 41 bd
       0.10830703 -0.050166316 -0.059715252 -0.047240287
000020 ac 3d ba bc 58 eb e8 3c bd af cb 3d 00 4d d1 3d
       -0.022734486 0.028432533 0.09945629 0.10219765
000030 85 74 25 3d 85 9a 01 3d 26 15 b1 bd 97 6e 2c bd
       0.040394325 0.031641502 -0.08646612 -0.042097654
000040 a8 bc 12 bd 2e 2b 81 3c 2c e4 15 3e 56 d3 99 3d
       -0.035824448 0.01576766 0.14637822 0.07511012
000050 b9 01 08 3e a9 aa c0 bd f4 88 fc 3c d9 f2 2a 3d
       0.13281907 -0.09407551 0.030827023 0.041735504
000060 f0 2c 17 3d dc ff c9 bd 59 cf 94 bd 5b 4a 00 3e
       0.03690809 -0.098632544 -0.07266111 0.12528364
000070 a2 44 a2 3c 79 eb c3 bd 13 a1 88 bd 50 76 05 3d
       0.019808117 -0.09566397 -0.066713475 0.032583535
000080 5d be 97 3d f5 6b 47 bd 52 6f 27 3d eb 65 a9 bd
       0.07409356 -0.04868694 0.040877648 -0.082713924
000090 c8 d5 3e 3d f6 5d ab bd 2f a6 8b bd 44 79 cc 3d
       0.046590596 -0.08367531 -0.068188064 0.09984067
0000a0 1b 95 99 bd e9 a2 ac 3d 87 51 e4 3d 14 3b f7 3d
       -0.07499143 0.0842951 0.111483626 0.12071815
0000b0 f8 5b da 3c fa c4 be bd f9 2a 01 3e b4 d9 23 3c
       0.026655182 -0.09314914 0.12614049 0.010000635
0000c0 08 96 fb 3c 80 f8 c9 bc 76 dc 95 3d 23 88 f7 3d
       0.030711189 -0.024654627 0.0731744 0.12086513
0000d0 a6 74 83 3d 63 41 d7 3c 20 5a dc bb 5b 5e 9b bd
       0.06418733 0.026276296 -0.006724611 -0.07586356
0000e0 f4 a9 07 bd 82 89 37 bd 73 d0 02 3e ce 16 ee 3d
       -0.033121064 -0.044808872 0.1277483 0.116254434
0000f0 b3 c9 8d 3d 50 31 e5 bd 4c 2c e0 3d bc 9d 31 3d
       0.06923237 -0.11191046 0.10945949 0.043363318
000100 47 99 b7 bd bc ca af bd b7 7c 04 3e 90 e6 94 bd
       -0.08964782 -0.085835904 0.129382 -0.07270539
000110 6f 09 0f 3e ea 9b 2f bd d0 5f a7 bd 5e eb ff bd
       0.13968442 -0.0428733 -0.08172572 -0.124960646
000120 f4 a0 64 bd 31 63 00 3e 99 8a c5 3d a6 f7 9e 3c
       -0.05581756 0.12537839 0.09645576 0.019405197
000130 45 d6 0d bd 8d aa 41 bd bd de cb 3d 15 56 97 3d
       -0.03462817 -0.04728179 0.09954593 0.07389466
000140 6c d8 f5 3d ec 2c a6 3b a9 d8 3e 3c 20 b2 b4 3d
       0.1200417 0.005071273 0.0116483355 0.08823037
000150 6f d9 d6 bd 2f 86 13 3e 5d 19 e9 3d 34 42 ca 3d
       -0.10490691 0.14406656 0.11381791 0.098759085
000160 30 79 66 bd 64 ba 84 bd 0d 82 1f bd 58 24 58 bd
       -0.056267917 -0.06480864 -0.038942385 -0.052769035
000170 82 17 dc 3d 50 48 73 bc b7 63 81 bd 36 9a 58 3d
       0.10746671 -0.014848784 -0.06317847 0.052881442
000180 6a 85 52 3d cc e5 11 3d 50 13 d6 bd 34 4b 63 bd
       0.051396765 0.035619542 -0.10452902 -0.05549164
000190 a4 87 18 3e ae 34 e9 bd 73 e2 1d bc 84 fd 4c bd
       0.14895493 -0.11387001 -0.009636509 -0.05004646
0001a0 1e 24 08 3d 4c 3b d4 3d dc 5d c8 3d 0d 13 15 3e
       0.03323757 0.103628725 0.09783527 0.14558049
0001b0 33 e9 b0 3d 2c 50 b4 bd 64 06 eb 3d df 33 60 3c
       0.08638229 -0.08804354 0.11475828 0.013684242
0001c0 5c c4 f9 bc 9d b4 60 3d e1 b9 22 3d e9 36 04 3e
       -0.03048914 0.054859746 0.03972805 0.12911572
0001d0 77 de e3 3d e0 4e 8d 3d 9e a9 9b bd 5b 6c 40 3d
       0.11126416 0.0689981 -0.07600711 0.046978336
0001e0 17 7d 3d 3c 5e 6f a2 bc de 78 17 3d 97 ea aa bd
       0.011565468 -0.019828495 0.036980502 -0.08345526
0001f0 88 bf e4 3c df 16 17 be 29 84 eb 3d 09 09 49 3d
       0.02792336 -0.14754818 0.11499817 0.049080882

net.8.weight f4 [128, 128]
000000 f2 29 71 3d a1 cd cb 3d 6f 17 32 be 15 06 60 be
       0.058877893 0.0995133 -0.17391752 -0.2187732
000010 da 0d de bc eb 04 1c bd f4 69 52 be e7 d5 ce bc
       -0.027106214 -0.038090628 -0.2054823 -0.025248481
000020 26 0f ed 3c cb af 6c bd 45 55 f7 bc 6e 4d 5c bd
       0.028937887 -0.057784837 -0.030192027 -0.05378478
000030 75 d0 3f 3d 9d c2 5a 3d c0 d1 30 3c 0a cf 9d 3d
       0.04682966 0.053408254 0.010792196 0.07705505
000040 80 32 f1 bd 36 ee 64 3d e0 f2 25 3d 0b bd 4b bd
       -0.1177721 0.05589124 0.040514827 -0.049740832
000050 2d 94 3b 3c c2 30 3d 3d a9 c9 44 3e c8 be fe 3d
       0.011448902 0.046189077 0.19217552 0.124387324
000060 3d 96 06 3e 42 06 10 3d bf 8d 03 3e 55 20 6c bd
       0.13143249 0.035162218 0.1284704 -0.05764802
000070 f5 13 0c be 81 fd ce bc e7 9f bd bd 8d bf 6b 3d
       -0.13679488 -0.025267364 -0.092590146 0.057555724
000080 2e b3 47 bd 3b 03 b6 bd 05 b7 b7 be 7e c0 15 bd
       -0.048754863 -0.08887335 -0.3588182 -0.036560528
000090 7d f0 e2 3d 83 41 f1 bc 35 3c 9d 3c a1 f7 dd 3d
       0.11081026 -0.029450184 0.019193748 0.10838247
0000a0 95 62 15 be 8b 30 e3 3c 14 84 bc 3d 5b 0e df 3d
       -0.14588387 0.027733108 0.092048794 0.1089141
0000b0 ca 9b 10 3d 68 1f 44 be 32 57 e7 3d c7 3f d1 bc
       0.035304822 -0.19152606 0.11295928 -0.025543107
0000c0 e8 e2 96 bd 02 ae 84 bc 39 2d 40 3b 7b fb fc 3d
       -0.07367498 -0.016196255 0.002932383 0.123526536
0000d0 4b b1 12 bd a0 69 12 be 42 be 4e 3d d1 f7 40 be
       -0.03581361 -0.14298105 0.050474413 -0.18844534
0000e0 66 2a 7d bc e4 02 3d bc c3 aa 58 3d 9d a7 19 3d
       -0.015452003 -0.011536334 0.052897226 0.037513364
0000f0 bb e3 05 3e aa 77 8c 3d 9d 91 5d 3d 2e 70 71 3d
       0.13075154 0.068587616 0.054093946 0.058944874
000100 91 d2 30 bd a4 a0 d5 bd 32 45 58 bd 7f 42 aa bd
       -0.04316956 -0.104310304 -0.052800365 -0.083134644
000110 54 41 95 3d 38 0f 62 bd 11 11 7f 39 c6 19 0e 3d
       0.07287851 -0.055190295 0.00024325053 0.03469255
000120 15 a9 37 3c 58 ab de 3d 49 09 c1 bd 09 19 9f bd
       0.011209746 0.10872525 -0.09425599 -0.07768447
000130 f9 32 a9 3d e4 a1 10 3d 76 74 e8 3c 00 db 39 bd
       0.082616754 0.03531064 0.028375845 -0.04537487
000140 a1 d3 01 3e 92 fe 17 bd 2f 87 8b bc b4 4f cc bb
       0.12678386 -0.03710801 -0.017032234 -0.0062350873
000150 5a 80 3f 3d 0b 80 48 bc 33 89 0d be 0b 1a 62 3d
       0.046753265 -0.012237559 -0.13821869 0.055200618
000160 2c 30 81 3d b2 ce 6c bd 10 11 8f bd ce 54 12 3e
       0.06308016 -0.057814308 -0.06985676 0.14290163
000170 9b ad 9f bb b0 fd 17 3d 89 a6 43 be 28 03 0f bb
       -0.0048729903 0.03710717 -0.19106497 -0.002182195
000180 25 bb 8c 3d 74 ab 5c bd 08 b3 13 3d fd dd 94 bd
       0.068716325 -0.053874448 0.03605941 -0.072689034
000190 82 9f 83 3c 18 29 8a bd 99 11 d1 3c 10 b8 d8 bc
       0.01606727 -0.06746119 0.025521087 -0.026454955
0001a0 49 48 c9 ba 3f cf d8 3d f1 2e b7 bc 40 3f 1c 3e
       -0.0015356626 0.10586404 -0.02236125 0.15258503
0001b0 07 2d e3 bd ae 17 66 bd 6b ea ee 3d b6 a2 97 3d
       -0.11092573 -0.056174926 0.116658054 0.074040815
0001c0 0a 77 7d bc 21 e7 c0 3c 0c eb 00 be 18 e0 b9 bc
       -0.015470276 0.02354771 -0.12589663 -0.022689864
0001d0 e4 e7 a4 be b5 dc 35 3e 4b 27 4d bb 1f f1 ff 3d
       -0.32208169 0.17759974 -0.0031303938 0.12497162
0001e0 e8 05 91 3d 56 3b 01 3e e5 25 23 bd e3 6e 09 3d
       0.07081205 0.12620291 -0.03983106 0.033553015
0001f0 ad 29 88 3d c2 99 aa 3d 06 d4 32 3d e8 8b 3c bc
       0.06648574 0.08330108 0.043659233 -0.011507966
000200 cd 33 70 bd f2 6c cd bd 57 60 3b bd b7 6d b5 bd
       -0.05864315 -0.10030545 -0.045746174 -0.08858817
000210 58 ee 18 3c 05 a7 8c 3d 86 c1 0f bc 08 22 65 bd
       0.009334169 0.06867794 -0.008774167 -0.055940658
000220 eb de b4 bd 30 fc 5e bd c9 d7 b8 3c dd db bf bc
       -0.08831581 -0.054439723 0.022563832 -0.023420269
000230 8d f2 15 3d 2e 52 79 3d 63 a2 04 3a 14 f3 98 3a
       0.036608268 0.06086939 0.0005059598 0.0011669123
000240 55 1c c7 3d c4 14 62 bd eb 0d c7 3b 54 cb 93 bd
       0.09722201 -0.055195585 0.006074657 -0.07216516
000250 3c 1c f9 3c 53 1a af bd 44 49 06 3e a3 ae 0e 3e
       0.030408971 -0.08549943 0.13113886 0.13933806
000260 eb 76 2d 3d 0e 3e 68 3d d0 e0 c0 bc 15 62 87 bd
       0.042349737 0.056699805 -0.023544699 -0.066105045
000270 a3 d0 6a bd 88 bf 25 3b ac b5 8f 3a ac 9e b5 bc
       -0.057327878 0.0025291163 0.0010964177 -0.022170387
000280 3f 18 4b bd 67 a4 8c bd db bd 4b 3d 5d 25 9b 3d
       -0.04958367 -0.06867295 0.049741607 0.07575486
000290 58 fc 07 3e 1b b9 b3 bd 96 5e ff 3c ff a2 77 bd
       0.13279855 -0.087755404 0.031173032 -0.06045818
0002a0 f7 c5 3a 3d 3d 33 a8 3d a6 5a 06 3e ba e2 20 3d
       0.04559895 0.08212898 0.13120517 0.039278723
0002b0 87 ec 52 3d dc 29 a3 bd bb 96 21 bd 9b 53 88 3d
       0.0514951 -0.079669684 -0.03945039 0.066565715
0002c0 4a 90 73 bd 47 0a 78 3d b7 ef 96 3b dc 81 8c 3d
       -0.059463777 0.060556676 0.004606213 0.06860706
0002d0 0d 7b e1 bb 32 c9 8b bd 1d 1a 27 3d 38 76 8f bd
       -0.006881124 -0.06825484 0.040796388 -0.0700497
0002e0 ae 51 1c be 34 d1 78 bd a5 0f 5d 3d f3 2e b4 bd
       -0.15265533 -0.060746387 0.053969998 -0.08798017
0002f0 51 5e 43 bd 74 19 89 bd 8c 71 c1 3c 17 8f 74 bd
       -0.04769737 -0.06694308 0.023613714 -0.059706774
000300 0b 03 27 3d ee cf 84 bc 6a bf fc 3c 46 f6 82 bd
       0.040774386 -0.01621243 0.030852992 -0.06394629
000310 51 52 c5 3d 86 d9 91 3b 9d a2 8f bb 5a a7 9c bd
       0.09634841 0.0044509796 -0.0043833987 -0.07649107
000320 95 4b e7 bc cf aa 64 bd 61 b1 35 3d 3e 83 80 3c
       -0.028234283 -0.05582696 0.044358615 0.015687581
000330 51 5f 12 be bf 3b e9 3c 67 d5 69 bd 49 f9 3b bd
       -0.14294173 0.028470872 -0.057088282 -0.045892034
000340 84 6b b9 3c c0 c5 17 bd 4e ca 24 bd a1 08 75 bd
       0.022634275 -0.037053823 -0.040231995 -0.059822682
000350 ae 77 d4 bc 92 87 38 3d 33 7f aa bc 24 d3 ff bc
       -0.025935974 0.045051165 -0.020812606 -0.03122861
000360 4c 94 88 3d b3 37 fa bc f2 d5 c0 bc c2 d5 b3 3d
       0.066689104 -0.030544138 -0.023539517 0.087810054
000370 30 95 f6 3b 5e 0f af bd aa f0 36 be 89 70 11 3b
       0.0075251088 -0.08547853 -0.17865244 0.002219232
000380 dc d9 0a 3e f6 a2 51 bd d7 7a 9c bd 9d 79 dc 3c
       0.1355967 -0.051180802 -0.07640617 0.026913458
000390 2f c7 db bc 10 ed 91 3d 2d 72 2b 3d a8 5a ac 3d
       -0.026828377 0.07125294 0.041856933 0.08415729
0003a0 37 a2 f5 3b b5 54 f3 3d a1 fe 83 bc a1 5c db bc
       0.007496144 0.11881391 -0.016112627 -0.026777567
0003b0 6f 32 79 3c af 6d e1 3c c6 92 16 bc 74 7e 3b 3c
       0.015209778 0.027518122 -0.009190267 0.011443723
0003c0 f3 98 28 3d f4 74 57 3d 0d 46 4d bd 49 03 42 bb
       0.04116149 0.05260177 -0.050115634 -0.002960401
0003d0 96 e1 86 be 58 19 96 bd 96 43 43 3d 92 5b 7a bd
       -0.26343983 -0.07329053 0.047671877 -0.061122485
0003e0 97 96 94 3c c1 3b c9 3d 84 66 08 3d 65 41 e2 3d
       0.018138213 0.0982585 0.03330089 0.11047629
0003f0 99 8e c9 bd 4a ab 8b 3d ec 22 bb 3d e9 8f b8 bc
       -0.098416515 0.0681978 0.0913752 -0.02252956

net.8.bias f4 [128]
000000 fc d2 10 3d 7b bf 05 3d cc 13 a2 3d 8b 95 47 bb
       0.03535746 0.032653313 0.07913932 -0.0030454125
000010 ea 72 d6 3c 72 3a f2 3d c3 3a 3c 3d 7b 31 15 bc
       0.026177842 0.11827554 0.045954477 -0.009106035
000020 92 cc 34 3d b5 75 d8 3d 42 13 6e bd 6b 42 d2 3d
       0.044140406 0.10569326 -0.058123834 0.102665745
000030 2d 65 d7 bc e5 30 87 3d b5 f6 d6 3d 95 aa a7 3d
       -0.026293362 0.06601123 0.104962744 0.08186833
000040 80 48 0b 3d 32 95 bc 3d d7 b9 16 3d 47 e7 04 3e
       0.03400469 0.09208144 0.036798324 0.1297885
000050 ad 22 76 3d 39 b9 da 3b 8f a8 fc bc 2d dc b2 bc
       0.060091663 0.0066749123 -0.030842094 -0.021833504
000060 a9 52 4d 3d 2b 00 0a 3c b2 8c 91 bc e3 18 7d 3b
       0.05012766 0.008422892 -0.017767284 0.003861957
000070 8b be 09 3e a6 90 84 3d 8c 3b f2 3c ea 77 d3 bc
       0.13451593 0.06472902 0.02956941 -0.025814015
000080 e7 9c 12 bd c8 84 52 bd 8d 4f b7 bd a0 6b 88 3d
       -0.035794165 -0.05139616 -0.0895072 0.06661153
000090 29 2c 19 be e7 8f ba 3c 65 23 dd 3c 18 4d 84 3d
       -0.14958252 0.022773696 0.026994416 0.06460017
0000a0 05 85 e2 3d 66 5a b2 3d 9e 5e e6 bb 82 7d bd 3d
       0.11060528 0.087086484 -0.007030322 0.09252454
0000b0 74 49 6d bd eb 14 03 bd 73 2c e6 bd 2c 24 a3 3d
       -0.05793138 -0.03200237 -0.11238947 0.079658836
0000c0 1c 99 f9 3c bb c6 a5 bd 0d cd 3b bd 8a 67 88 bd
       0.030468516 -0.080945455 -0.04584985 -0.066603735
0000d0 14 b2 2b 3d 0a e2 d4 bd 68 ae 38 bd de bb b4 bc
       0.041917875 -0.10394676 -0.0450882 -0.022062238
0000e0 79 a8 d7 3c fb a0 6b bc d6 be 45 bd 8c 0f ba 3c
       0.026325451 -0.014381642 -0.0482777 0.022712491
0000f0 97 a2 6c bd 0c 80 68 bc 49 e4 5b 3d 5f 4a 8e 3d
       -0.057772245 -0.014190685 0.053684507 0.06947779
000100 20 cd 04 3d e3 f5 08 bd e2 a5 6e bd 6f dd f3 bc
       0.032422185 -0.03343762 -0.058263667 -0.029768674
000110 74 50 eb bd c4 6c ea 3d 72 1c bf b8 d1 48 44 bc
       -0.114899546 0.11446527 -9.112888e-05 -0.011980251
000120 9c f9 0d bd 43 8d b4 bd 01 6c b0 bd 58 e0 3c bd
       -0.034661874 -0.08816006 -0.0861435 -0.04611239
000130 57 11 68 bd 79 20 4d 3d 53 00 bb bd b2 d0 af bd
       -0.05665716 0.050079796 -0.09130921 -0.08584727
000140 a8 e0 f1 3d 98 db 9d 3c 24 d4 f1 3c e0 12 ea bd
       0.11810428 0.01926975 0.029520102 -0.11429381
000150 35 25 30 3a 28 bd 51 bd fe da 2f bd 3d 29 a9 bd
       0.00067194115 -0.051205784 -0.042933457 -0.08259819
000160 0a e1 ae bd ea e6 90 bd 45 90 aa bc 4e e9 e2 3d
       -0.085390165 -0.07075293 -0.020820746 0.110796556
000170 b6 ce d2 bd fc e5 1a be d9 e1 82 bd 10 bb eb 3d
       -0.10293333 -0.15126795 -0.06390733 0.11510289
000180 1d 2b 7f bc 21 5f 35 3c f4 c6 02 3d 7c 21 a0 bd
       -0.015574244 0.011070044 0.031928018 -0.07818887
000190 1d 3c 6b bd 94 a9 21 3d 72 2f ce 3d 29 5d 91 bd
       -0.057430375 0.039468363 0.10067643 -0.07097847
0001a0 44 af ec bb e2 da 5c 3d 8d e9 08 bd e4 0a a2 bc
       -0.0072230417 0.05391968 -0.033425856 -0.019780584
0001b0 95 ce e2 3d 1d ba d0 3c 87 c5 02 bc 46 2b e7 3d
       0.11074559 0.02547937 -0.0079816645 0.11287551
0001c0 d0 06 0e bc bb c2 37 3d 7d c6 e1 3d 7b 19 62 3c
       -0.008668616 0.044863444 0.11024187 0.01380002
0001d0 56 47 6b 3d 64 54 b2 bd 21 8e 3d bd 7c e8 31 bd
       0.057441078 -0.087075025 -0.046278123 -0.043434605
0001e0 29 ef 5a bc ad 8c 9a bd 68 2d 97 3b 6f ee 33 bd
       -0.013362684 -0.07546363 0.004613567 -0.04392856
0001f0 0e 12 86 bd 7d 6e 5d 3d 8c 54 b0 3d 0a 73 a1 3a
       -0.065464124 0.054060448 0.08609876 0.001231761

net.10.weight f4 [64, 128]
000000 b9 b8 10 bd d5 b1 9e bc e9 d9 95 bd df 3d 39 3d
       -0.035332415 -0.019371906 -0.07316954 0.04522502
000010 59 c3 cc bc 6d b5 83 3b 0a 44 9d 3c ee 3e ea bc
       -0.024995493 0.0040194304 0.019197483 -0.02859446
000020 fe a1 c9 3d 8f 51 9f 3d 32 7c 9d 3d 35 d6 f0 3d
       0.09845351 0.07779228 0.07689704 0.11759607
000030 40 ef dd ba 64 38 86 3d cf ae 65 bd aa 0a 5e 3d
       -0.0016932264 0.065537244 -0.056074914 0.05420939
000040 2c c4 b8 bc d3 b6 5b bd 43 66 ad bd e5 d9 89 3d
       -0.02255448 -0.05364115 -0.084667705 0.06731013
000050 18 8a 5a 3d 6c 89 24 3d 9f 1f a1 3d 65 9a 18 bb
       0.053354353 0.04017012 0.07867359 -0.0023285386
000060 8c ca b9 3d e0 aa a7 3d fd 4a 5f bd f8 40 ca 3d
       0.09071836 0.08186889 -0.054514874 0.09875673
000070 14 2f d7 bd e0 49 a0 3d da 1d 97 3c 52 1e b0 3d
       -0.10507026 0.078265905 0.018446852 0.08599533
000080 b5 3f 39 be 9a 73 b7 3d 01 ea 21 3d 1e e3 ad 3c
       -0.18090709 0.08957596 0.039529804 0.021226462
000090 3b 7f 3c 3d 2d fb fb 3d 17 1b 49 bd 43 9a 7b be
       0.046019774 0.12303767 -0.0490981 -0.24570565
0000a0 93 c8 41 3b 2e f6 b2 3c 77 ec ee 3d 92 b1 93 3d
       0.0029569014 0.021845903 0.11666196 0.07211603
0000b0 11 8b 67 bd ac 33 82 3d a1 1b 25 be d7 d7 37 3d
       -0.05652911 0.06357512 -0.16123821 0.044883575
0000c0 ce 48 c1 3d fd 0e 92 3c a4 f9 3b bd 1a 4b 05 bd
       0.094377145 0.017829413 -0.045892373 -0.032542326
0000d0 66 0a 12 bc b3 1f 2c 3b 0c 5d 81 3d 15 f3 28 bd
       -0.008913612 0.0026264011 0.063165754 -0.041247446
0000e0 44 81 b4 bb f4 db b2 bd d1 52 a5 ba f7 4b 06 3d
       -0.0055085737 -0.08733359 -0.0012613182 0.03278729
0000f0 da ab 11 bd b7 a9 0f 3d 30 5c ec 3d 69 1d e0 3d
       -0.03556428 0.035073962 0.11541021 0.109431095
000100 76 0b 1c bd 6c 89 91 3d 47 73 87 3d 2e 5e 3a bd
       -0.038096868 0.07106289 0.06613784 -0.045499973
000110 b0 18 65 3e e3 0d 41 3d ca 85 a3 3c c1 5d 53 bc
       0.22372699 0.047132384 0.019961257 -0.012900771
000120 82 6e a4 bc 99 21 33 3c 09 d2 81 3c c7 4f 2b 3c
       -0.020072225 0.010933303 0.015847223 0.010456032
000130 7d 1e 44 3d be b0 5a bc eb 89 9b bc e9 50 2d 3d
       0.04788064 -0.013347803 -0.018986663 0.04231349
000140 76 1b 4c bd 69 ca 2c bd 99 e5 2a 3d 48 12 1a 3d
       -0.049830876 -0.04218522 0.041722868 0.03761509
000150 21 3c d0 3c b0 04 61 3c 18 84 b0 bd 41 66 9e bd
       0.025419297 0.013734028 -0.08618945 -0.07734347
000160 d5 1b 52 3d 31 6e 80 3c 06 07 ad bd 5e b0 ea 3d
       0.051296074 0.015677543 -0.08448605 0.114594206
000170 ff 91 8d bb 90 28 0c bd 32 1f 38 3d 0b 31 c7 3d
       -0.0043203826 -0.03421837 0.044951625 0.09726151
000180 98 fd aa 3c a2 3f cc 3c 14 7a 2e bd 68 e1 3f 3d
       0.020872876 0.024932686 -0.04259689 0.046845824
000190 0c 0e 23 3d 8d 05 4e bc 52 ff 75 3d 8a 7a 8c 3d
       0.039808318 -0.012574566 0.060057946 0.0685931
0001a0 04 a5 75 bd e0 79 29 3c 97 83 e9 bc a7 11 06 3d
       -0.059971824 0.010343999 -0.02850513 0.03273168
0001b0 50 2d af 3d ec ea 04 bd 4d 37 95 3c e0 f0 c5 3d
       0.085535645 -0.0324506 0.018214846 0.09665084
0001c0 26 91 52 3d 5c 8f dc 3d 4f 0c 1e bb be 01 eb 3d
       0.051407956 0.10769531 -0.0024116223 0.11474942
0001d0 73 9c aa bc a1 1d a7 3d 73 1a 1c bc 19 ac b7 3d
       -0.020826554 0.08159948 -0.00952779 0.08968372
0001e0 82 ca 90 3c 30 e9 8f bd fc d6 be bc 75 87 00 3d
       0.017674688 -0.07026899 -0.023295872 0.031379182
0001f0 f3 90 aa bd a1 36 93 3d d8 7d 8e bc dc 9e c7 3d
       -0.08328428 0.07188154 -0.017393991 0.09747097
000200 2b fc cd 3d d6 40 cd 3c db b9 a6 3c cb db 22 3d
       0.10057863 0.02505533 0.020352295 0.039760392
000210 61 64 d5 3d ef bc 55 bd 0f 34 94 bd 5f 90 01 3e
       0.104195364 -0.052182134 -0.07236492 0.1265273
000220 0c a7 c4 bd 3b b7 2a 3d 7e 1b 1f bd 54 77 a5 3d
       -0.09602174 0.04167865 -0.038844578 0.08079401
000230 02 a1 18 bc 54 4c 81 bd 5d 3f 2a bd f7 17 0d be
       -0.009315731 -0.063133866 -0.041564334 -0.13778673
000240 32 87 8e bd 16 b1 b8 3d 3f 18 50 be e7 a3 45 3c
       -0.0695938 0.090181515 -0.20321749 0.012063003
000250 01 e9 b1 bd 72 98 c6 3c 3f 43 32 bd 3b f8 9a bd
       -0.0868702 0.024242613 -0.043521162 -0.075668775
000260 15 9f f5 3c 0c 18 eb 3d 77 f5 9a 3d b7 32 94 bb
       0.029983083 0.11479196 0.0756635 -0.0045226472
000270 36 80 93 bb 2a 15 51 3c 39 ce 12 be 91 d9 1d bd
       -0.004501368 0.012761394 -0.1433648 -0.038537566
000280 85 c7 29 bd 9c 93 86 bd f0 88 9f bd 36 08 a9 bb
       -0.041450042 -0.06571123 -0.07789791 -0.0051584495
000290 be 5b 28 3e 10 c8 45 3d a8 38 df 3c 91 4f 95 bd
       0.16441247 0.048286498 0.027248695 -0.07290567
0002a0 96 33 af 3d b7 2e 7f bd 1d a6 a5 3d 62 07 ab 3d
       0.08554761 -0.06230041 0.08088324 0.083510175
0002b0 ac 75 5b 3c f3 f6 49 3c 9c 86 68 bb ff 9a 5f 3d
       0.013394754 0.012326944 -0.0035480624 0.054591175
0002c0 a9 ea df bc 84 93 3a 3c 12 6b 93 bd f3 8f 32 bd
       -0.027333574 0.0113877095 -0.071981564 -0.043594312
0002d0 b3 62 8c 3d 41 17 02 3e d7 50 97 3d 4a 75 56 3d
       0.06854763 0.12704183 0.07388466 0.05235795
0002e0 c6 77 88 3d 55 4d 41 bd fc 38 96 3d 6e a0 af 3d
       0.0666347 -0.04719289 0.07335088 0.085755214
0002f0 5c 6e 4b 3d 65 a8 71 3c d8 1f bc bc 82 ea 6d 3d
       0.049665794 0.014749621 -0.022964403 0.058084972
000300 fb 97 bb 3d 0a 25 02 3b f3 5c 82 3d 8a 0e a5 bd
       0.09159847 0.0019858503 0.06365385 -0.08059414
000310 1e 73 9d 3d 89 d0 ab bc b5 0a 99 bd 44 98 df 3b
       0.076879725 -0.02097346 -0.07472745 0.0068235714
000320 87 74 2b bd 67 16 93 bd a7 f5 f5 bc f3 4a fd bc
       -0.041859176 -0.07182007 -0.030024363 -0.030919528
000330 42 2f a0 3d ef c8 a7 bd 30 d9 8b 3b eb 56 6a 3d
       0.07821514 -0.08192622 0.004267834 0.057211798
000340 67 9a cf 3d 69 2d a4 3d 45 ec 09 bb 61 70 57 3e
       0.10136872 0.08016474 -0.0021045369 0.21038963
000350 07 d2 da 3d 0a 18 ab bc 94 b6 39 3d d5 8d 41 3d
       0.10684591 -0.020885486 0.045340136 0.047254402
000360 8a e8 24 3d 1e 30 79 bd c8 35 6e 3d ee 96 02 3d
       0.04026083 -0.060836904 0.05815676 0.03188222
000370 1f 79 51 3e fd 41 20 3e 1c 93 ae bd e0 9b 2f bd
       0.2045636 0.15650173 -0.08524153 -0.042873263
000380 7a f0 3e 3d cd c5 34 bc 4e 86 bf bd cb e9 a9 3d
       0.046616055 -0.0110334875 -0.093517885 0.082965456
000390 e8 fc a3 bd 31 76 76 3d be 16 69 bd 1b 99 37 bd
       -0.080072224 0.06017131 -0.056906454 -0.044823747
0003a0 be 99 82 3d fc be 8d bd ce 93 c5 b9 30 46 80 3c
       0.0637698 -0.06921193 -0.0003768489 0.015658468
0003b0 00 14 44 3c 01 c2 dc bc 01 e0 a3 bc 89 3d c4 3c
       0.011967659 -0.026947977 -0.020004274 0.023955123
0003c0 0b 89 ad ba f0 3f 12 3b db 91 d4 3b e3 9d 8d 3d
       -0.0013239695 0.0022315942 0.006487114 0.0691488
0003d0 9a 0d 06 3e 14 9e 51 3c 06 a2 4d bc b0 6d 8b 3d
       0.13091126 0.012794036 -0.012550836 0.068080306
0003e0 60 50 bf bd ac 3b 53 bc 47 61 d2 bd 4d b1 6b 3d
       -0.09341502 -0.012892645 -0.102724604 0.057542134
0003f0 7b 31 d5 3d 6b 0a 29 3c b6 19 88 bd 04 35 8c 3d
       0.10409828 0.010317425 -0.06645529 0.068460494

net.10.bias f4 [64]
000000 78 e0 9e 3d 77 37 c2 bd ed 6d 2d bd 30 c9 85 bd
       0.07757658 -0.09483235 -0.04234116 -0.06532514
000010 32 f3 a6 3d b3 1b 16 bd 23 84 a5 bd 8d ff 4f 3d
       0.081518546 -0.03664751 -0.08081844 0.05078082
000020 a1 18 2f 3d 5e 65 4a 3d e5 03 dc 3d dd 88 91 3d
       0.042748097 0.049413078 0.1074293 0.07106183
000030 c5 ff b8 bd 1f 09 37 3d 5e e6 21 bd d4 74 32 3c
       -0.09033159 0.044686433 -0.039526336 0.010892112
000040 ca 63 de bd cd 25 8f bd 8c 09 a5 3d 6f f1 af 3c
       -0.10858877 -0.06989632 0.080584615 0.02147743
000050 23 3c a8 bd de f2 68 bd 93 b2 ab bd 1c 24 aa 3d
       -0.08214595 -0.05687224 -0.0838367 0.083076686
000060 d5 3c c5 bc af a0 03 bd 04 bb bf 3d 0d d0 96 3c
       -0.024076859 -0.03213566 0.09361842 0.018409753
000070 49 16 d1 3c 57 b2 b5 3c 2e f1 37 bd 0f 52 b7 3d
       0.025523322 0.022179766 -0.04490774 0.08951198
000080 76 a5 7b bb 2a ef 81 bd 07 32 57 3c 10 75 bd 3d
       -0.0038398183 -0.06344445 0.013134486 0.092508435
000090 de 7a ab 3d 28 17 96 bd a7 3b 80 bd 5e 8b 85 3d
       0.083730444 -0.073286355 -0.06261378 0.06520723
0000a0 bf ae 73 3d 61 1a 38 bd 86 0a 31 3d c9 f3 16 bc
       0.059492823 -0.044947032 0.043222927 -0.009213396
0000b0 5b c5 46 bc 7b 4d c2 bd 7c a2 15 bd 91 8f a9 3d
       -0.012132014 -0.094874345 -0.03653191 0.08279336
0000c0 45 00 d1 3d bd d5 17 3d 2e 5c 61 bd b6 a8 35 bd
       0.102051295 0.03706907 -0.05501955 -0.04435035
0000d0 2d c9 0d bc b1 7b 35 bd 89 59 9c bd dd 9b 5c bd
       -0.008653921 -0.044307414 -0.07634265 -0.05385958
0000e0 a6 67 9f 3d 60 ee b6 3d e6 11 29 3c 96 db 36 bd
       0.07783441 0.08932185 0.010319209 -0.044643007
0000f0 3c 4b a5 bd 8b 98 d9 3d d4 b7 39 bd d1 dc 6e bd
       -0.080709904 0.106247984 -0.045341328 -0.058316056
