XMFlib/PairProbML/models/mlp_a2p_100.pth (torch, 54382 bytes, 10 tensors)

net.0.weight f4 [128, 2]
000000 25 8c 4f 3c 75 34 fc bf f9 cd e1 3d 8f a7 5e 3d
       0.01266769 -1.9703509 0.11025614 0.054359015
000010 b8 6f b0 3b 81 16 a7 bf 3e b8 1c 3c 6b fd d0 3f
       0.0053844117 -1.3053743 0.009565411 1.6327337
000020 49 c8 80 3c 73 c8 ba 3f e8 2e 81 3c c7 2b 9d 3f
       0.015720503 1.4592422 0.015769437 1.2278985
000030 37 6a 81 3e 90 33 c0 bf 6e 69 e2 3d 25 cf fe 3e
       0.25276348 -1.5015736 0.11055265 0.49767414
000040 90 8b 2d 3d 95 f8 d7 bf 03 44 8e 3c 32 3c a6 bf
       0.042369425 -1.6872736 0.017366415 -1.298712
000050 fc 03 43 3e 3c 12 94 bf f7 6c 4d 3d 7a 9e 79 3f
       0.19044489 -1.1568065 0.050152745 0.9750744
000060 86 19 4f 3e b6 72 e5 bf 80 44 a4 3d 76 13 3a 3f
       0.2022458 -1.7925632 0.08020878 0.72685945
000070 6b d9 fb 3c 3e e3 2d c0 e9 90 93 3b 8b 8e a5 3f
       0.030743321 -2.7169948 0.0045033586 1.2934126
000080 9f 86 48 3c ce fe 8c 3f 42 15 15 3c db a0 75 bf
       0.012239127 1.101526 0.009099307 -0.9594857
000090 86 92 8d 3c 63 13 cb 3f dc 07 45 3e 5e f4 c3 bf
       0.017281782 1.5865291 0.1924128 -1.530895
0000a0 ec 38 25 bd 75 8f d1 3f 71 6a 1c 3c 03 b6 aa 3f
       -0.040337488 1.6371905 0.009546862 1.3336796
0000b0 a5 1d 54 ba cf 77 60 bf ff 02 79 bc 9b 5d b6 bf
       -0.00080915756 -0.87682813 -0.015198468 -1.4247316
0000c0 65 08 fd 3c 47 37 7f bf 8d d0 36 3c 5c f2 fa bf
       0.030887792 -0.9969372 0.011158121 -1.9605212
0000d0 71 ad 40 3e 0c 19 e3 3f 48 30 ad 3e 6c 19 46 3f
       0.18816163 1.7742019 0.33825898 0.7738254
0000e0 dd c7 69 3e cc bf 05 c0 0d a8 02 3e 7d 5b 44 c0
       0.22830148 -2.0898314 0.12759419 -3.068084
0000f0 8b a7 a6 3d 32 0d 72 3e c4 41 0f 3e 4e 4e 56 3e
       0.08137425 0.23637846 0.13989931 0.20928308
000100 1f 32 be 3e b1 cb ed bf cf f7 1b 3e 96 e6 6b 3f
       0.37147614 -1.8577787 0.1523125 0.9214872
000110 21 5f dd 3b d0 ec 9f 3e a3 12 76 3c 33 f3 13 c0
       0.006755725 0.3123536 0.015019092 -2.3117187
000120 77 b1 86 3e 67 3c b5 3f 5c d9 0f 3d 81 f3 b3 3f
       0.2630727 1.4159058 0.0351194 1.4058686
000130 05 6d 84 be e4 ce 05 bf 06 df 1b bf 1b 34 01 bf
       -0.25864425 -0.52268815 -0.6088718 -0.5047013
000140 f5 e5 61 3b 1f 20 55 3f 3f 7a 33 3b 8a 08 a6 bf
       0.003446934 0.8325214 0.0027386097 -1.2971356
000150 de 16 99 3c b5 27 92 3e eb 7c 7e 3b 19 7f a3 be
       0.018687662 0.2854592 0.003883178 -0.31932905
000160 15 74 e8 3e af f9 8a 3f 8c ac 19 bb da f5 ee bf
       0.45401064 1.0857447 -0.0023448793 -1.8668778
000170 e8 4c 4a 3d 27 41 cc 3f a5 19 8e 3e 0c 2b 94 3f
       0.04938975 1.5957383 0.2775394 1.1575637
000180 09 0f 8b 3e b6 8f af bf f6 f1 72 3d ac f3 cd 3f
       0.27159908 -1.3715732 0.059312783 1.6089988
000190 78 75 20 3c 9b b4 d5 3f ec dd 2c bd 28 ca fa bd
       0.009793632 1.6695741 -0.04220383 -0.122455895
0001a0 12 ea c9 3d f9 3c c7 bf 7c 64 59 3c 57 55 64 3b
       0.098590985 -1.5565482 0.013268586 0.0034840906
0001b0 a5 60 9c 3b 2f c9 be 3f 02 41 03 bf 68 fd 3e 3e
       0.004772263 1.4905146 -0.5127107 0.18651354
0001c0 3e e2 42 3c d0 f7 f3 3f 5b 9f 84 3d b0 9e 9b be
       0.011894761 1.9060001 0.06475707 -0.30394506
0001d0 45 8f 35 bf 42 24 be 3e 40 08 9a 3c 83 fa 05 c0
       -0.70921737 0.37137038 0.018802762 -2.093415
0001e0 32 b9 30 bf c6 2d 13 bf dd 53 c1 3b 2e fb 80 bf
       -0.69032586 -0.5749172 0.00589989 -1.0076654
0001f0 13 be 1b 3c 94 28 77 bf 7a 06 f8 bc 60 18 e3 bc
       0.009505766 -0.9654629 -0.030276526 -0.027721584
000200 ed 0a e7 3b 3c f5 8d be 75 2b d9 3c 4b 73 a4 3f
       0.007050863 -0.2772616 0.02650998 1.2847685
000210 56 cf 88 3b 8a 40 e4 bf 8c f2 03 bf 46 97 b0 3f
       0.004175107 -1.7832196 -0.5154197 1.3796165
000220 0f bd 1b 3c c5 d2 c8 3f 83 5a ea 3c 31 4b 54 3f
       0.009505524 1.5689322 0.028607612 0.82927233
000230 ea 84 67 3d bc d8 d9 be 97 5d 96 3c ce f5 c6 3f
       0.05652324 -0.42548168 0.018355174 1.5543764
000240 2a 01 7b 3c 77 05 1b c0 1f c9 f6 3d e2 aa b0 3f
       0.015320102 -2.4222085 0.120500796 1.3802149
000250 3e 7f 1b bd e4 ab 05 bf 38 43 16 3c d5 9d 7a bf
       -0.037963144 -0.5221541 0.0091713 -0.9789708
000260 77 50 16 bf 17 64 c3 be 11 fb 1c bf 30 ad 82 be
       -0.5871653 -0.381623 -0.61320597 -0.25522757
000270 7b b3 09 3d 16 f0 92 bf 8b 4e 88 3b 84 4a 73 bd
       0.03361843 -1.1479518 0.0041597537 -0.059397236
000280 cf fb e2 3c c8 61 97 3f 96 c5 e4 be 76 0c 35 3e
       0.027707962 1.1826715 -0.44681996 0.17680535
000290 85 7d ba be 6e cb 87 bf 79 cd af 3b c2 0e 87 bf
       -0.3642389 -1.0608957 0.0053650704 -1.0551379
0002a0 b7 e0 f0 3d f0 aa ff bf cb cb ba 3d 2f 66 88 3f
       0.11761611 -1.9974041 0.09120902 1.0656184
0002b0 ff 66 b9 bd 2d 42 94 be 01 6b b0 bd 01 9f a4 3f
       -0.09052848 -0.28956738 -0.086141594 1.2861024
0002c0 3e e9 60 3e 23 ec d9 bf 12 00 4e 3e 80 e9 87 3f
       0.21963975 -1.7025188 0.20117214 1.0618134
0002d0 88 7b 61 3c 56 63 c3 3f 64 dc f4 3c 5d 77 c3 3f
       0.013762362 1.526469 0.029890247 1.5270802
0002e0 2d 8a d0 3b 9c 9d ab be 4b 7e 19 3e 23 c2 d0 3f
       0.006364128 -0.33518684 0.14989583 1.6309246
0002f0 1c 00 07 bf 18 bf d9 3e b9 8f 1c bf 63 e2 63 be
       -0.5273454 0.42528605 -0.61156803 -0.22254328
000300 6c 7d 28 3c 4c ce 86 bf d3 9a 15 bf de ec 20 bf
       0.010283809 -1.0531707 -0.5843937 -0.6286143
000310 c4 90 f9 be 50 af cf bd 7c e4 20 3c 45 9d 84 bf
       -0.4874326 -0.1014086 0.0098201 -1.0360495
000320 65 92 67 3e 26 e8 cc bf c3 7d 98 3e b5 6e a0 3f
       0.22614439 -1.6008346 0.2978345 1.2533785
000330 05 19 01 bd a4 35 00 3f 2b d4 a4 be 97 29 87 3f
       -0.031518 0.5008185 -0.3219312 1.0559567
000340 cd 95 b0 3b 39 63 b5 be fa 73 00 3d f9 47 06 c0
       0.0053889514 -0.35427263 0.031360604 -2.0981429
000350 44 db e8 be 86 51 7b 3e 1e 8c b4 3d 27 2f 05 40
       -0.45479786 0.24542817 0.08815788 2.081003
000360 1c 6d 21 3d 1d c4 9b 3f 21 df 7d 3c 9c 9d d8 3f
       0.039410695 1.2169224 0.015495093 1.6923099
000370 e7 c8 4f 3e a4 92 04 c0 d7 36 81 3d e8 b9 81 bf
       0.20291482 -2.0714502 0.06309288 -1.0134859
000380 d3 29 9f be 25 1f a5 3f 06 a2 26 bf b3 b6 fe 3e
       -0.31086597 1.290013 -0.6509098 0.49748763
000390 4f a3 9d 3c 0a 97 18 c0 20 06 32 ba 46 47 bd 3f
       0.01924291 -2.3842187 -0.0006791074 1.4787376
0003a0 c0 f5 65 3e 4b 77 f1 bf 8f 0d fe bd e8 eb 17 bf
       0.22457027 -1.886453 -0.1240493 -0.5934434
0003b0 d1 00 8a 3c 20 0e aa bf ba b6 80 3c 45 08 12 c0
       0.016846092 -1.3285561 0.01571213 -2.2817547
0003c0 a0 97 a1 3c 4c 32 0a c0 7f 89 90 bc cd 86 99 3d
       0.01972562 -2.1593199 -0.017643688 0.07496414
0003d0 00 39 6d 3b 31 d0 f3 be 62 c0 26 3c fe 5a 80 bf
       0.0036197305 -0.47619775 0.010177704 -1.0027769
0003e0 b2 0b 7b 3d ba 1e 98 bf a3 b9 32 3d ae 6a d6 3e
       0.06129045 -1.1884377 0.04363407 0.41878265
0003f0 de e0 0f 3e 57 85 7b 3f 3d 6a d3 be 24 04 d9 bc
       0.14050624 0.98250335 -0.4129199 -0.026491232

net.0.bias f4 [128]
000000 9d 69 4d 3e 48 55 81 3f 22 eb 39 3d ce b6 40 bd
       0.2005982 1.0104151 0.045390256 -0.047049336
000010 19 88 49 bf 05 bf 1e bf cd 9d 3f 3f 07 73 9f be
       -0.78723294 -0.6201022 0.7485016 -0.31142446
000020 62 bd 1c 3f 12 a1 29 3f 4c b1 b9 3e f9 07 c3 bd
       0.61226475 0.662614 0.3626808 -0.09523005
000030 b7 7d 1b 3f 03 b0 c3 bf 45 72 80 bf f4 1d 28 bf
       0.607387 -1.528809 -1.0034872 -0.65670705
000040 dc 07 1a bf ed bc 77 3f 1b 52 31 3f 14 2f 5e 3f
       -0.6016824 0.9677265 0.6926591 0.86790586
000050 76 9d 79 3e 14 25 90 bd e2 5e af be f6 bf d1 be
       0.24376473 -0.07038322 -0.34252077 -0.40966767
000060 d3 46 02 3f 86 49 91 3d 10 7e e3 3e d1 e1 1a bf
       0.5088932 0.070941016 0.44432116 -0.6050082
000070 40 03 06 bf 1c ae 6d bf 4a 86 ed bf 71 92 bf bf
       -0.5234871 -0.92843795 -1.8556607 -1.4966565
000080 bd 18 1c 3e 96 af 2d bf 59 74 6d 3f fe a6 e4 3d
       0.15243812 -0.6784605 0.9275566 0.11164664
000090 22 4b 29 bf fe ff fb be 8e c8 27 bf 69 da bf be
       -0.6613027 -0.49218744 -0.655404 -0.3747132
0000a0 25 36 1a 3f 73 14 80 bf 97 b3 39 bf b9 8a af 3f
       0.6023887 -1.0006241 -0.7253966 1.371421
0000b0 69 ae 93 bf 45 b3 2f 3e 9e ad b1 bd 4b 26 37 bf
       -1.1537601 0.1715823 -0.08675693 -0.71542805
0000c0 ba a7 95 3e 3f 11 7d bf 2f fb e2 3d 06 1f 0f bf
       0.29229528 -0.9885444 0.11083066 -0.55906713
0000d0 4e b3 80 3f 0d 51 cf bf 55 92 9c 3d a3 95 90 be
       1.005472 -1.619661 0.07645098 -0.28239164
0000e0 6b 75 1a 3f 15 d0 a5 3f 6a 64 9e 3f c9 92 06 bf
       0.60335416 1.2954127 1.2374394 -0.52567726
0000f0 93 b5 20 ba 98 26 82 3f a4 cc e6 3e a0 e0 af bd
       -0.00061305723 1.0168028 0.45078003 -0.08587766
000100 cc 41 98 bf 87 cd 60 3e 2e 3d c9 be 85 a1 09 3f
       -1.189508 0.21953402 -0.3930449 0.53762084
000110 89 1d 01 3f aa 9c 79 3f c6 f1 17 3f f3 89 41 3d
       0.5043569 0.97504675 0.5935329 0.0472507
000120 4b 6c 5f bf fd 7e 25 bf b6 50 5f 3f 36 8f 85 3f
       -0.87274617 -0.64646894 0.8723253 1.043433
000130 82 43 b9 3f 1b 42 43 be 73 cb 34 3f b8 7e 65 bf
       1.4473727 -0.19068186 0.7062294 -0.8964648
000140 cd d4 9b bf ce 17 25 bf c5 f2 a8 3f 24 d0 a5 3f
       -1.2174317 -0.6448945 1.3199087 1.2954144
000150 64 35 0a 3f 51 1a 1d 3f 06 04 fa be c0 1a 0e 3f
       0.5398772 0.6136828 -0.48831195 0.5550957
000160 9a 86 b3 3e 70 5c c6 be 09 71 86 bd f7 7c 6a 3e
       0.3506363 -0.387424 -0.065645285 0.22899233
000170 4f e3 80 3f 77 1c 16 be 34 00 25 bf 81 09 e3 be
       1.0069369 -0.14659296 -0.64453435 -0.44343188
000180 40 ed 87 3f 85 5d 6f bd ef 75 24 bf 55 df 85 3f
       1.0619278 -0.058438797 -0.6424245 1.045878
000190 4b 94 cb 3d f6 27 8b bf 85 28 1e bf 9c d1 c8 3e
       0.09940394 -1.087157 -0.6178058 0.3922242
0001a0 79 38 93 3f 18 da d6 3e 05 f2 ae be 3e 4e 0a 3f
       1.1501609 0.41963267 -0.3416902 0.5402564
0001b0 c0 a8 f2 be 9c a2 c7 be d4 50 8d 3e 9e 6f 5a 3f
       -0.4739437 -0.3899125 0.2760073 0.85326564
0001c0 16 35 e0 3d c1 8c e9 3e 08 4e 83 be d0 64 81 3f
       0.10947625 0.456152 -0.2564547 1.010889
0001d0 3a 19 a2 3d 78 d4 d8 be 3d c6 26 3f f5 8b 20 be
       0.07914968 -0.423496 0.6514624 -0.1567839
0001e0 31 f3 76 bf 70 5d 2d 3f 29 7e 6b 3f 98 28 8e 3f
       -0.9646483 0.677207 0.9198938 1.1106138
0001f0 7b ae 8c 3f cd dc da bf 14 06 3a bd 59 65 9e be
       1.0990747 -1.7098633 -0.045415953 -0.30936697

net.2.weight f4 [72, 128]
000000 8c 24 87 bd 17 b7 dd 3c 60 72 8e 3d 2f f6 fc bc
       -0.06598768 0.027064843 0.06955409 -0.030879108
000010 01 e5 64 bc d4 36 fb 3b 34 dc 92 bd 83 72 4c 3d
       -0.013970614 0.007666448 -0.07170907 0.049913894
000020 b7 4e 23 3c 14 ec 3f 3d 4d ea 66 bc 9b c1 76 3d
       0.009967498 0.046856 -0.014093948 0.06024323
000030 5d 88 13 bd 55 c6 0f bd b8 90 9f 3d 1f 20 cb ba
       -0.036018718 -0.035101254 0.07791275 -0.0015497244
000040 f3 db 0b bd 8f 36 90 bc 4b 07 b3 bd 38 ac b3 bd
       -0.034145307 -0.01760414 -0.087416254 -0.087730825
000050 98 61 82 3d f8 4b c5 bd 4e 0e 07 3d 43 02 a9 bc
       0.06366271 -0.096336305 0.032972626 -0.020630961
000060 98 77 ce 3c 31 41 60 bd 8d fc a1 bc 69 61 0e bd
       0.025203511 -0.05474967 -0.019773746 -0.034760866
000070 91 71 b0 3d ec 74 25 bd a2 f7 6b 3d 17 8e c9 3c
       0.08615411 -0.04039471 0.057609208 0.024603887
000080 de 5d 9f bd d2 78 a0 bd df 90 3e bd f5 a1 85 bd
       -0.077815756 -0.07835545 -0.04652488 -0.065250315
000090 98 94 76 3c ef 01 6a 3d 4b fc b3 bd 45 14 94 bd
       0.015050076 0.05713075 -0.087883554 -0.072304286
0000a0 55 14 45 3c e6 17 c8 3c 5f b3 81 3d ac 1f c8 3c
       0.012028773 0.024425458 0.063330404 0.024429165
0000b0 47 92 88 bd 79 d8 94 bd e8 c3 02 bd 4e 94 99 bd
       -0.06668525 -0.072678514 -0.031925112 -0.0749899
0000c0 d5 26 bd 3c b5 46 8a bd 43 42 ca bd 14 13 93 3d
       0.023089806 -0.067517675 -0.0987592 0.07181373
0000d0 5b 2f a9 bd 1d e0 b0 3b 61 32 aa bc 8a 3c 54 3d
       -0.082609855 0.00539781 -0.020775976 0.051815547
0000e0 8d 0c f3 3c 7c d7 87 bd d8 05 65 3d b9 20 10 bd
       0.02966907 -0.06632897 0.055913776 -0.035187457
0000f0 59 63 22 3d 95 5e 79 bd 93 70 8e bd 1b 6c d5 3b
       0.039645527 -0.060881216 -0.069550656 0.0065131313
000100 6c 05 a7 3b 81 95 4a bd bd b5 ca 3c b8 86 9b 3d
       0.005097082 -0.049458984 0.024744863 0.07594055
000110 29 c2 74 3d d5 3a 9a bd 40 25 90 3c 05 6a c9 bb
       0.059755478 -0.075307526 0.017595887 -0.0061466717
000120 03 2c 77 bd e8 0e 74 bd e8 c8 79 3c f7 aa 8f 3d
       -0.060344707 -0.05958453 0.015245654 0.07015031
000130 9c dc ca 3c 9b 32 47 bd 59 88 12 3d 1b dd 54 3d
       0.024763398 -0.048632246 0.035774563 0.051968675
000140 3f 1a d3 3c ec eb a5 3d 80 cc 11 bd 82 64 07 bd
       0.025769351 0.08101639 -0.035595417 -0.033054836
000150 7a f3 b1 3d 59 cd ee 3c 56 ff 1f 3d d1 09 b7 bd
       0.086890176 0.029150652 0.039061867 -0.08937419
000160 3d 62 d3 3c fc 30 37 bd 40 58 93 3d b7 6d 98 3d
       0.02580368 -0.04472445 0.07194567 0.074428014
000170 9e 53 8f bd ed 48 ad bd 4a 64 76 3d f4 40 4c bd
       -0.069983706 -0.08461175 0.060154237 -0.04986663
000180 8d b6 85 3c 57 63 1b bd d0 62 12 3d 14 24 9e 3d
       0.016322399 -0.037936535 0.035738766 0.07721725
000190 95 95 92 bd 89 92 b1 3d 85 0a 67 bc e3 2e 22 3b
       -0.07157437 0.086705275 -0.014101629 0.0024747185
0001a0 1a c1 28 bd 93 16 28 bd 25 72 9a bd 5a 3b 0f bc
       -0.04119978 -0.041037153 -0.075413026 -0.008742178
0001b0 e7 5f 55 3d eb 5c 03 bd b0 09 7d bd 01 87 b3 bd
       0.052093413 -0.032071035 -0.061776817 -0.08765984
0001c0 68 cd 9c 3d b6 93 57 3d 00 16 a9 3d 8d c6 8b 3d
       0.07656366 0.052631103 0.08256149 0.0682498
0001d0 a4 d2 f2 bb af 8c aa 3d 05 38 15 3d 25 f1 c2 bc
       -0.007410364 0.083276145 0.036430378 -0.023796627
0001e0 7a 0c 15 3d 24 2b 9e bd 70 80 bd bd c2 96 34 3d
       0.03638885 -0.07723072 -0.09253013 0.044089086
0001f0 fd a1 0c bd 00 fa a5 3c 47 65 64 bd 61 63 d1 bb
       -0.03433417 0.02026081 -0.055760648 -0.0063900207
000200 3e ec 4a 3d af e5 9e 3d e3 94 85 3c a8 c1 83 bd
       0.049541704 0.077586524 0.016306346 -0.064334214
000210 43 37 1c bc 98 0e 35 bd 34 1f 49 bd 73 e1 6a 3d
       -0.00953466 -0.04420337 -0.049102023 0.05734391
000220 b8 d3 a6 3d 3e 04 fd ba ab b7 02 bd 16 06 82 bc
       0.08145851 -0.0019303632 -0.03191344 -0.015872043
000230 fa ab 82 bb 25 a9 d4 bc 17 14 36 3d e8 8d a2 bd
       -0.0039877864 -0.02595956 0.044452753 -0.07937223
000240 d9 fd 94 3c d9 0a 34 bd 85 a4 81 3d 8c 59 7e bd
       0.01818745 -0.043955658 0.06330208 -0.062097117
000250 72 63 7a 3d a4 c3 8f bd ad a9 a0 bd 1b 4a 81 bd
       0.061129995 -0.07019737 -0.07844863 -0.063129626
000260 b3 18 76 bd 23 3f a7 3d 8e 46 67 bd 87 f7 83 bb
       -0.06008215 0.08166339 -0.05646377 -0.0040273103
000270 34 0e a9 bd e1 68 23 bc ec af 05 3d 3d 78 96 3d
       -0.08254662 -0.009973736 0.032638475 0.073471524
000280 33 d9 3e bd 95 23 5a bd da f0 0a 3d 7e 2f 5a 3d
       -0.046593856 -0.05325659 0.0339211 0.05326795
000290 9b cf 17 3c 64 3b 6d 3d a7 3f af bd c4 4f 3a ba
       0.009265806 0.057917967 -0.085570626 -0.0007107223
0002a0 1a 3f 86 bc 7a a0 66 bd a7 9e 38 3d 3e 9e 68 bc
       -0.016387511 -0.056305386 0.045073178 -0.014197884
0002b0 97 d1 59 3d 74 ba 0e 3c cc 85 8f 3c b8 3a de bb
       0.053178396 0.008711446 0.017519854 -0.006781902
0002c0 c6 5b 25 3a 22 f7 d7 bc a7 ee bf 3c 64 03 ee ba
       0.0006307926 -0.02636296 0.023429228 -0.001815897
0002d0 42 31 ed bb f0 15 be 3c aa 6f 8b bd 46 74 9c bd
       -0.007238538 0.02320382 -0.068084076 -0.07639365
0002e0 64 8e b3 bc cd 51 17 bd 87 49 a1 3d 2f 9a 97 bd
       -0.021918483 -0.036943246 0.07875352 -0.07402455
0002f0 7b 22 9e bd 05 4b 91 3c 3d 59 81 3b d1 0d de 3b
       -0.077214204 0.017735967 0.0039474056 0.0067765494
000300 2c 45 2f bd 15 3e af bd 95 b8 0a bc 87 77 ae bd
       -0.042790577 -0.08556763 -0.008466859 -0.08518892
000310 df e0 a8 bd 8c b5 e2 bc 34 ac 54 3d bd 28 d8 3c
       -0.08246016 -0.027674459 0.05192204 0.026386613
000320 87 ff cf bb f1 c7 97 bd aa af d6 3c b5 4d 65 bb
       -0.0063476 -0.07411183 0.02620681 -0.0034988944
000330 c7 c7 b0 bc 18 c5 74 3d 76 e0 f4 3c 93 44 77 bd
       -0.021579636 0.059758276 0.029892188 -0.06036813
000340 51 86 a6 bd 7d 8a 14 3d 02 21 57 bd d3 14 41 bd
       -0.081310876 0.036264885 -0.052521713 -0.047139
000350 a0 7c 27 bc 5b 93 be bd cf 59 27 3d 3c ba ca bc
       -0.010222584 -0.093054496 0.040857133 -0.024747007
000360 20 bc fd bc ee 35 85 3d 39 9a f3 bc 58 dd 7c bd
       -0.030973494 0.06504427 -0.029736625 -0.061734527
000370 f1 a4 8c 3c 5c 70 a9 3d 5d ea c1 3c 28 ef 89 bd
       0.017168494 0.08273384 0.023671323 -0.067350686
000380 e9 ef b1 bb db 58 87 bd 2e ba d4 3a 9c 22 75 bd
       -0.005430211 -0.06608745 0.0016229802 -0.05984746
000390 ca 1c 14 3c c9 14 aa bd 9e ff d3 3c 9a a9 53 3c
       0.009040067 -0.08304746 0.025878724 0.012918854
0003a0 c8 15 67 bd da 36 e0 3c b0 6d 48 3d 85 0e 8b 3d
       -0.056417257 0.027369905 0.04893273 0.06789879
0003b0 de 39 a4 3d 31 e1 0f 3c 88 5f 88 bd ad bf 74 3d
       0.0801885 0.008781717 -0.06658846 0.05975311
0003c0 74 2c 72 3d cc 39 15 bd d5 93 7c bc bd 92 e3 3c
       0.059124425 -0.036432073 -0.015416105 0.027779931
0003d0 4b cd 8e bd e2 f0 fc bc 0f 1d 15 bd 91 3f 0c bd
       -0.0697275 -0.03087658 -0.036404666 -0.03424031
0003e0 46 d9 8f 3d b1 64 86 3d e9 d9 a7 3b db 2e 1b 3d
       0.070238635 0.06562174 0.0051224125 0.03788648
0003f0 3a 00 1d 3b 89 9b b3 3d 52 6b 22 bd b3 9d a1 bc
       0.0023956434 0.087699 -0.03965313 -0.019728517

net.2.bias f4 [72]
000000 e9 78 d4 3b 8f 8a 43 bd bd 9d 9e be 09 e3 a6 bd
       0.00648414 -0.04773956 -0.3097972 -0.08148772
000010 0f f0 fd 3e 25 2d c6 bc 2e 66 b7 bc 46 12 8b bb
       0.49597213 -0.024191448 -0.02238759 -0.0042441217
000020 8a e5 a5 be 71 19 b5 bd 8f 8f 06 bc b6 23 9c 3b
       -0.32401687 -0.08842743 -0.008212938 0.0047649993
000030 42 01 50 3d 0f 77 3b bc f8 99 b8 be 53 e6 46 bd
       0.05078245 -0.01144196 -0.3605497 -0.048559498
000040 34 43 fa bc 67 6c 5f 3e fb 70 1a be f8 e3 aa bc
       -0.030549623 0.21818696 -0.15082161 -0.020860657
000050 93 54 aa bd 58 cf c6 bd 24 e3 f9 3e 99 cd 87 3d
       -0.083169125 -0.097075164 0.48806107 0.066310115
000060 65 dd 97 3d 5a e4 25 bf 69 d8 f9 3e aa 45 52 bd
       0.074152745 -0.6480156 0.4879792 -0.051335968
000070 0b b3 26 bd df a5 85 3c 4b 09 a0 be a0 67 83 bd
       -0.040698092 0.016314445 -0.3125709 -0.06416249
000080 6d 82 75 3d 46 fa 02 3f 04 2e c4 3e fa 6b 07 bf
       0.059938837 0.51163137 0.38316357 -0.52899134
000090 98 ea f1 bc be d1 7f 3e 40 55 20 3d d2 a6 a3 ba
       -0.029530808 0.24982354 0.0391438 -0.0012485629
0000a0 60 66 04 bf 3f f3 34 be ce cd ff 3e 53 3d 0f 3d
       -0.5171871 -0.17670916 0.49961704 0.034970593
0000b0 49 7d 78 bd 2e 12 d6 bc 67 e5 22 3d da 2b e6 bb
       -0.060666356 -0.026131716 0.039769556 -0.0070242705
0000c0 cc a8 dd 3c b6 8d fd 3e 89 e1 f2 bd eb e8 45 be
       0.027058028 0.4952218 -0.11859424 -0.19327132
0000d0 ec 64 e9 3b 2e c5 3e 3f 38 fc 02 3c f3 a1 57 3d
       0.0071226265 0.7451962 0.007994704 0.05264468
0000e0 b7 4b 26 bb f2 09 ba bd 5a 43 a4 bd 4a 81 ee 3e
       -0.002537472 -0.09083928 -0.08020659 0.46583015
0000f0 6c 80 38 be 25 a8 1c 3d 32 62 17 3f 93 93 74 be
       -0.18017739 0.038246293 0.5913421 -0.2388442
000100 1a d1 73 be 62 2b 1b bf c3 8d e0 3d 0d 18 8d bd
       -0.23810235 -0.6061307 0.10964539 -0.06889353
000110 df f1 bb be fb 0e f4 3e 0e 89 48 3e 2f 25 61 bd
       -0.3670797 0.4766768 0.19583532 -0.0549671

net.4.weight f4 [36, 72]
000000 31 3f d1 3d b2 58 3a 3d e8 75 71 3e 31 40 b3 be
       0.10217131 0.045494743 0.23580134 -0.35009912
000010 7c 69 ef bc 43 fd fb bc 93 a1 0f be e9 62 da 3d
       -0.029225104 -0.030760413 -0.1402648 0.10663397
000020 bd 31 01 3c ec 18 98 bd d6 35 62 bd ef bd 09 bd
       0.007885394 -0.074266285 -0.055227123 -0.0336284
000030 6e 5e 22 bd 3d 35 6a 3e f7 d9 68 3d a4 06 64 bd
       -0.039640836 0.22871871 0.056848492 -0.055670395
000040 32 95 f9 bc 13 80 9d bd 7d 1d 0e 3d a8 50 47 3d
       -0.03046665 -0.07690444 0.03469609 0.048660904
000050 c0 47 cb 3d 41 fb 30 3d b7 8d f7 3c 31 67 f3 3d
       0.099257946 0.043208364 0.030218942 0.118849166
000060 d5 ee 9e 3d 7f 77 7b 3e 69 b0 87 3d 60 fe e6 3d
       0.07760397 0.24557303 0.066254444 0.11278987
000070 de c7 6f 3d 46 aa 81 be db ea 5e bd 00 fe 3e 3c
       0.058540218 -0.2532522 -0.054423194 0.011657238
000080 80 e4 d2 bd 2c 90 b2 bd a3 81 16 be ba 80 c3 3d
       -0.10297489 -0.08718905 -0.1469789 0.09546037
000090 0b 7d 9e bd 46 48 8f bd e4 eb b0 3c f9 8f 0e 3d
       -0.07738694 -0.06996207 0.021596856 0.03480527
0000a0 4f 50 31 3e 82 67 a8 3d a2 e8 91 be 4f 95 70 bd
       0.17315792 0.082228675 -0.28497797 -0.05873614
0000b0 e9 23 64 3d 0d 20 89 bd c2 6f 2d bd bd 81 2e 3d
       0.05569831 -0.06695566 -0.04234291 0.042604197
0000c0 bf 50 2d 3e 20 6e 8d 3c 19 01 29 bd a5 af 51 3e
       0.16925333 0.017264426 -0.041260812 0.2047716
0000d0 ec 51 83 3d 3f b9 0d 3e e3 29 cd bb 3b bb ab bd
       0.0641211 0.13840197 -0.006261097 -0.08385321
0000e0 dc 9b e3 bd 0a 5e 5b bd 3c ad 95 3d 40 f4 ff bd
       -0.11113712 -0.05355648 0.073084325 -0.12497759
0000f0 59 7a 9e bd 2f 0f 2b bd a5 26 92 bd 12 b5 05 3e
       -0.0773818 -0.041762527 -0.07136277 0.13057354
000100 b9 2e 7e bd f0 01 b1 3d a7 ae 3b 3e b8 85 81 bd
       -0.062056277 0.08642948 0.18328343 -0.06324333
000110 85 b9 20 3e 3c 38 21 bd ca 6d fc be e1 37 a9 bd
       0.1569577 -0.03936027 -0.49302512 -0.08262611
000120 17 67 70 3d 22 82 4a bd d5 f5 f0 bd 97 4d a7 3f
       0.058692064 -0.04944051 -0.11765639 1.3070554
000130 37 35 8c bc bc 2d 6a 3d 9e 18 ea bd 54 f1 57 3d
       -0.017115219 0.057172522 -0.114304766 0.052720383
000140 94 23 8b bf d5 40 d7 bd c5 ba ee 3c 88 d0 4e bd
       -1.0870233 -0.105104126 0.029141793 -0.05049184
000150 74 82 76 bb d6 49 f9 bd 70 ac f3 3c 0a d4 2f 3f
       -0.0037614377 -0.12172286 0.02974531 0.6868292
000160 8f 84 1f 3d 18 be a0 3d 58 dd 94 3b 66 b8 23 3c
       0.038944777 0.078487575 0.004542988 0.0099926945
000170 ac 04 b6 3e 47 03 88 bd 0f b7 7a be f9 d5 52 be
       0.3555044 -0.0664125 -0.24483894 -0.20589437
000180 8c f7 00 be 58 56 0c be b3 b8 19 be 38 cf 81 3d
       -0.12594432 -0.13704813 -0.15011863 0.06338352
000190 2a fc ef bd 96 48 7d 3f 54 2e f4 3c 19 c1 de 3d
       -0.11718018 0.9893888 0.029807247 0.10876674
0001a0 07 f5 c5 bd 07 1e 6d be 9d 0c c6 bc d5 35 56 bf
       -0.09665876 -0.23155986 -0.024175936 -0.8367589
0001b0 5f b3 ac 3d 6d 81 9b 3f 27 6d 16 bf c4 aa ed 3a
       0.0843265 1.2148873 -0.58760303 0.0018132557
0001c0 13 27 21 bf 57 c9 a8 3d a3 1d 12 bc 26 ab b9 3d
       -0.6295025 0.082415275 -0.008918199 0.09065847
0001d0 1e 15 bc bd 04 33 58 3c a3 3a 06 bd 65 18 de 3d
       -0.09183715 0.013195757 -0.032770764 0.10844497
0001e0 20 5b 06 be 58 d3 ef bd 2c 8f 5c 3d 28 e5 0e be
       -0.13120699 -0.117102325 0.053847477 -0.13954604
0001f0 c0 f4 93 bf bd 6d 4d be 48 b1 8d 3b 1e 39 94 3d
       -1.1559067 -0.20061393 0.004324112 0.07237457
000200 cc 61 ba 3d 1a db 75 ba 32 e6 6e 3d 24 69 f2 bd
       0.091006845 -0.0009378657 0.058325 -0.1183646
000210 75 9b ae 3e 55 ee 2b 3b 77 a9 bb bd 6d dd 48 3d
       0.3410298 0.0026234586 -0.09163182 0.049039293
000220 ab 02 d3 3f 9d 52 10 3d 30 b6 d6 bd c4 06 23 3a
       1.6485189 0.035235036 -0.10483968 0.00062189647
000230 64 b0 1e 3e d7 3e 26 be 11 39 ac bc dc 96 c1 3d
       0.15496975 -0.16234909 -0.021023305 0.09452602
000240 32 d0 0a 3d 39 04 d1 bd 2c 77 a3 bd b2 27 69 bd
       0.033889957 -0.102058835 -0.079817146 -0.056922622
000250 b0 38 ca bd 3f 6f 08 3d 57 6e de bd d0 f0 1a bc
       -0.098740935 0.033309218 -0.108608894 -0.009456828
000260 9b be f2 3c f7 ae 49 bd 5e 3a e9 bc a2 05 87 3d
       0.029631903 -0.049239125 -0.028470214 0.06592871
000270 c2 e7 1a 3d 10 a6 03 be 11 e2 6a bd 72 1d 5e bc
       0.037818678 -0.12856317 -0.0573445 -0.013556825
000280 e3 f4 96 3d a2 73 f4 bd d5 e8 94 3c 1e b0 8d bd
       0.07370927 -0.11936118 0.01817743 -0.06918357
000290 a2 9b 05 be 43 59 82 3d 0f ce 1c 3d 66 f9 82 3d
       -0.1304765 0.063646816 0.03828245 0.06395225
0002a0 aa 8b b6 bd cc 70 91 bd 97 0c f8 bc 88 b5 57 bd
       -0.089133576 -0.071015924 -0.03027944 -0.052663356
0002b0 cc 70 84 bc 9e e4 b9 3c 38 26 ad bd 92 e1 6d bd
       -0.016167067 0.022692021 -0.08454555 -0.05807645
0002c0 a1 85 69 bd b6 99 da bd 69 bf c5 3c a8 8f 04 be
       -0.057012204 -0.10673849 0.024139123 -0.12945426
0002d0 bf 03 e1 bd cb d9 94 bd b5 56 8b ba 17 f8 4e 3d
       -0.10987043 -0.07268103 -0.0010630699 0.050529566
0002e0 70 f1 e0 bd 4b 2d a2 bd a9 b5 08 bd e0 08 b6 3c
       -0.109835505 -0.07918795 -0.03337637 0.022221029
0002f0 00 fe 85 3d d4 aa 3d bd df 8f bb bd 09 d1 dd 3d
       0.06542587 -0.046305493 -0.091583006 0.10830886
000300 c3 40 b4 3b 7d 77 69 3d 4d 1f a9 3d 37 ba b7 3c
       0.0055008843 0.05699872 0.08257923 0.022427661
000310 62 54 ad 3d 89 4a ae bc ec ce b3 bd 52 cc c1 bc
       0.0846336 -0.021275776 -0.087797016 -0.023656998
000320 96 6f c7 bc 32 35 8f 3d 00 d8 ae 3b 7a c9 ab bd
       -0.0243452 0.06992568 0.005335808 -0.08388038
000330 ba 7e d2 bd 2b 0a d9 3d f9 7f e5 bd 34 39 08 3d
       -0.102780774 0.105976425 -0.112060495 0.03325768
000340 06 bd 02 be 2f cd 95 3d 82 06 f1 3b f0 c6 b8 3d
       -0.12767419 0.07314526 0.007355512 0.09022319
000350 45 7f 48 3d 5b b6 8d bc 43 c5 56 3b cb 52 d8 3d
       0.0489495 -0.017298868 0.0032771386 0.105626665
000360 7c 90 8a bb 49 ec b1 bd be d6 a2 3d 15 50 4d be
       -0.0042286497 -0.08687646 0.07951115 -0.2005008
000370 c2 0b 9a bc 0d 40 0a 3d 2b 46 c9 bc 57 a5 25 bd
       -0.018804435 0.03375249 -0.024569592 -0.040440883
000380 e3 a5 07 3d ae cc a7 3c d5 1c 94 3b cf 5a f4 3b
       0.033117186 0.020483341 0.0045200386 0.0074571143
000390 4c 22 ab bc 00 43 55 3e 67 a9 6d 3d a2 e9 25 3d
       -0.020890377 0.2082634 0.058022883 0.040506013
0003a0 ae 0c 94 bc 9e e3 86 bd ae bc da 3d 93 7c dd bd
       -0.018072452 -0.06586383 0.10680519 -0.10814776
0003b0 4b 23 f3 bd de 66 de bd 12 25 ae bd 55 0c 2a 3e
       -0.11871966 -0.10859464 -0.08503164 0.16606267
0003c0 c1 38 3d 3e 22 6e d6 3e a2 da e8 3b a2 a8 9e bd
       0.18478681 0.418809 0.007106141 -0.07747008
0003d0 95 e9 0c bd ee 81 4d 3d b9 e4 7d 3d d8 69 85 bd
       -0.03440245 0.05017274 0.061985705 -0.06514329
0003e0 0a eb df bc 7b ae 42 be e4 03 9a 3d 9e 2f 75 3e
       -0.027333755 -0.19011872 0.07520273 0.23943946
0003f0 62 1d e2 bc 2e 69 9e bd 51 d0 9d 3d e9 22 7a 3d
       -0.027601901 -0.07734905 0.07705749 0.06106845

net.4.bias f4 [36]
000000 1e 54 a8 bc fc c7 b5 be a3 31 03 be f4 53 cb be
       -0.020547923 -0.35504138 -0.12811904 -0.3971249
000010 90 bc b4 bd 3d b8 ad bd 9f 56 e2 3d cc 62 29 3f
       -0.08825028 -0.08482406 0.11051678 0.6616638
000020 4f 9f 37 bd 0b 33 7d bf b7 6d 8f bb ed 8d f4 3e
       -0.044829663 -0.9890601 -0.0043770927 0.4776453
000030 56 5c 48 3e 29 d4 56 3e 55 06 a2 3e c4 49 0f 3d
       0.19566473 0.2097937 0.31645456 0.034982458
000040 b6 a5 4a be a8 f1 68 be 89 cb bf be c7 23 02 3d
       -0.19789776 -0.22748435 -0.37459973 0.0317724
000050 dc 52 15 be 40 52 f2 be 83 6d a7 3e 1e 82 0c 3c
       -0.1458239 -0.47328377 0.32700738 0.008575944
000060 d2 cb 99 3e 76 a5 bd bd 5c 9c ae 3e cf 64 43 bd
       0.30038315 -0.09260075 0.34103668 -0.04770356
000070 2a de ae bc c9 f4 a7 be f2 0d 52 3d 1f f9 3d 3e
       -0.02134617 -0.32803944 0.05128283 0.18552063
000080 b5 0c e1 be e2 b6 02 3f 12 d9 26 be 1f 98 1b 3f
       -0.43955007 0.5106031 -0.16293743 0.60778993

net.6.weight f4 [8, 36]
000000 92 ef 81 be 94 8b 80 3e ef e4 26 bd 33 7c c3 3d
       -0.2537809 0.2510649 -0.04074567 0.095451735
000010 35 d6 16 3d ad 1c a8 bd c8 7a 0a 3d d7 e7 ec 3c
       0.036825377 -0.082085945 0.0338085 0.028919144
000020 a1 c7 5a bd 6c e3 ce be 34 91 bd 3d c7 a4 d9 be
       -0.053413037 -0.40407884 0.09256211 -0.42508528
000030 8c 1d 2d bd 30 f7 e8 bd b2 a3 f6 bd 81 14 eb 3d
       -0.042264506 -0.11375272 -0.12042941 0.1147852
000040 73 31 8f 3d b7 f0 0d bc 0e 3b 4a 3d 69 1b 2b 3d
       0.069918536 -0.008663348 0.049372725 0.041774187
000050 c3 b0 eb bd 93 77 62 bd 34 b4 95 be 4b 33 5a 3b
       -0.11508324 -0.055289816 -0.29239047 0.0033294733
000060 4f 43 1d be b0 31 da 3d 70 2f 89 bd ea ff bf bd
       -0.15357707 0.106540084 -0.06698501 -0.093749836
000070 d7 1d da 3b 56 88 28 be 41 89 29 3e 7c 5b 39 be
       0.006656389 -0.16458258 0.16556264 -0.18101305
000080 9c a4 b6 be 1b 18 16 3d 90 b0 15 3e 65 75 ab 3c
       -0.35672462 0.036644083 0.14618134 0.020930002
000090 32 49 36 3e 82 c2 3c be 7f 98 c7 3d e6 02 88 3d
       0.1780136 -0.18433574 0.09745883 0.06641178
0000a0 a1 8e a3 3d d5 f7 a0 bd 41 8a c3 bd b0 d5 fe 3d
       0.07986189 -0.0785977 -0.09547854 0.124431014
0000b0 6a c5 80 bd a4 01 b4 3f bd 5c 54 bd df 55 b1 be
       -0.06287654 1.4063001 -0.051846255 -0.34635827
0000c0 e7 02 0b 3d 88 bf 15 bf 10 56 17 be fc 6f 17 be
       0.033938315 -0.5849538 -0.14778924 -0.14788812
0000d0 d3 6e fc 3d a3 6d bd 3d 0d e0 82 be 0c 07 6f 3c
       0.123258255 0.09249427 -0.25561562 0.014589082
0000e0 fe c4 6c bd c2 e1 e7 bd f3 a4 e2 3d 23 92 3b 3e
       -0.057805054 -0.11322357 0.11066618 0.18317465
0000f0 34 67 22 bf bc d3 e9 bd 25 f1 c0 3d 95 f4 a6 bd
       -0.63438725 -0.11417338 0.09420995 -0.08152119
000100 db 65 e8 bc 6b f5 25 3e bf 69 06 be 3b 19 d8 3d
       -0.028368881 0.16206901 -0.13126276 0.10551687
000110 2d e2 93 3e bb 32 d5 3d 37 4d 19 bd d6 46 e8 3a
       0.28883496 0.10410067 -0.037427153 0.0017721306
000120 74 20 94 bd 99 48 12 3e f4 59 06 3e 7d 18 94 3d
       -0.072327524 0.14285506 0.13120252 0.07231233
000130 c3 b3 e6 bd c6 1f 0b be 12 a5 b1 bd 6a 20 ed bd
       -0.112647556 -0.1358634 -0.08674063 -0.11578448
000140 e0 1e ef 3d 43 35 e8 3d d3 b9 de 3d da ff 3c be
       0.11675811 0.11338284 0.10875287 -0.18456975
000150 4f 48 0e be f6 9a c2 3b 69 c1 d5 3d 54 5d 05 3e
       -0.13894771 0.005938883 0.10437281 0.13023883
000160 00 77 97 bd 22 8b 30 be 70 82 a8 bd 6f 0f 3a be
       -0.07395744 -0.17240575 -0.08228004 -0.1816995
000170 86 52 8f 3d a8 47 02 be 1a 05 0d 3d b4 28 c2 bd
       0.06998162 -0.12722647 0.034428693 -0.0948042
000180 e4 f9 51 bd 57 19 0f be d3 47 50 3c bb 6e 54 bd
       -0.051263705 -0.1397451 0.012712437 -0.051863413
000190 5e 23 a9 bd c6 34 0c bd 0e dc b6 3d 3d a5 47 bd
       -0.08258699 -0.034230016 0.08928691 -0.048741568
0001a0 07 50 89 bd 22 b3 41 be de cd 88 3c b4 fc c2 bd
       -0.06704717 -0.1891599 0.016699728 -0.095208555
0001b0 0c b6 8a 3e d0 21 1d be e9 3e c6 3d fb 2e 92 3e
       0.27092016 -0.1534493 0.09679968 0.28551468
0001c0 21 5d 23 bd 31 8a 16 be 5c 56 92 3e 51 36 81 3e
       -0.039883737 -0.14701153 0.28581512 0.25236753
0001d0 05 0a 13 be 95 db 35 bf a4 13 93 bd 00 4a 8b 3c
       -0.14359291 -0.7103818 -0.071814805 0.01700306
0001e0 7b f0 83 bc fd 27 82 bd 55 c4 66 3d 54 ba 0a 3e
       -0.016105881 -0.063552834 0.05633958 0.13547641
0001f0 f5 c0 a8 3b 56 1b 07 3f 14 04 a8 be 07 7b 98 3c
       0.0051499554 0.52776086 -0.3281561 0.018613352
000200 ff 11 e0 3d ab 91 10 bf 71 74 a7 3c b4 3f a8 3e
       0.109409325 -0.5647227 0.020441266 0.32861102
000210 9a ab 29 bd 36 7d 36 3d ea 79 8d 3d b2 bc b9 3d
       -0.041423418 0.044553004 0.06908019 0.09069194
000220 2f ff aa 3d 53 31 89 3c ac 32 26 3d 43 fe 66 3e
       0.08349454 0.016747152 0.04057567 0.2255793
000230 54 c9 8c be 6c 94 05 3e 28 b6 47 3d 7d a6 d4 3d
       -0.2749735 0.130449 0.048757702 0.103833176
000240 be 65 8c 3d 05 6c 89 be de c0 92 bd ba 28 19 3e
       0.06855343 -0.26840225 -0.07165693 0.14956942
000250 0a d6 f6 3d 18 f3 04 3e 32 de 39 3e 89 a0 b3 3d
       0.120525435 0.12983358 0.18151167 0.08770854
000260 d2 f8 46 bd f6 2d aa 3f 50 7e b2 3a 60 2e 43 be
       -0.048577137 1.3295276 0.0013617966 -0.1906066
000270 9f 3d 03 be 3d 2d 9e be 2d 9c c4 3d c0 7f 7f bd
       -0.12816475 -0.3089389 0.09600101 -0.06237769
000280 8d fa b7 bd d5 db 18 3e 22 ef 74 be 05 2c 26 be
       -0.08983336 0.1492761 -0.23919347 -0.1622773
000290 d9 f8 94 bd 5a fa 5b 3d a6 75 2c 3d 14 af 8a 3d
       -0.072740264 0.05370555 0.042104386 0.06771675
0002a0 c8 9c e4 be fb b2 de bd 13 d9 47 bb 5c c5 a9 bd
       -0.44650865 -0.108739816 -0.0030494377 -0.082895964
0002b0 2d 5e 45 3e 37 da f6 3d 5c 12 05 3e 57 33 44 3e
       0.19274206 0.1205334 0.12995285 0.1916021
0002c0 90 8f a1 3e e2 14 20 3e 1b 58 d2 3d 63 30 09 3c
       0.31554842 0.15632966 0.10270711 0.008373353
0002d0 de c5 18 3d ce 70 f0 3e a5 34 1e 3e f7 69 39 be
       0.037298076 0.46961063 0.1544977 -0.18106829
0002e0 7a a8 68 be e1 a4 be 3d 3f 06 76 3f 04 2b b5 3e
       -0.22720519 0.09308792 0.9610328 0.3538438
0002f0 23 d9 99 bc 91 f7 49 bf af f8 61 3d 91 be 97 3d
       -0.018780297 -0.7889338 0.055168804 0.074093945
000300 1e dd ca 3e b4 a5 a2 3e 4c 73 d4 3e ef 15 5d 3d
       0.39621824 0.31767046 0.41494215 0.053975996
000310 b3 3c 14 be 55 4e 7f bd 14 97 bd 3e 47 e0 0b 3e
       -0.1447628 -0.062330563 0.37029326 0.13659774
000320 27 36 a7 bb 5c fb 12 3f 25 3d df 3d fc 36 15 3e
       -0.005102891 0.57414794 0.10900334 0.14571756
000330 49 38 8b 3c e4 92 0f be 47 d0 af 3e 6a 16 db 3d
       0.016994612 -0.14020878 0.3433859 0.106976345
000340 3f 78 fb 3d 82 e6 9e 3e 3e c6 2f bd 62 7f 2a 3e
       0.122787945 0.31035239 -0.042913668 0.16650155
000350 33 81 ac 3d 7e ee 84 3e 39 12 89 be de a0 bb 3e
       0.0842308 0.25963205 -0.26771715 0.3664617
000360 16 28 61 bc 66 c4 6f 3f 20 68 9a bc 2a a5 26 be
       -0.013742467 0.93659055 -0.018848479 -0.16273943
000370 a8 80 a5 bd 5b a9 7e bd b4 55 9e 3f 21 21 97 3c
       -0.0808118 -0.06217323 1.2369905 0.018448414
000380 00 7a a2 bd da 77 01 bd 80 8b 44 bc be 9d 8e bd
       -0.07933426 -0.03160844 -0.01199615 -0.06963681
000390 56 38 04 3e d3 eb 66 3d 8e da 31 be ae 4f be 3d
       0.12912115 0.056377243 -0.17368528 0.092925414
0003a0 e7 1a 3a be 7f a9 1c 3d fb d2 68 3f 22 93 7b bd
       -0.18174325 0.03824758 0.9094693 -0.061419614
0003b0 96 82 27 3c fc eb 9a 3f 48 53 89 3c 8a 92 2a be
       0.010224005 1.2103267 0.016763344 -0.16657463
0003c0 da 28 19 3e 5b 92 12 bd 73 5c 2c be 16 1f 86 3d
       0.1495699 -0.035784107 -0.16832142 0.06548898
0003d0 21 55 e3 3c 80 74 22 3e eb 06 c5 bd 17 f0 06 be
       0.027750554 0.15864754 -0.0962046 -0.13177525
0003e0 7f 8c 14 be 66 b9 00 be c7 48 db bd ca 05 a0 bd
       -0.1450672 -0.12570724 -0.107072406 -0.07813604
0003f0 33 49 9d 3b d9 51 f7 3d eb f8 7d 3d 55 ea 11 bd
       0.004799986 0.12076158 0.062004965 -0.035623867

net.6.bias f4 [8]
000000 34 ee a0 bd 7b 34 df bd 13 a7 10 be 72 65 d8 3e
       -0.07857934 -0.10898682 -0.14126234 0.42264897
000010 bb 63 7e be f0 13 f7 3e 12 d6 13 be 02 e5 38 3d
       -0.24842732 0.482574 -0.1443713 0.045140274

net.8.weight f4 [3, 8]
000000 93 19 c8 3f b5 bd a2 3f 53 99 97 3e 64 0f cc be
       1.5632805 1.2714144 0.29609165 -0.39855492
000010 22 b5 fc bf 2d 70 fc 3e 2b 53 4a 3e 65 d1 78 3d
       -1.9742777 0.49304333 0.19758289 0.06074657
000020 a8 a7 ae 3c 6c 58 54 3e c2 cb 73 3e ba 33 30 3e
       0.02132018 0.20736855 0.23808196 0.17207232
000030 86 01 a7 3d 9c 76 5e b8 54 26 b6 3e 72 4d 8f 3e
       0.081545874 -5.3039388e-05 0.35576117 0.27988774
000040 5f 4e e1 3c 5e bd 88 be 07 78 3f 3e 48 1a 92 3e
       0.02750319 -0.26706976 0.1869813 0.28535676
000050 c1 ec 0d be ea 76 b0 3e 43 26 d1 3d d1 6f a9 bc
       -0.13859846 0.34465724 0.10212376 -0.020683201

net.8.bias f4 [3]
000000 57 8e 69 3e 1e d4 e1 be b8 56 e3 3e
       0.22808205 -0.44107145 0.444021
