XMFlib/PairProbML/models/mlp_a2p_100_2nn.pth (torch, 55098 bytes, 10 tensors)

net.0.weight f4 [128, 3]
0	0x3e85111f	0.25989625
1	0x3e277640	0.16353703
2	0xbfc01d2f	-1.5008906
3	0x3d8eb9c1	0.069690235
4	0x3c1e94c1	0.00967902
5	0x3faf6f55	1.3705851
6	0x3c7d9d5a	0.01547941
7	0xbc283cd9	-0.010268413
8	0xbfb9a13e	-1.4502332
9	0x3d2d3867	0.042290118
10	0xbc98eeb4	-0.01866851
11	0x3dca441b	0.09876271
12	0x3e659477	0.22419916
13	0xbedf0f42	-0.43566328
14	0xc0107f4f	-2.2577703
15	0x3d3cac7f	0.046062943
16	0x3d7c48bb	0.0615928
17	0xc01971fc	-2.397582
18	0xbeefeaea	-0.46858913
19	0x3f4b3649	0.7937971
20	0x3f842ec4	1.0326772
21	0x3d8387c0	0.06422377
22	0xbe335d1c	-0.17515987
23	0x40010cba	2.0164018
24	0xbe1ce174	-0.15320379
25	0x3ea5f1e3	0.32411107
26	0x3f73fae6	0.95304716
27	0xbc8d382f	-0.017238704
28	0xbf322394	-0.6958554
29	0x3e13a6ac	0.14419049
30	0xbc057bc1	-0.008147181
31	0x3ea43914	0.32074797
32	0x3fc3cdd7	1.5297192
33	0x3c32841f	0.010895758
34	0xbc3405cf	-0.010987713
35	0xbfd007d3	-1.6252388
36	0xbe47a2a1	-0.19495632
37	0xbe893275	-0.26796308
38	0xbd763c49	-0.060116086
39	0x3c5b2c1f	0.0133772185
40	0x3df8438b	0.12122258
41	0xbfd2145e	-1.6412466
42	0xbed4259a	-0.41434938
43	0xbec9d697	-0.39421532
44	0x3f1db1b2	0.61599267
45	0x3eb5b3a2	0.3548861
46	0xbdb310eb	-0.08743461
47	0x3fb69cd7	1.4266614
48	0xbf0a2031	-0.5395537
49	0xbdc73964	-0.09727743
50	0x3ebbfe60	0.3671751
51	0xbc1552d8	-0.00911399
52	0x3bb2dad6	0.005458216
53	0xbdff6416	-0.12470262
54	0xbe3e9f65	-0.18615492
55	0x3ed239bc	0.41059673
56	0x3dc70449	0.09717614
57	0x3d02b04c	0.03190641
58	0x3e31a971	0.17349793
59	0xbf9b33cf	-1.2125186
60	0xbea43d51	-0.3207803
61	0x3d83bb36	0.06432192
62	0x3e5797a3	0.21053939
63	0x3dcb9e5e	0.099423155
64	0xbe2d8251	-0.16944243
65	0xc023ade9	-2.5574896
66	0x3b99c9bd	0.0046932385
67	0x3da6a2bc	0.08136508
68	0x3fc7092e	1.5549676
69	0x3e630229	0.22168793
70	0xbe044e79	-0.1292056
71	0x3fb3e711	1.4054891
72	0x3c1d103a	0.009586388
73	0xbb92ab0d	-0.0044759572
74	0x3f4ca9a2	0.7994634
75	0x3ceefd60	0.029173553
76	0xbd97bc92	-0.07409014
77	0x3fc29a54	1.5203347
78	0xbe182f81	-0.14861871
79	0x3ebfa211	0.37428334
80	0x3e1b4107	0.15161525
81	0x3e08dc80	0.13365364
82	0xbe890d8e	-0.26768154
83	0xbfe47c03	-1.7850345
84	0xbeb884ee	-0.36038917
85	0x3f291bbc	0.66057944
86	0x3e98cc88	0.29843545
87	0xbee987ff	-0.4561157
88	0xbe41e24c	-0.18933982
89	0x3e9a2336	0.3010499
90	0xbcb599fa	-0.022168148
91	0xbd0ffad6	-0.035151325
92	0x3e887e3b	0.26658806
93	0xb9db0958	-0.00041777897
94	0x3e1eedb4	0.15520364
95	0xbfa0e6e3	-1.2570461
96	0xbc09aa93	-0.0084024845
97	0x3ea64c83	0.3248025
98	0x3fb48801	1.4104005
99	0x3ea687f1	0.3252559
100	0xbf20a11d	-0.6274584
101	0xbfebbef1	-1.8417646
102	0xbeb73e27	-0.35789606
103	0xbf02ab06	-0.5104221
104	0xbe382879	-0.17984189
105	0x3e0672fc	0.131298
106	0x3e5d0faf	0.21588014
107	0x3fcb5a57	1.5886945
108	0xbecf8615	-0.40531984
109	0x3f20ea9a	0.62857974
110	0x3f5a15f1	0.8518973
111	0x3c53cb13	0.012926835
112	0xbe48ba32	-0.19602278
113	0x3f7c2638	0.9849582
114	0xbcb1268c	-0.021624826
115	0x3d058f11	0.032607142
116	0x3f5d722f	0.86502355
117	0x3dd788d9	0.105241485
118	0xbe88b9aa	-0.2670415
119	0xbf5b3c45	-0.8563884
120	0xba897e48	-0.0010489905
121	0xbf2bc33b	-0.67094773
122	0xbe39acfd	-0.18132396
123	0xbd911a60	-0.07085109
124	0x3e1beccb	0.15227048
125	0xbf97f3df	-1.1871299
126	0xbe6814f0	-0.22664237
127	0x3f02a90c	0.51039195
128	0xbfc28f01	-1.5199891
129	0x3d9042d6	0.07043998
130	0xbdcc430d	-0.099737264
131	0xc00cd799	-2.200659
132	0xbe555bf0	-0.20835853
133	0x3eb4d017	0.3531501
134	0x3ed99dcf	0.4250321
135	0x3d9445f8	0.07239908
136	0xbe03a809	-0.12857069
137	0x3fd85812	1.6901877
138	0xbe8d6410	-0.27615404
139	0x3f0b7b33	0.5448486
140	0x3f82eafb	1.022796
141	0x3e149dba	0.14513293
142	0x3e20e6c5	0.15713032
143	0xc01ff8b8	-2.4995556
144	0x3d84120b	0.06448754
145	0xbe305824	-0.17221123
146	0x400345d2	2.0511365
147	0x3e0cb47f	0.13740729
148	0xbe9d109f	-0.30676743
149	0xbfd681f7	-1.6758412
150	0x3d223687	0.039602783
151	0xbc60031c	-0.013672616
152	0xc0278a45	-2.6178143
153	0xbe8f9374	-0.28042185
154	0xbe54497e	-0.2073116
155	0xbe006de5	-0.12541921
156	0x3e2ab14a	0.16669193
157	0xbd4d94c4	-0.050190702
158	0x3fcd48c2	1.6037829
159	0xbe4bfa6e	-0.1991975
160	0x3ed1e639	0.40995958
161	0xbfaf4aa8	-1.3694658
162	0xbe81a7a4	-0.25323212
163	0xbebfa426	-0.37429923
164	0xbdbc5c14	-0.0919725
165	0x3d7876bb	0.060660105
166	0x3e07dbd1	0.13267447
167	0xbfdcdc5c	-1.7254748
168	0x3e748263	0.23877864
169	0xbe51c675	-0.20485862
170	0xbff5d89a	-1.9206727
171	0x3db2545b	0.08707496
172	0xbe51ab38	-0.20475471
173	0x3f98481d	1.1897007
174	0xbeb2745b	-0.34854397
175	0x3ef2b0c0	0.47400475
176	0xbef5f866	-0.48041075
177	0xbf072f5f	-0.5280666
178	0x3f474242	0.77835476
179	0x3e101ccf	0.1407349
180	0xbb8e77b5	-0.0043477663
181	0xbdf08aef	-0.117452495
182	0x3ab2b648	0.0013634646
183	0x3b496305	0.0030729186
184	0x3dc95ac4	0.09831765
185	0xbf8906d8	-1.0705214
186	0xbe906aa0	-0.28206348
187	0xbd2875d4	-0.041127995
188	0xbe5dea9e	-0.2167153
189	0xba50c850	-0.0007964419
190	0x3e5c62f6	0.21522126
191	0xbf9ac75d	-1.2092091
192	0x3e70fc51	0.23533751
193	0xbe6005dd	-0.21877237
194	0x3fc57e8a	1.5429242
195	0x3e9ae19b	0.30250248
196	0xbf1794cd	-0.59211427
197	0x3ff5cb80	1.9202728
198	0xbd2598c9	-0.04042891
199	0xbe8ccabb	-0.2749842
200	0x3f2b3584	0.66878533
201	0x3d11acd5	0.035565216
202	0xbdf8dbb6	-0.121512815
203	0x3f5bc9c4	0.85854745
204	0xbe5d754f	-0.21626781
205	0x3df79fe2	0.12091042
206	0xbf9750f0	-1.1821575
207	0x3ec30bea	0.38095027
208	0x3b873ac4	0.0041268785
209	0x3fc078c1	1.5036851
210	0x3e3d28be	0.18472573
211	0xbec113af	-0.3771033
212	0xbffccf42	-1.975075
213	0xbcca929a	-0.024728108
214	0x3d946fa1	0.07247854
215	0xbfb6debd	-1.4286724
216	0x3c3ac419	0.011399292
217	0x3bc3b56a	0.005972554
218	0xbf9cf821	-1.2263223
219	0x3ea7ce03	0.32774362
220	0xbe5688a9	-0.20950569
221	0x3faa52be	1.3306501
222	0x3d858a4e	0.0652052
223	0x3cca00ed	0.024658645
224	0xc031331a	-2.768744
225	0x3c12a3c9	0.008950182
226	0xbca1ffb6	-0.019775253
227	0xbf88391c	-1.0642428
228	0xbec3bd57	-0.38230392
229	0x3edb28ee	0.42804664
230	0xbf042777	-0.5162272
231	0xbd556b1e	-0.052104108
232	0x3dd666e9	0.10468847
233	0xbe08005b	-0.13281386
234	0x3b325bc9	0.0027215353
235	0x3db10e8f	0.08645355
236	0xbf9a8482	-1.2071688
237	0x3ddfa11e	0.109194025
238	0xbde393c5	-0.11112169
239	0x3fe01a6e	1.7508066
240	0x3e9d2647	0.30693266
241	0xbf158369	-0.5840364
242	0xbfd5d37e	-1.6705167
243	0x3b06cd06	0.002056898
244	0x3eeb8982	0.46003348
245	0x3fcf8cef	1.6214885
246	0xbbe399ad	-0.00694581
247	0x3e2863a1	0.16444255
248	0x3ff1f3b4	1.8902497
249	0xbe5838e2	-0.21115449
250	0x3ee590d9	0.44837072
251	0x3e2784b4	0.16359216
252	0x3e3a5419	0.18196143
253	0x3d91b568	0.071146786
254	0x3fe4e2ec	1.7881751
255	0xbcb5365d	-0.022120649

net.0.bias f4 [128]
0	0x3eed583a	0.46356374
1	0xbe7540c3	-0.23950486
2	0x3eacc3b1	0.3374305
3	0xbfad49c0	-1.3538132
4	0xbf63c783	-0.88976306
5	0xbec03159	-0.3753765
6	0x3efaea43	0.49006853
7	0x3ee63143	0.4495946
8	0xbe29a4ce	-0.16566774
9	0x3de358a7	0.111008935
10	0x3d92c5a2	0.07166602
11	0xbf5bfdca	-0.85934126
12	0x3f467580	0.7752304
13	0x3f20346c	0.6257999
14	0x3ed37f0e	0.41307873
15	0xbf560b24	-0.8361075
16	0xbecd0089	-0.4003947
17	0x3f0236f1	0.50865084
18	0x3f7c7952	0.9862262
19	0x3f305669	0.6888185
20	0xbf0caedb	-0.5495431
21	0xbf08506b	-0.5324771
22	0xbeb288f7	-0.3487012
23	0xbf1d0a35	-0.613437
24	0xbf1a56ca	-0.6028868
25	0xbda02a42	-0.0782056
26	0xbe9fc0a3	-0.31201658
27	0x3d0bdba9	0.03414503
28	0x3f49ce0d	0.78830034
29	0xbef07590	-0.46964693
30	0xbf044796	-0.5167173
31	0x3f9a3c16	1.2049587
32	0x3e46b063	0.19403224
33	0xbee608bc	-0.4492854
34	0xbe29a11c	-0.16565365
35	0xbe8b3819	-0.27191237
36	0x3ea2a038	0.31762862
37	0xbe9420f8	-0.28931403
38	0xbee6ab12	-0.4505239
39	0x3f4f1951	0.80898005
40	0xbe134efc	-0.14385599
41	0x3edf75ed	0.43644658
42	0x3f303ffc	0.6884763
43	0xbece48dc	-0.40289962
44	0x3f197b50	0.59953785
45	0xbf160537	-0.5860171
46	0xbd16adb6	-0.036786757
47	0xbe41c85b	-0.18924086
48	0x3e732e1c	0.23748058
49	0x3e836a7e	0.25667185
50	0xbf8f1863	-1.1179317
51	0xbec51fc0	-0.38500786
52	0xbe909645	-0.28239647
53	0x3e90153c	0.281412
54	0xbe83be19	-0.2573097
55	0x3f0cb33e	0.54961
56	0xbed00ae3	-0.40633306
57	0xbeefc5ef	-0.468307
58	0xbe3b29a6	-0.18277606
59	0x3ebd0275	0.36915937
60	0x3ed07b65	0.40719143
61	0x3f80b66c	1.0055671
62	0xbf06f44a	-0.52716506
63	0x3f976ca8	1.1830034
64	0xbe381268	-0.17975771
65	0xbd491b23	-0.049098145
66	0x3e02924a	0.12751117
67	0x3f4be1c7	0.79641384
68	0x3f0fe4d5	0.56208545
69	0xbec42164	-0.38306725
70	0x3eb70af6	0.3575055
71	0xbef5560c	-0.4791721
72	0x3f4f38d9	0.8094612
73	0xbf5e5d7e	-0.8686141
74	0xbfabfab7	-1.3435887
75	0x3f81496b	1.010053
76	0xbe39a1d8	-0.18128145
77	0x3f2e1602	0.6800233
78	0x3f9139d7	1.1345776
79	0xbec7a5f1	-0.3899379
80	0x3f00bdeb	0.5028979
81	0xbe3f5957	-0.18686424
82	0x3e992a86	0.29915255
83	0x3f047672	0.51743233
84	0x3eda10fe	0.4259109
85	0xbf831968	-1.0242128
86	0xbeeaeedd	-0.45885363
87	0x3ea7b4d0	0.32755136
88	0xbc9897e0	-0.018627107
89	0xbe529862	-0.20565942
90	0xbe9c2dc9	-0.3050368
91	0x3cf9aafa	0.030477036
92	0x3ea9ac92	0.33139473
93	0x3f29ce67	0.6633057
94	0x3f3b1df9	0.7309261
95	0x3edd8e83	0.4327279
96	0xbf2e5ed2	-0.68113434
97	0xbee5601a	-0.44799882
98	0x3f3d2c91	0.7389613
99	0x3d944b5c	0.07240936
100	0x3fbd8aec	1.480802
101	0xbf8e608f	-1.1123217
102	0xbd19188e	-0.037376933
103	0xbf17e4a5	-0.5933326
104	0xbd9a854e	-0.07544957
105	0xbeabbca6	-0.33542365
106	0xbda1f99f	-0.079089396
107	0xbd62c165	-0.055360217
108	0x3f1baab9	0.6080738
109	0xbee1faf0	-0.44136763
110	0xbd49ad30	-0.04923743
111	0x3f9177aa	1.1364644
112	0xbf814bb6	-1.010123
113	0xbdef5d22	-0.116876855
114	0x3f1948d8	0.59876776
115	0xbfd9bf96	-1.7011592
116	0x3fa3b392	1.2789176
117	0x3ef1f368	0.47256017
118	0xbe177b07	-0.14793025
119	0xbe2940d2	-0.16528633
120	0x3f2830ce	0.6569947
121	0xbeb9a0bd	-0.36255446
122	0x3e9931ed	0.29920903
123	0x3ed7407e	0.4204139
124	0x3f54ab48	0.83073854
125	0x3f48dd5d	0.78462774
126	0x3e514dbf	0.20439814
127	0xbe7c0e93	-0.24614935

net.2.weight f4 [72, 128]
0	0xbc553b9a	-0.013014698
1	0xbc4a8811	-0.012361542
2	0xbc3604a1	-0.011109502
3	0x3b4542ef	0.003009971
4	0x3cace4e6	0.021105241
5	0xbd09db5a	-0.033656456
6	0x3d171bcb	0.03689174
7	0x3ba3a8b5	0.0049944767
8	0xbc71bbef	-0.0147542795
9	0xbc1bb405	-0.009503369
10	0xbd3cbc0e	-0.04607778
11	0x3c07110d	0.008243811
12	0xbda84cb4	-0.08217755
13	0x3cf4f4f5	0.02990196
14	0x3d1b7e1f	0.037962075
15	0x3c1036ee	0.008802159
16	0x3d39656d	0.045262743
17	0x3d8ce3e3	0.068794034
18	0xbd7c1eb5	-0.061552722
19	0xbd1b1280	-0.03785944
20	0xbd25b2dc	-0.040453777
21	0xbd7b9607	-0.061422374
22	0xbcaf3646	-0.021388184
23	0xbd357920	-0.044304967
24	0xbd46ffa9	-0.04858366
25	0x3c7d5547	0.015462226
26	0x3cac62a2	0.021043126
27	0xbcedb8b2	-0.029018734
28	0xbdafcd53	-0.08584084
29	0xbcdd6d8c	-0.027029775
30	0x3d8d7e56	0.06908862
31	0x3c731d5e	0.014838545
32	0x3b4ff3b5	0.0031730954
33	0xbd9a8ded	-0.075466014
34	0x3d7d17e2	0.061790355
35	0xbc99891b	-0.018742135
36	0x3c71e3f4	0.014763821
37	0xbd7af063	-0.061264407
38	0xbd66c268	-0.056337744
39	0xbdb3839a	-0.087653354
40	0x3d3dacdd	0.046307433
41	0xbdba4f94	-0.090972096
42	0x3dad9f9f	0.08477711
43	0xbd4d6102	-0.050141342
44	0x3b46455a	0.003025374
45	0xbdbd8938	-0.09254688
46	0xbaed3746	-0.0018098138
47	0x3c36a1c5	0.011146967
48	0x3d8211e6	0.0635107
49	0xbcdc5ecc	-0.026900671
50	0xbd81e833	-0.063431166
51	0x3d097ecb	0.033568185
52	0x3c43bcb2	0.011946844
53	0xbd44404f	-0.047912892
54	0x3d9dc571	0.077036746
55	0xbc9d2359	-0.019181894
56	0x3d329b72	0.043605275
57	0xbba23017	-0.0049495804
58	0xbd3841c1	-0.044984583
59	0xbd155618	-0.03645906
60	0xbd8fecc0	-0.07027578
61	0xbdac07bd	-0.083999135
62	0x3d03a46c	0.032139227
63	0xbda3b9d8	-0.07994431
64	0xbd9a4e4d	-0.07534466
65	0xbc8d6908	-0.017261997
66	0x3d93ac6a	0.0721062
67	0x3da60d49	0.08108003
68	0x3d9680ed	0.073488094
69	0xbd81db5d	-0.06340668
70	0xbd98717e	-0.07443522
71	0x3d34fd1a	0.04418669
72	0xbd187197	-0.037217703
73	0xbcc3e10d	-0.023911024
74	0x3d0360f4	0.032074884
75	0xbdaf80ae	-0.085694656
76	0xbbd3296e	-0.006444148
77	0xbd826888	-0.06367594
78	0xbcc1fee7	-0.023681117
79	0xbdd6e583	-0.10492995
80	0x3d370397	0.044681158
81	0x3b74e5a3	0.003736832
82	0xbda65680	-0.08121967
83	0xbd272b15	-0.04081257
84	0x3b66e60d	0.0035232336
85	0x3d549f8f	0.05190998
86	0xbca478d4	-0.020077147
87	0xbc0e6365	-0.00869069
88	0xbde16661	-0.11005855
89	0xbce4afb5	-0.027915815
90	0x3d34b4b2	0.044117637
91	0x3bf5333e	0.007482915
92	0x3cb91574	0.022593237
93	0xbbf76fcf	-0.0075511704
94	0x3d26ee2e	0.04075449
95	0xbd8134b5	-0.06308881
96	0x3d0c1322	0.034197934
97	0xbb6774a6	-0.003531733
98	0x3db4c95d	0.088274695
99	0xbcd8cb4f	-0.026464133
100	0x3d91c4f5	0.07117645
101	0xbd8adea2	-0.06780745
102	0xbcd9b671	-0.026576253
103	0x3d87fb33	0.06639709
104	0xbc00b8f3	-0.007856595
105	0x3d1efafc	0.038813576
106	0xbd8b3a13	-0.06798186
107	0x3d4a87f4	0.04944606
108	0xbd6967d6	-0.05698379
109	0xbdbc9d61	-0.09209705
110	0xbda442ba	-0.080205396
111	0xbdb27355	-0.08713404
112	0xbc8dee1e	-0.017325457
113	0x3da76919	0.08174343
114	0x3c098d53	0.008395511
115	0xbda699dd	-0.08134816
116	0xbdd31227	-0.10306197
117	0xbd1c6a72	-0.03818745
118	0x3b482032	0.0030536768
119	0xbc465bce	-0.012106849
120	0xbdaa17fe	-0.083053574
121	0xbc2cdb79	-0.010550373
122	0x3d152504	0.036412254
123	0xbdd96766	-0.10615425
124	0x3b4991d3	0.0030757084
125	0xbda62ca3	-0.081139825
126	0xbd62d6ba	-0.05538056
127	0xbda205c4	-0.07911256
128	0xbdff3116	-0.12460534
129	0x3d57d199	0.052690122
130	0xbd4b6c32	-0.04966373
131	0xbd9a2f12	-0.07528509
132	0xbe077d73	-0.13231449
133	0xbdc050ba	-0.09390397
134	0xbf747121	-0.9548512
135	0x3d2d678e	0.042335086
136	0xbdc1174e	-0.09428273
137	0xbdebb37e	-0.11508845
138	0x3d86e45d	0.065865256
139	0x3cb1794c	0.021664284
140	0xbe1749bb	-0.1477422
141	0xbdbb08cc	-0.09132537
142	0x3c1f6173	0.009727824
143	0xbe0b463e	-0.13601014
144	0x3c928c36	0.017889123
145	0x3d3da046	0.046295427
146	0xbe8604f3	-0.2617565
147	0xbcdec28a	-0.027192373
148	0xbc9dbab7	-0.019254072
149	0x3bf86a82	0.007581056
150	0xbe5281f4	-0.20557386
151	0xbd0dc5f0	-0.034612596
152	0xbf189ecc	-0.59617305
153	0x3d65c6f5	0.056097943
154	0xbc1d7414	-0.009610195
155	0xbd654320	-0.05597222
156	0xbf26255a	-0.64900744
157	0x3ce560c7	0.028000249
158	0xbd45eda6	-0.048322342
159	0xbd693cc4	-0.056942716
160	0x3dd9295c	0.10603592
161	0xbc59d353	-0.0132950125
162	0xbc930658	-0.01794736
163	0xbcb0c10b	-0.021576425
164	0xbf622931	-0.88344103
165	0xbe14d621	-0.14534809
166	0xbeeb48b6	-0.45953912
167	0xbdc511d3	-0.0962254
168	0x3d27643d	0.04086708
169	0xbaf41db9	-0.0018624581
170	0xbda85f42	-0.08221294
171	0xbd977de6	-0.0739706
172	0xbe602d6d	-0.21892329
173	0xba86dcec	-0.0010289229
174	0xbe8909cd	-0.2676529
175	0xbb2f114c	-0.002671319
176	0x3e202681	0.15639688
177	0x3c204e2b	0.009784262
178	0xbac6b3d6	-0.0015159796
179	0x3ccffff2	0.025390599
180	0x3d3c0316	0.04590138
181	0xbd67010d	-0.056397486
182	0xbd97c100	-0.07409859
183	0xba9fb0c0	-0.0012183413
184	0xbc3f975e	-0.011693804
185	0xbe0029a3	-0.12515883
186	0x3d0cdc4a	0.03438977
187	0xbda2fd26	-0.079584405
188	0xbc885806	-0.016643535
189	0xbe546ba1	-0.20744182
190	0x3c78d1ae	0.01518671
191	0xbbde07e1	-0.0067758416
192	0x3c06724e	0.008205963
193	0x3cb6ec91	0.0223296
194	0xbe762f4a	-0.24041477
195	0x3c93b463	0.018030351
196	0xbd1ded9d	-0.038556684
197	0xbd75a295	-0.059969503
198	0xbe15e353	-0.14637499
199	0x3c5bf0ce	0.0134241115
200	0xbdbcd16f	-0.09219634
201	0x3c9dc883	0.01926065
202	0xbd530547	-0.051518705
203	0xbaa4e7f4	-0.0012581334
204	0xbc62149a	-0.013798857
205	0xbede4cb9	-0.4341791
206	0xbe2afe32	-0.1669853
207	0xbc653712	-0.013990181
208	0x3c619e14	0.013770599
209	0x3da2fa7f	0.079579346
210	0x3d19f4b7	0.037586894
211	0xbf024899	-0.50892025
212	0xbd747b97	-0.059688177
213	0xbcf6ca59	-0.030125784
214	0xbd08803c	-0.03332542
215	0xbf2aedd2	-0.66769135
216	0xbdb1608f	-0.08660995
217	0x3e06e2f0	0.13172507
218	0x3d2c7071	0.04209942
219	0xbd0abf6d	-0.033873964
220	0xbeb3bc06	-0.35104388
221	0x3d0f4676	0.034979306
222	0xbec326f2	-0.3811565
223	0xbd9d8d98	-0.076930225
224	0xbd6b5d1f	-0.057461854
225	0xbda24fbe	-0.07925366
226	0xbd184382	-0.037173755
227	0xbc8aa7c2	-0.016925696
228	0x3deff806	0.117172286
229	0xbcf772c6	-0.030206095
230	0xba2c494c	-0.00065722014
231	0xbe8f069d	-0.27934733
232	0x3ca82f1a	0.020530272
233	0xba0395b9	-0.0005019564
234	0xbc69bde5	-0.014266466
235	0xbda665ba	-0.081248716
236	0xbdb921bc	-0.090396374
237	0x3ba3c8d2	0.004998305
238	0x3d8b76f3	0.06809797
239	0xbda56398	-0.080756366
240	0x3d3d6c6a	0.04624597
241	0xbdcb81bb	-0.099368535
242	0x3df3a001	0.11895753
243	0xbe05c86c	-0.13064736
244	0x3d9669d2	0.073444024
245	0xbea63965	-0.32465664
246	0x3d000136	0.031251155
247	0xbdc088c3	-0.09401085
248	0xbdb7460c	-0.08948907
249	0x3d6a0c8b	0.05714087
250	0xbe127c05	-0.14305122
251	0x3cce2b14	0.025167026
252	0xbdabed61	-0.08394886
253	0xbe018988	-0.1265012
254	0xbc90771b	-0.017634919
255	0xbdb6f6c0	-0.089337826

net.2.bias f4 [72]
0	0xbd071652	-0.03298027
1	0x3d6680ef	0.056275304
2	0x3f1309aa	0.5743662
3	0xbd55a5d9	-0.052160118
4	0x3dabc41e	0.08387016
5	0xbd078da1	-0.033094052
6	0x3de5cd27	0.1122077
7	0x3c36b1e2	0.011150809
8	0xbb08beae	-0.0020865607
9	0x3d4e02e5	0.05029573
10	0x3f20b371	0.62773806
11	0x3d94ea04	0.072711974
12	0xbd1929c7	-0.037393358
13	0x3e5b0ac7	0.2139083
14	0x3e068364	0.13136059
15	0x3f35c322	0.71000874
16	0x3f273e8a	0.653298
17	0x3b48d86b	0.0030646573
18	0xbef9c996	-0.4878661
19	0xbd8fd4bb	-0.07022997
20	0x3e4c0c28	0.19926512
21	0xbc814491	-0.015779765
22	0xbe027c52	-0.12742737
23	0xbeb7cadc	-0.35896957
24	0x3d4e7dae	0.050412826
25	0xbcb3571b	-0.021892121
26	0x3e0d3274	0.13788778
27	0x3e00c318	0.12574422
28	0xbe4a246e	-0.1974046
29	0xbf0a8f2c	-0.5412471
30	0x3eb5b431	0.35489038
31	0x3d3bce6e	0.045851164
32	0xbc8b7906	-0.017025482
33	0x3e915a03	0.28388986
34	0x3e5b1635	0.2139519
35	0xbd8ff0b5	-0.07028333
36	0x3e3c633f	0.18397234
37	0xbdd4285b	-0.1035926
38	0xbd94f966	-0.072741315
39	0xbd9ddfe4	-0.077087194
40	0xbd1c903d	-0.038223494
41	0xbda6630c	-0.081243604
42	0xbf0c4942	-0.5479928
43	0xbd900c62	-0.07033612
44	0x3e263d21	0.16234256
45	0x3d9ef896	0.07762258
46	0x3b81adcf	0.003957487
47	0xbd17cd87	-0.03706124
48	0x3e0064d0	0.12538457
49	0xbe5ac087	-0.21362506
50	0x3ddc4724	0.107557565
51	0xbf01de57	-0.5072989
52	0x3d03d9c4	0.0321901
53	0xbdba8aa1	-0.091084726
54	0x3e8c2933	0.27375183
55	0x3d03a603	0.032140743
56	0xbdbe1bb5	-0.092826284
57	0x3ef99cad	0.48752347
58	0xbd193987	-0.037408378
59	0xbf35edff	-0.7106628
60	0x3ed45bf3	0.41476402
61	0x3e862ce0	0.26206112
62	0x3ece29df	0.4026632
63	0x3cbfaad9	0.023396896
64	0xbd88ab73	-0.06673326
65	0xbd6d1413	-0.057880472
66	0xbd1f3637	-0.038870063
67	0xbebae287	-0.36500952
68	0xbdb9dbc4	-0.0907512
69	0x3d7f2d27	0.06229892
70	0xbe270cd4	-0.16313487
71	0xbd77d5cc	-0.060506627

net.4.weight f4 [36, 72]
0	0xbd3e6dea	-0.04649154
1	0x3d6ff28e	0.058580928
2	0x3d4c11ea	0.04982177
3	0xbc846bf7	-0.016164763
4	0xbd031e04	-0.032011047
5	0xbe51d535	-0.20491488
6	0xbdf6caa0	-0.120503664
7	0x3d8994a1	0.06717802
8	0xbca36713	-0.01994661
9	0xbe2908cd	-0.16507263
10	0x3e4086ae	0.18801376
11	0x3da7f72e	0.08201443
12	0xbdb7d719	-0.089765735
13	0x3dcbc0e3	0.099488996
14	0xbd5bd179	-0.053666566
15	0x3de29b0f	0.11064731
16	0x3db63270	0.08896339
17	0x3cc8ec9c	0.024526887
18	0xbea8ae2c	-0.32945383
19	0x3dee1790	0.11625588
20	0xbce1ff4d	-0.027587557
21	0x3ba382b4	0.0049899463
22	0x3bc0f5a6	0.0058886586
23	0xbc648f6e	-0.013950212
24	0xbc8e3b58	-0.017362282
25	0x3e10fcec	0.14158982
26	0xbd9adf1b	-0.07562085
27	0xbf7ec028	-0.9951196
28	0xbee1bec7	-0.44090864
29	0xbe1e7a83	-0.15476422
30	0x3e826a7e	0.25471872
31	0x3c709439	0.014683777
32	0xbb5cc0fa	-0.003368436
33	0x3dd65c4f	0.10466825
34	0x3e35742c	0.17720097
35	0xbdbeb0ce	-0.093110666
36	0x3d922c16	0.07137315
37	0x3d53b6d5	0.051688034
38	0x3c850df4	0.016242005
39	0xbca154b0	-0.019693702
40	0x3d5bd426	0.053669117
41	0xbdd84101	-0.105592735
42	0xbdce42f7	-0.10071366
43	0x3c85937a	0.016305674
44	0x3dc92328	0.09821159
45	0x3e09461d	0.13405652
46	0x3d373c6f	0.04473537
47	0x3c5c74e7	0.013455606
48	0xbd3d12b5	-0.04616042
49	0x3dcb74c8	0.09934384
50	0x3dfaf321	0.122534044
51	0xbe13394c	-0.14377326
52	0xbc849537	-0.016184432
53	0xbdc28147	-0.09497314
54	0x3e801eb8	0.25023437
55	0x3ca36baa	0.0199488
56	0x3cf7bac6	0.030240428
57	0x3e0324c7	0.12806998
58	0xbcd04f23	-0.02542836
59	0x3d1f23dd	0.03885256
60	0x3d755f77	0.059905495
61	0x3df8296c	0.121172756
62	0x3e71a1f5	0.23596938
63	0x3db02744	0.08601239
64	0x3c720ab4	0.01477306
65	0x3d9e7b2f	0.07738339
66	0xbc028009	-0.007965096
67	0xbd897144	-0.06711057
68	0x3c8c2bce	0.017110731
69	0xb92ae61c	-0.00016298186
70	0x3e3bac61	0.18327476
71	0xbde291c1	-0.110629566
72	0x3df92702	0.12165643
73	0x3de18fcc	0.11013755
74	0xbd9da179	-0.07696814
75	0x3dc91ff2	0.09820546
76	0xbc82422e	-0.015900698
77	0xbd8948e0	-0.06703353
78	0x3e17922d	0.14801855
79	0xbd71a5cb	-0.058996003
80	0xbdcce7c2	-0.10005142
81	0x3dd16bbd	0.102256276
82	0x3e1880a2	0.1489282
83	0xbd973e7d	-0.073849656
84	0x3d8124a5	0.063058175
85	0xbdde0024	-0.108398706
86	0x3d9d1e9f	0.07671856
87	0xbd09e9bb	-0.03367017
88	0xbc0d695a	-0.008631075
89	0xbd92f6ec	-0.07176003
90	0xbe889ca0	-0.26681995
91	0xbb6fb722	-0.0036577662
92	0x3ab2c926	0.0013640269
93	0x3d8ad238	0.06778377
94	0x3d426097	0.047455397
95	0x3d3fb95a	0.046807624
96	0xbb303cf3	-0.0026891797
97	0xbcde7e53	-0.027159845
98	0x3d83f6f2	0.064435855
99	0x3e005ba2	0.12534955
100	0x3b823610	0.00397373
101	0xbe4d129b	-0.20026629
102	0x3c17fa44	0.009275977
103	0xbc083dda	-0.008315528
104	0x3d3c50fd	0.045975674
105	0x3c249922	0.010046275
106	0xbe431553	-0.19051103
107	0xbd0150fd	-0.031571377
108	0xbe842452	-0.2580896
109	0xbda7b201	-0.081882484
110	0x3d46a274	0.04849477
111	0xbd0279ce	-0.031854443
112	0x3d809a87	0.06279474
113	0xbe459d28	-0.19298232
114	0xbddd66bf	-0.10810613
115	0xbdf2a6c8	-0.11848217
116	0xbe0b2b84	-0.13590819
117	0xbcadcd97	-0.021216197
118	0xbd585c5c	-0.052822456
119	0x3dc0d8b7	0.09416335
120	0xbd8d4b88	-0.06899172
121	0x3a777e52	0.00094411254
122	0xbd915d42	-0.07097866
123	0x3ca04b44	0.01956714
124	0x3de604f5	0.11231414
125	0xbdb60604	-0.08887866
126	0x3e020fb8	0.12701309
127	0xbb3e7292	-0.0029059988
128	0xbd8604db	-0.06543895
129	0xbecbcfc7	-0.3980696
130	0xbd03fe00	-0.032224655
131	0x3ce6c737	0.028171165
132	0xbe76ae48	-0.2408992
133	0x3dabf19f	0.08395695
134	0xbd8a932a	-0.067663506
135	0xbd98103d	-0.07424972
136	0x3df7f18d	0.12106619
137	0x3d00a4c6	0.03140714
138	0xbde3d2bd	-0.111241795
139	0xbdd2ad85	-0.102870025
140	0xbd8cba73	-0.068715
141	0x3d0a04fa	0.033696152
142	0x3e34d879	0.17660703
143	0x3d448036	0.047973834
144	0x3c96ae65	0.018393705
145	0xbd74078e	-0.059577517
146	0x3d83cb01	0.06435204
147	0x3deaf37f	0.114722244
148	0xbee92ab6	-0.45540398
149	0xbf99f19a	-1.2026856
150	0xbfd7d640	-1.6862259
151	0x3de9c696	0.114148304
152	0xbddc2128	-0.107485116
153	0xbcf216fc	-0.029551975
154	0x3d7cf975	0.06176134
155	0x3cb4d6f5	0.022075156
156	0xbd1f2055	-0.038849194
157	0x3d3e874b	0.046515744
158	0xbecf4dff	-0.40489194
159	0xbd8a7130	-0.0675987
160	0x3c6c369e	0.014417319
161	0xbdc390a1	-0.0954907
162	0xbdfa903e	-0.12234543
163	0xbd97a0a3	-0.07403686
164	0xbe83bacb	-0.2572845
165	0xbd88abe5	-0.06673411
166	0xbfd92d90	-1.696703
167	0xbdc8b3b9	-0.097999044
168	0xbd533a54	-0.051569298
169	0xbd080a58	-0.03321299
170	0xbb800f00	-0.003908038
171	0xbe6cb55a	-0.23116055
172	0xbdd11436	-0.10208933
173	0xbc9c3c7f	-0.019071816
174	0xbd200bb9	-0.03907368
175	0x3d5092c4	0.050921217
176	0xbd1a85cc	-0.037725255
177	0xbc017712	-0.007901924
178	0xbbb585b3	-0.00553962
179	0xbc9b1ff6	-0.018936139
180	0x3d89ba89	0.06725032
181	0xbcf45cd7	-0.029829426
182	0x3da614e5	0.08109454
183	0x3d13d20b	0.036088984
184	0xbd1e5d74	-0.038663343
185	0xbe1f513f	-0.15558337
186	0x3d4738d7	0.04863819
187	0x3afd6fe0	0.001933571
188	0xbcbc99aa	-0.023022491
189	0x39d9a57c	0.0004151276
190	0xbd91ee67	-0.0712555
191	0x3d09072b	0.0334541
192	0xbf6ef79d	-0.9334658
193	0x3e3faca1	0.18718196
194	0xbe353e06	-0.17699441
195	0xbdf150bc	-0.11782977
196	0x3d2d5eed	0.042326856
197	0x3c3df8d6	0.011594972
198	0xbe01ab62	-0.12663034
199	0x3dca576f	0.09879958
200	0x3dd0ec0d	0.10201273
201	0xbda3f55e	-0.080057845
202	0x3db0290c	0.08601579
203	0x3cfae0dd	0.030624801
204	0x3d7cde04	0.061735168
205	0xbd39d0a4	-0.04536499
206	0xbdbe21c3	-0.09283783
207	0xbd44909f	-0.047989484
208	0xbb102a43	-0.0021997846
209	0x3e0f637b	0.14002793
210	0x3da17609	0.078838415
211	0xbd4e7ee2	-0.050413974
212	0xbbe6c166	-0.007042098
213	0xbc4c5129	-0.012470522
214	0x3e0f8985	0.14017303
215	0xbd982273	-0.07428446
216	0x3d781c4f	0.060573872
217	0x3cf1102f	0.029426662
218	0xbdc2b751	-0.09507621
219	0x3d128c20	0.035778165
220	0x3d1516fc	0.036398873
221	0x3e169d29	0.1470839
222	0x3dc33a9d	0.09532664
223	0x3d6bdbbc	0.057582602
224	0x3cf87bc1	0.030332448
225	0x3daf3630	0.08555257
226	0xbdc524e5	-0.09626178
227	0x3da0bcf8	0.07848543
228	0xbd742ef0	-0.059615076
229	0xbfa84c2b	-1.3148245
230	0x3dc51ca0	0.096246004
231	0xbd17a2bd	-0.037020434
232	0xbe321a74	-0.17392904
233	0xbbfc6589	-0.0077025336
234	0xbe608e3e	-0.21929261
235	0x3dae0837	0.084976606
236	0x3cb9333c	0.022607438
237	0x39355838	0.00017294369
238	0x3deb58ee	0.11491571
239	0xbecb6d9c	-0.39732063
240	0x3d12e307	0.03586104
241	0xbdd5144d	-0.10404263
242	0xbb88828c	-0.004165953
243	0xbc8db4f0	-0.017298192
244	0xbf06b663	-0.5262205
245	0xbe619f4d	-0.22033425
246	0xbd25109a	-0.040299036
247	0xbdbae1b8	-0.09125084
248	0xbd93fbdb	-0.07225772
249	0xbf3aaf66	-0.72923887
250	0xbdd1c711	-0.10243047
251	0x3dd3dfa7	0.10345393
252	0xbea75b55	-0.32686868
253	0xbd97243a	-0.073799565
254	0x3d03bcef	0.032162603
255	0xbde3e067	-0.11126786

net.4.bias f4 [36]
0	0x3cb69234	0.022286512
1	0x3ec19432	0.37808377
2	0xbe974925	-0.29547992
3	0x3e050947	0.1299182
4	0x3e53149f	0.20613335
5	0xbe3cf06a	-0.18451086
6	0xbe7ffe8c	-0.24999446
7	0x3f11dfc3	0.5698206
8	0x3f0b7465	0.5447448
9	0x3ee54da8	0.4478581
10	0x3e525789	0.20541205
11	0xbdec6031	-0.115417846
12	0xbed6b603	-0.4193574
13	0xbf0dbe74	-0.55368733
14	0x3ed5e3eb	0.4177545
15	0x3e74e209	0.2391435
16	0x3f2c8806	0.67395055
17	0xba84ce69	-0.0010132316
18	0xbe8bb233	-0.27284393
19	0xbd749c70	-0.059719503
20	0x3e43e2c2	0.1912947
21	0x3e915b8f	0.28390166
22	0xbec4b3c3	-0.38418397
23	0xbe069314	-0.13142043
24	0x3f214c2a	0.6300684
25	0xbd9aa3c4	-0.07550767
26	0xbe9dce3c	-0.30821407
27	0x3f093b6c	0.53606296
28	0x3f0c96fa	0.5491787
29	0x3e15b374	0.14619237
30	0xbe5dc800	-0.21658325
31	0xbf274b94	-0.653497
32	0x3dc10632	0.0942501
33	0xbd556a6e	-0.052103452
34	0xbf12b6dc	-0.5731027
35	0x3ed6e655	0.41972604

net.6.weight f4 [8, 36]
0	0x3e3d6fc3	0.18499665
1	0xbd409677	-0.047018494
2	0xbff72b9f	-1.9310187
3	0x3d859eea	0.06524451
4	0x3ed9729f	0.4247026
5	0x3ce97a2b	0.028500637
6	0xbf7d91e6	-0.9905075
7	0x3d71eea5	0.05906548
8	0x3c0db123	0.00864819
9	0xbd8dd371	-0.06925095
10	0x3ccf87b3	0.025333261
11	0xc009eb7a	-2.1549973
12	0x3e19e7af	0.15029787
13	0x3e8c0243	0.27345476
14	0xbce0f6e3	-0.027461475
15	0x3dbf588a	0.09343059
16	0xbe357f2f	-0.17724298
17	0x3e364cff	0.17802809
18	0x3e274672	0.16335467
19	0xbd72aaab	-0.059244793
20	0x3e89e651	0.2693353
21	0xbbfbdc6e	-0.0076861894
22	0x3d722755	0.05911954
23	0x3e0b0fc4	0.13580233
24	0x3d67dcc1	0.05660701
25	0x3dbaa103	0.09112742
26	0xba17202c	-0.0005764987
27	0x3e196b16	0.14982256
28	0x3e2f1469	0.1709763
29	0x3e2d735b	0.16938536
30	0x3e40d15a	0.18829861
31	0x3de8a95c	0.11360428
32	0xbe5fcdd0	-0.21855855
33	0xbdb7deb6	-0.089780256
34	0x3e47f823	0.1952825
35	0xbe70c234	-0.23511583
36	0xbee2ff43	-0.44335374
37	0x3e7a1143	0.24420647
38	0xbdc707a3	-0.097182535
39	0x3df8ee7f	0.121548645
40	0x3ec48394	0.38381636
41	0xbe39a889	-0.18130697
42	0x3b65bde8	0.003505582
43	0x3e029983	0.12753873
44	0xbc30feb4	-0.010802913
45	0x3d3e62af	0.04648083
46	0xbeb408aa	-0.3516286
47	0xbe59a9c7	-0.21256171
48	0xbce34ff5	-0.027748087
49	0xbe22362a	-0.15840974
50	0x3e874e22	0.26426798
51	0x3ca24c3b	0.01981174
52	0x3e150778	0.1455363
53	0xbd873efc	-0.0660381
54	0xbec7c8f0	-0.3902049
55	0x3d8f0ecb	0.069852434
56	0xbf02f586	-0.5115589
57	0xbb6d7362	-0.0036232104
58	0x3d28242f	0.041050132
59	0x3cd820ae	0.02638277
60	0x3d57d56e	0.052693777
61	0x3e013b79	0.12620343
62	0x3cccfa1f	0.02502161
63	0xbd02a5c3	-0.031896364
64	0x3d8a8d8f	0.067652814
65	0x3d1044eb	0.035221975
66	0xbdc6bc65	-0.09703902
67	0x3e1b56a8	0.15169775
68	0xbebae598	-0.3650329
69	0xbe0cc36a	-0.1374642
70	0xbc42cbce	-0.011889411
71	0xbf06553d	-0.52473813
72	0x3ce52b90	0.027974874
73	0xbd88215d	-0.066469885
74	0xbd3b5dd5	-0.045743782
75	0x3cb13941	0.021633746
76	0xbdc22ccb	-0.094812
77	0xbc423035	-0.011852314
78	0xbd9eb117	-0.07748621
79	0x3d8f6092	0.07000841
80	0xbe14d06c	-0.14532632
81	0xbdb85b1b	-0.09001752
82	0x3d9894a9	0.0745023
83	0x3e14022d	0.14453955
84	0xbe232397	-0.15931545
85	0x3d9c98f3	0.0764636
86	0xbe131f54	-0.1436742
87	0xbced3283	-0.02895475
88	0xbdeddad6	-0.11614005
89	0x3e0ec316	0.13941607
90	0xbe21c6da	-0.15798512
91	0xba4da156	-0.00078441703
92	0xbe068ef9	-0.13140477
93	0x3e1d2259	0.15345134
94	0xbe1cb876	-0.15304741
95	0xbe23acea	-0.1598393
96	0x3d89188d	0.06694136
97	0x3db01213	0.085971974
98	0xbd30dafb	-0.043177586
99	0xbba7dd5c	-0.0051228236
100	0x3cba30cb	0.022728344
101	0xbda0f687	-0.07859521
102	0xbdbc0543	-0.09180691
103	0x3d76afb7	0.06022617
104	0xbdf91423	-0.12162044
105	0xbe198974	-0.1499384
106	0xbd9b2e36	-0.075771734
107	0xbd6cc946	-0.057809137
108	0x3e0b0ce8	0.13579142
109	0xbdcb474b	-0.099257074
110	0x3eb93100	0.36170197
111	0xbf9d934f	-1.231058
112	0x3e3037ce	0.17208788
113	0x3d8a2b6f	0.067465656
114	0x3e20f7eb	0.15719573
115	0xbe513d0b	-0.20433442
116	0x3e936b76	0.28792924
117	0xbd3e09c0	-0.046396017
118	0x3d9d3031	0.076752074
119	0x3dd94193	0.106082104
120	0xbee23d23	-0.4418727
121	0xbe53ff21	-0.20702793
122	0x3e1e38b6	0.15451321
123	0x3dfc372f	0.12315213
124	0x3babe647	0.005245957
125	0x3d8ad015	0.0677797
126	0x3e9745a3	0.29545316
127	0xbdd0ae59	-0.10189504
128	0x3e1a09aa	0.15042749
129	0x3d944e50	0.072414994
130	0x3e1a1e8a	0.15050712
131	0x3e016e95	0.1263984
132	0x3f0bb6bd	0.5457571
133	0x3e880304	0.265648
134	0xbf0ec55f	-0.55769914
135	0x3ea38ed9	0.31944922
136	0x3eaeb89e	0.34125227
137	0x3d011516	0.03151425
138	0x3f0d9307	0.5530247
139	0xc09e4a13	-4.9465423
140	0x3d9e2ea6	0.07723741
141	0x3e0c2e2f	0.13689493
142	0xbf54afe4	-0.8308089
143	0x3e5690f4	0.20953733
144	0x3da9a8b9	0.082841344
145	0x3ce92ea0	0.028464615
146	0x3e4d08ef	0.20022939
147	0x3ce18bc2	0.027532462
148	0x3d635d09	0.055508647
149	0x3e76c63f	0.24099062
150	0x3de4a21a	0.11163731
151	0x3e9d23de	0.30691427
152	0xbdb9d83b	-0.09074446
153	0x3e1fc026	0.15600643
154	0x3c9dee21	0.019278588
155	0x3eb0bca3	0.34518918
156	0xbd6ed7c3	-0.058311235
157	0xbed6f148	-0.41980958
158	0x3e2699f0	0.1626966
159	0x3e5fcb16	0.21854815
160	0x3e9dcefc	0.3082198
161	0xbe0c6fac	-0.13714474
162	0x3e7c5eb7	0.24645506
163	0x3e49e79c	0.19717258
164	0xbe4d9710	-0.20077157
165	0xbd87f8d5	-0.06639258
166	0xb9c123d2	-0.00036838517
167	0x3dbaf5bd	0.09128902
168	0xbb07a880	-0.00206998
169	0x3e545017	0.20733677
170	0xbe534415	-0.2063144
171	0x3e03284a	0.12808338
172	0x3e727899	0.23678817
173	0xbdab10b1	-0.08352793
174	0x3c8cb089	0.017174022
175	0xbca21aa3	-0.019788092
176	0x3e838f66	0.25695342
177	0xbe0858f7	-0.13315187
178	0xbe14371a	-0.14474145
179	0x3e99ac44	0.3001424
180	0xbd5ad82b	-0.05342881
181	0x3d1b51d5	0.037919838
182	0xbf839cff	-1.0282286
183	0x3ea1bedb	0.31590924
184	0x3d08e58f	0.03342205
185	0xbe8887c6	-0.26666087
186	0xbf343e21	-0.704073
187	0x3f153ab1	0.5829268
188	0x3e2efea4	0.17089325
189	0xbabf8bf9	-0.0014613859
190	0x39cad8ce	0.00038689974
191	0x3dc293e6	0.09500866
192	0x3e407ff9	0.18798818
193	0xbde08b05	-0.10964016
194	0x3e59b157	0.21259056
195	0x3da92165	0.082583226
196	0x3d594570	0.053044736
197	0x3e95a9f7	0.29231235
198	0x3d831821	0.064010866
199	0xbca477db	-0.020076683
200	0xbd1e72fe	-0.038683884
201	0x3d516ac7	0.05112722
202	0x3dcdba10	0.10045254
203	0x3d441931	0.047875587
204	0x3e882abd	0.26595107
205	0x3e748db3	0.23882179
206	0x3e04e5c1	0.12978269
207	0x3e8761a4	0.2644168
208	0x3e46a5cd	0.19399185
209	0x3e9a6642	0.30156142
210	0x3e850a96	0.2598464
211	0x3e901c86	0.28146762
212	0xbd63cea5	-0.055616993
213	0x3e01c648	0.12673295
214	0x3ea11e65	0.31468502
215	0xbbb29d24	-0.0054508615
216	0xbf32d221	-0.6985188
217	0x3d80728a	0.062718466
218	0xbeb0240d	-0.34402505
219	0xbe10e72a	-0.14150682
220	0xbf798ad9	-0.9747749
221	0x3c41c9fe	0.011827944
222	0xbc795ad5	-0.01521941
223	0xbd198b32	-0.037486263
224	0x3df1c47a	0.11805053
225	0x3e04123a	0.12897578
226	0xbe769abf	-0.24082468
227	0x3f9cdef0	1.2255535
228	0xbe2ff46f	-0.17183088
229	0xbdbf5615	-0.09342591
230	0x3deb6996	0.11494748
231	0x3dc6c29d	0.09705088
232	0x3e5b962b	0.21444003
233	0x3e211211	0.15729548
234	0x3cfdf34e	0.030999806
235	0x3d069f0b	0.03286652
236	0xbe455216	-0.19269595
237	0xbd69fe71	-0.05712742
238	0x3e04d788	0.12972844
239	0x3d8a26b4	0.06745663
240	0x3be29381	0.0069145565
241	0xbb820edb	-0.003969056
242	0xbe1c37fc	-0.15255731
243	0x3e387d93	0.18016653
244	0x3d9d0245	0.076664485
245	0x3c7a50fd	0.015278098
246	0x3e0ec785	0.13943298
247	0xbd9c243a	-0.07624097
248	0x3e8812f6	0.26576966
249	0xbca77fb6	-0.02044664
250	0xbd05032b	-0.032473724
251	0x3ebd6e19	0.3699806
252	0xbb2c146b	-0.0026257287
253	0x3d5b1fce	0.05349713
254	0xbc799b6d	-0.01523481
255	0xbd9367fe	-0.07197569

net.6.bias f4 [8]
0	0xbf2807dd	-0.65637
1	0xbf24b754	-0.64342237
2	0xbcf9a630	-0.030474752
3	0x3e2b2381	0.16712762
4	0x3e6811df	0.22663067
5	0x3ec71e96	0.38890523
6	0x3f285611	0.65756327
7	0xbe6f4bc8	-0.23368752

net.8.weight f4 [3, 8]
0	0xbe8fdb36	-0.28096932
1	0xbf6eb501	-0.9324494
2	0x3e82128d	0.25404778
3	0xbd3d8718	-0.046271414
4	0x3dd20d58	0.10256451
5	0xbee1bb6f	-0.44088313
6	0xbd4910a9	-0.049088154
7	0xbe467494	-0.19380409
8	0x3ec247d7	0.37945434
9	0xbd7251f1	-0.059160177
10	0xbcc46a3c	-0.023976438
11	0xbf0ab4ff	-0.5418243
12	0xbf08817e	-0.5332259
13	0xbcf7055f	-0.030153928
14	0xbe89fd42	-0.26951033
15	0x3dce2c97	0.100670986
16	0xbe519ddb	-0.20470373
17	0xbe69902c	-0.22808903
18	0xbe749961	-0.23886634
19	0xbeaa148b	-0.33218798
20	0x3c229739	0.00992375
21	0x3e50c9be	0.20389459
22	0xbdb7facb	-0.08983382
23	0x3dcd8246	0.10034613

net.8.bias f4 [3]
0	0x3ebee916	0.37287205
1	0xbf3ef571	-0.74593264
2	0x3f412ee8	0.754622
