XMFlib/PairProbML/models/mlp_a2p_100_pee_lr0.001_hl128-64-32.pt (torch, 46552 bytes, 7 tensors)

net.0.weight f4 [128, 2]
000000 42 c0 17 3f 08 a1 e3 3d 8e db ee 3e 2f bb 54 bf
       0.5927774 0.11114699 0.46651882 -0.8309812
000010 97 be c5 be 04 cd 4f 3d 94 79 06 bf d7 0b ac be
       -0.3862197 0.050732628 -0.52529263 -0.33602783
000020 cb 21 ab 3e c2 64 61 3e 7e 7b cb 3e 64 69 54 bf
       0.3342422 0.22011092 0.39742655 -0.82973313
000030 9f 50 22 bd fe 37 b8 3e 92 b6 1a 3f 9b bc d8 be
       -0.039627668 0.3598022 0.6043483 -0.42331395
000040 15 89 f9 3e 93 73 ab 3d fd f7 f4 be 8d 93 99 3d
       0.48737398 0.083716534 -0.4784545 0.07498846
000050 0f 81 0c 3e fc 3d 30 be 2c bb 8d 3e 11 9c 11 be
       0.13721107 -0.17211145 0.27681863 -0.14219691
000060 03 7a 44 bf f0 a7 84 3d ec 78 5d 3f 54 b0 06 bf
       -0.76748675 0.06477344 0.8651264 -0.52612805
000070 f1 db ec 3e dc 27 a4 bd 53 b8 93 3d 7d 11 fe bf
       0.46261552 -0.08015415 0.072128914 -1.9849087
000080 64 5b 10 3f 4e 82 50 3e 0c 96 90 3c 01 7c 15 3f
       0.5638945 0.20362207 0.017649673 0.5839234
000090 02 ec b6 3e db c1 af 3d 6a 3b 38 be 59 1b c4 bd
       0.35726935 0.08581897 -0.17991415 -0.09575529
0000a0 7b d4 9e bd f5 d4 17 3f 73 59 69 be 30 67 02 bf
       -0.07755371 0.5930932 -0.22788028 -0.509387
0000b0 5a 2e 80 be 82 09 9c be 5c 38 72 bf 7b a5 d0 be
       -0.25035363 -0.30476004 -0.9461725 -0.40751252
0000c0 1d d4 44 3f 32 14 04 3f 74 16 28 bf 22 e4 13 3f
       0.7688616 0.51593316 -0.6565926 0.5776998
0000d0 c0 2d be 3d 3a b4 c7 bf 80 71 e4 3e 67 f1 04 3f
       0.0928607 -1.5601876 0.44617844 0.5193085
0000e0 d3 d0 e1 3e f9 71 cf 3e 63 ef 98 3e 89 73 29 3f
       0.44104633 0.40516642 0.29870138 0.6619192
0000f0 d3 98 00 3f a1 4c 58 be 0b 87 b4 3e 64 56 ee 3e
       0.5023319 -0.21122982 0.3525928 0.46550286
000100 a4 08 26 3f 36 38 9b 3e f7 1d d4 be 95 39 0d 3f
       0.64856935 0.30316323 -0.4142911 0.5516599
000110 3d 2d 2e 3e 34 3c ac 3e 93 56 3e 3e a1 69 10 bf
       0.17009445 0.3363968 0.18587713 -0.56411177
000120 e8 5c fb be b0 76 13 3f 66 e2 2e 3d ae 55 b6 bf
       -0.4909432 0.5760298 0.04269638 -1.4244897
000130 f9 ce 06 bf 50 60 60 3e 40 35 18 bf 35 6d 2a bf
       -0.52659565 0.2191174 -0.59456253 -0.66572887
000140 96 3d fa 3e c9 5c fb 3d 24 1d b6 3d b1 dd e4 3e
       0.4887511 0.12273557 0.08892277 0.44700387
000150 cd d3 43 bd 93 0c 20 bf 58 8e b9 be ab 83 30 be
       -0.04780941 -0.62519187 -0.36241412 -0.17237727
000160 97 2e aa 3d 25 d4 41 3e f6 9e d3 be 98 65 43 3d
       0.083096676 0.18928583 -0.41332215 0.04770431
000170 5e 20 e8 be 6b 1e 38 bf bd 3a c7 3d 95 f9 c9 3e
       -0.45337194 -0.71921414 0.09728 0.39448228
000180 5c 35 06 3d 04 3d 57 3e 0f 2d 1b 3e cf b6 d5 bd
       0.03276573 0.2101937 0.15153907 -0.104352586
000190 11 83 85 3e 2e a3 2b 3f 5b b6 e5 3d 9a a3 2c bf
       0.26076558 0.6704587 0.11216422 -0.67437136
0001a0 45 03 b6 3e a0 31 2d 3f 7c a4 74 3d fd 06 97 bf
       0.3554937 0.67653847 0.059727177 -1.1799008
0001b0 2f 95 3b 3f 4d ee 32 3f 62 14 96 3d 96 b4 06 bf
       0.7327451 0.6989487 0.073281065 -0.526193
0001c0 71 9e e9 be 3b 39 53 be cf f2 cf be 6a 61 02 3f
       -0.45628694 -0.206273 -0.40614936 0.5092989
0001d0 d9 57 f8 3e b3 fd 55 3e 17 ee 98 be 70 77 2f be
       0.48504522 0.2089756 -0.29869148 -0.17135406
0001e0 e3 38 ff 3e 48 ad 12 bf 8e 03 ea be 3f 8d 3f bf
       0.4984809 -0.57295656 -0.45705837 -0.748249
0001f0 26 43 f0 3e 6e 3b 29 3e 23 f5 19 3d 5b 71 d9 3e
       0.4692623 0.16526577 0.037587296 0.42469296
000200 03 63 07 be f2 e9 cd bd 30 82 74 3c d1 db 5c bf
       -0.13221364 -0.10054387 0.014923617 -0.86272913
000210 13 92 ba 3e 70 44 43 be b3 b1 25 bd 56 13 5e 3d
       0.3643957 -0.19069076 -0.04045267 0.05421766
000220 fa 0b 18 3d bb 60 a1 bf 9f 4a 63 3a a8 db 9e bf
       0.037120797 -1.2607645 0.0008670482 -1.2410784
000230 7b 43 e1 3e 70 c8 0a 3f 0e 95 97 3d a9 c3 12 3f
       0.43996796 0.54212093 0.07401477 0.57329804
000240 01 21 90 3d 42 1a 0b 3f 7f 9c b9 3d 87 99 59 be
       0.07037545 0.5433694 0.090630524 -0.21249972
000250 fc 13 42 3d f5 10 ca bf 9f b1 2b 3f 92 5d 06 bf
       0.04738234 -1.5786425 0.67067903 -0.52486527
000260 3a bc 67 3e 9e 81 ff be d7 41 bb 3c 8e 55 25 bf
       0.22630396 -0.49903578 0.022858543 -0.6458367
000270 68 89 e6 3e c3 fa b2 bf 42 c9 88 be 25 b6 aa 3d
       0.45026708 -1.3982776 -0.26716048 0.083355226
000280 62 82 b8 be e1 cd c6 3e 65 53 84 3e 59 b8 22 bf
       -0.36036974 0.38828948 0.25844875 -0.6356254
000290 c2 ff 21 be 78 e3 44 bf 12 c8 d2 3d 2b 55 05 3f
       -0.1582022 -0.7690959 0.10292067 0.5208308
0002a0 31 8f e7 be b8 08 c2 be 69 dd 73 bf 2a d2 03 bf
       -0.45226434 -0.37897277 -0.9525972 -0.5149256
0002b0 55 0d 23 3f 61 df 09 3f f0 42 06 3d ea 70 7c bf
       0.6369222 0.53856474 0.03277868 -0.98609793
0002c0 98 ea 17 bf ea 2e ad 3e 09 74 21 3f ad e0 f8 3e
       -0.59342337 0.33824855 0.6306768 0.48608914
0002d0 b1 6f f3 3e dc 0a 0e 3f ee 8c 4f be 8d 19 27 3e
       0.4754615 0.5548532 -0.20268604 0.1631834
0002e0 99 f0 35 be fe 82 23 bf be f9 b7 be 26 d6 4a be
       -0.17767562 -0.63871753 -0.35932726 -0.19808254
0002f0 09 9b 21 bf c6 19 ad be 63 7b 35 bf 89 ee 30 bf
       -0.6312719 -0.33808726 -0.708914 -0.69113976
000300 36 f0 90 be a1 78 17 be 62 2a 21 3f 3c 45 9a bf
       -0.28308266 -0.1479211 0.62955296 -1.2052379
000310 95 a8 b3 be d2 97 17 bf 6f 89 76 3e 84 65 41 3f
       -0.35089555 -0.59216034 0.24075864 0.75545526
000320 43 9f 3a 3a 51 53 98 3f 41 24 d9 bd e8 4d 93 be
       0.0007119069 1.1900426 -0.10602618 -0.28770375
000330 07 83 19 be d8 5f fe 3e 33 b1 7e be d2 26 24 bf
       -0.14991389 0.49682498 -0.24872284 -0.64121735
000340 93 61 f0 3e fc ae f6 3e 97 5e c1 3e 46 0d f3 3e
       0.46949443 0.48180377 0.3776748 0.47471064
000350 ce 6e 0b bd 25 e8 84 bf 5d 91 b9 be ee e6 1c bf
       -0.03404122 -1.0383345 -0.36243716 -0.6128987
000360 22 ec c5 be 61 0a 2f 3d e8 0e 25 bf bc 4e 64 3e
       -0.38656718 0.042734507 -0.6447587 0.2229566
000370 eb d9 59 3f f8 83 b1 be 94 58 a4 3e 62 c5 fb 3e
       0.8509814 -0.34670997 0.3209883 0.4917403
000380 34 f4 18 3e 57 72 5b 3f 1d b2 f8 3e db 55 1d 3f
       0.14936906 0.85721344 0.4857339 0.6145913
000390 66 61 73 be 6d 7d 5b 3e 6e 31 41 bf 36 6d 44 3f
       -0.23767623 0.21434565 -0.7546605 0.7672914
0003a0 d3 0a 08 bf 57 d5 e3 be 92 2a 08 3f 9d 16 07 3f
       -0.53141516 -0.44498703 0.5318996 0.5276888
0003b0 9b 6b fc be e4 61 c4 3e e2 4a 00 3f 4f a0 98 bd
       -0.49300846 0.38355935 0.5011426 -0.074524514
0003c0 0d a2 a3 bc ec c1 d7 3e 21 73 85 bc 2c 2a c7 be
       -0.019974733 0.42140138 -0.01629025 -0.38899362
0003d0 7d 0a d4 3e cd 0a 82 3e 1a fb 43 3f 34 2e d4 be
       0.41414252 0.25398865 0.76555026 -0.414415
0003e0 34 81 f6 bd 86 5e 07 be a6 dc 83 3e 3b 48 11 3f
       -0.12036362 -0.13219652 0.2575428 0.5675084
0003f0 e6 52 3a 3f 5e 66 c3 be 46 0e a9 be 18 35 e4 3e
       0.7278274 -0.38164037 -0.33018702 0.44571757

net.0.bias f4 [128]
000000 b5 41 13 3f 5e 3a 4e 3e bc 11 03 3d 99 49 4c bd
       0.57522136 0.20139453 0.031999335 -0.049874876
000010 2e 30 24 3f 5e c9 9a be cb 3a 3f 3c 44 04 06 bf
       0.64136016 -0.30231756 0.011671732 -0.5235026
000020 24 13 81 3e 1e 79 0d 3f 31 c3 2c 3f 2e 52 f3 3e
       0.25209916 0.55262935 0.6748534 0.47523636
000030 99 b1 85 bd f7 ae 41 bf 46 bf 03 3f f1 f8 c5 3d
       -0.06528015 -0.756576 0.51463735 0.096666224
000040 0f 5e 0b bf 59 28 9a be 32 15 ac 3e 3a c9 37 3e
       -0.544404 -0.30108908 0.3360992 0.17947856
000050 af d7 2a 3f 49 fb b1 be b6 0a 02 3f c1 12 c6 be
       0.6673536 -0.34762028 0.50797594 -0.38686183
000060 86 7d 40 bf 58 a6 5a be ab 1b 2f 3d 07 5c 8d 3e
       -0.75191534 -0.21352518 0.042750996 0.27609274
000070 16 12 38 be 12 d0 ab 3d 22 96 3a bf 27 92 d4 3e
       -0.17975649 0.08389296 -0.72885334 0.41517755
000080 d2 ab 03 3f 80 ca fa bd 1b ac 70 be e5 41 5e be
       0.5143405 -0.12245655 -0.23503153 -0.21704824
000090 62 2d c3 bd 70 f9 9e 3d 6b 62 7a 3e af d8 b3 be
       -0.095301405 0.0776242 0.24451606 -0.35126254
0000a0 74 87 83 3e 29 2a 3a bf b2 b3 9a be 73 92 bb 3e
       0.2568928 -0.7272058 -0.30215222 0.3663517
0000b0 17 f9 b9 3e c4 17 09 3f d3 ae 52 be ba 51 20 bf
       0.36322853 0.5355189 -0.20574503 -0.62624705
0000c0 27 8d d8 3b 2e fe 28 3f bc 47 2b bf d3 81 d7 3e
       0.0066086235 0.6601285 -0.6690633 0.42091236
0000d0 0d 66 c8 3d 1e 4f 25 3f 2a b4 14 bf 14 77 ea be
       0.0978509 0.6457385 -0.5808741 -0.45793974
0000e0 90 fc e3 3e ce 9c a7 bd 04 ec 00 3e 77 04 05 bd
       0.44528627 -0.08184205 0.12590033 -0.03247496
0000f0 9a e7 22 3e ce 61 11 3e 7f 60 19 bf 4e 6d 18 bf
       0.15908661 0.14197466 -0.59912866 -0.59541786
000100 eb e1 1c 3f c8 e9 29 3e 5b 80 07 bf 49 b0 14 3f
       0.61282223 0.16593087 -0.5293023 0.5808149
000110 02 00 8c 3d 45 75 cc 3d bb 49 a3 be ce 83 5f 3e
       0.06835939 0.09983305 -0.3189219 0.21827623
000120 af 2f ef 3e a0 f3 98 3e ef 48 b0 3d 73 5f d7 bd
       0.46716067 0.2987337 0.08607661 -0.10516252
000130 5b 0b 12 bf ca 78 03 3d d9 32 8f 3e 5d 50 a5 bd
       -0.5704858 0.032097615 0.2796848 -0.08071969
000140 05 b4 01 3f e1 a5 05 3f f2 b8 04 3f 92 01 dc be
       0.50665313 0.52206236 0.51844704 -0.42969948
000150 9f ce e5 3e 0f fd 9e be 19 ab 26 bf 7e c6 50 3d
       0.44884202 -0.31052443 -0.65104824 0.050970547
000160 88 31 a1 bd c2 45 e2 3e e5 a6 d0 3d 6d aa e1 be
       -0.078707755 0.44193846 0.101880826 -0.44075337
000170 8a 0e 95 be c8 88 a5 be 65 ad 71 3e e7 6a 91 3e
       -0.29112655 -0.32330918 0.23601301 0.28401873
000180 0f cc 16 bf a8 e0 36 be 10 df ff be 3e 65 e5 3c
       -0.5890512 -0.17859137 -0.4997487 0.028002378
000190 57 85 53 bd 92 40 1d 3f ed 12 e3 3d 63 23 93 3e
       -0.051640835 0.6142665 0.11087594 0.28737935
0001a0 a9 a4 00 bf 21 1d b7 be 0c 5f ef 3d 4a 46 9b 3e
       -0.5025125 -0.3576441 0.11688051 0.30327064
0001b0 d3 47 82 3d ca de 02 bf ff f5 41 bf 00 ce 74 3d
       0.06361356 -0.511212 -0.75765985 0.05976677
0001c0 93 1a c6 bd 27 5b f2 3d 7b 72 83 3e a9 bb d7 be
       -0.096730374 0.11833792 0.2567328 -0.4213536
0001d0 82 90 a7 3e 44 35 79 3e d0 57 0a 3f 48 16 88 be
       0.32727438 0.24336725 0.5404024 -0.265795
0001e0 30 b7 87 3e 14 c1 e5 be ba c3 ce be 47 94 05 3f
       0.26506948 -0.4487387 -0.40383703 0.5217938
0001f0 fd ad b4 3e ed f0 bb be 4c 4b 24 bf 13 7e b3 3e
       0.35288993 -0.3670725 -0.64177394 0.35057124

net.2.weight f4 [64, 128]
000000 5f 13 d9 bd 8c e5 b3 bc cc d5 66 be 1c a7 36 ba
       -0.10599398 -0.021960042 -0.22542495 -0.000696765
000010 c5 4d 7d bc 88 a6 92 3d 52 99 48 3d ca d9 68 bd
       -0.015460436 0.071606696 0.048974343 -0.056848325
000020 a4 ef ea bb 61 65 27 be bf c5 6b bd b9 10 df bd
       -0.0071696807 -0.16347267 -0.057561632 -0.108918615
000030 34 5c 0c be 3e 11 e9 3d ef ee cf bd e5 87 88 3d
       -0.13707048 0.11380242 -0.10152995 0.06666545
000040 f7 6e 8d 3d f4 3f 5a bc 1f 98 52 bd 48 a5 bd bd
       0.069059305 -0.013320912 -0.051414605 -0.092600405
000050 48 3e 67 bd 9e b9 22 3e ab f3 4b bd 17 d2 0e be
       -0.05645588 0.1589112 -0.049792927 -0.1394733
000060 fe 3a 87 3d 89 f3 d2 bc 5d 02 d3 bc 94 17 c2 bd
       0.06603049 -0.025750892 -0.025757963 -0.094771534
000070 56 d6 4b 3d d1 72 c8 bd 66 2b 19 3d 79 2e 90 3c
       0.049764954 -0.097875245 0.037394904 0.017600285
000080 a9 71 39 bd 59 57 07 bb 27 3c 9a bd f9 1d b3 3d
       -0.04527441 -0.0020651428 -0.075310044 0.08745951
000090 d9 8b 49 bd f1 e0 a0 3c af 0c 1b be 31 f1 04 bd
       -0.049205635 0.01963851 -0.15141557 -0.03245658
0000a0 16 18 ba bd d9 61 97 3d 79 a0 fb bc f3 a9 46 bd
       -0.09086625 0.0739171 -0.030716168 -0.04850192
0000b0 86 35 49 be 78 0d 3c bd 95 f9 d2 3b 90 92 49 bd
       -0.19649324 -0.045911282 0.006438444 -0.04921204
0000c0 a3 8b eb bd 21 e3 a4 bd 5b fe 16 3d 49 62 51 3d
       -0.11501243 -0.08051134 0.036863666 0.051119123
0000d0 26 9d f8 bd d6 90 77 bd 01 eb d1 3d a2 95 23 3e
       -0.12139349 -0.06044086 0.102499016 0.15975049
0000e0 80 26 db 3c be 11 2d bd b1 57 27 3c 9f 86 7a bd
       0.026751757 -0.04225325 0.010213778 -0.06116354
0000f0 bf 71 98 bc cf ff 2b bd 4f 55 64 3d db 65 0d 3c
       -0.018608926 -0.041992005 0.05574542 0.008630241
000100 86 5b aa bd b2 61 04 3d 37 14 04 3e 88 f6 3c be
       -0.08318238 0.032319732 0.12898336 -0.18453419
000110 95 98 32 3d 52 0b 84 3d 9a 59 1f 3d ce e0 92 bd
       0.043602545 0.06447472 0.03890381 -0.07171784
000120 aa 5b d2 bd 8b e5 4f bd 94 77 a2 3d e7 60 ae 3d
       -0.1027139 -0.05075602 0.07932964 0.085145764
000130 cc 31 8e bb fd 62 71 3c 82 c3 a5 3c 74 17 9c bd
       -0.0043394323 0.014733073 0.020234827 -0.07621661
000140 77 53 25 bf 05 49 c1 3c 2e c8 44 bd 24 43 b2 bd
       -0.6458048 0.023594389 -0.04804247 -0.08704212
000150 cd 0f 6e 3d 4f f2 79 3d 5c 96 b5 3d ce a8 4f ba
       0.058120538 0.0610221 0.088665694 -0.0007921577
000160 ff 8f dd bc 28 20 d7 bd 07 08 90 3d de 5e 2c bc
       -0.027046202 -0.1050418 0.07032781 -0.010520665
000170 d4 a3 11 bc 74 3b 22 bd b2 49 25 3d dc 6e a7 3b
       -0.008889157 -0.03960748 0.040353484 0.005109651
000180 f5 09 2e bd 0c 5f 53 3d 61 34 e2 3c 68 7b 8e be
       -0.042489965 0.051604316 0.027612867 -0.27828526
000190 ce 66 c8 bb 6d 75 11 be 98 8e 78 bc aa ee a9 bb
       -0.006115771 -0.1420495 -0.015170716 -0.0051859217
0001a0 b8 2d 70 3d 59 36 3a 3d 8c 96 91 3d b0 1f 28 bd
       0.05863735 0.045461986 0.07108793 -0.041045845
0001b0 29 0e 8e be 4a bb 8d 3d db 76 61 bd 6b dd 76 3d
       -0.27745178 0.06920488 -0.05504499 0.060269754
0001c0 ae d6 9f 3b 82 c2 93 bd 2d db 58 3d 25 54 91 bd
       0.0048778867 -0.07214834 0.052943397 -0.070961274
0001d0 8f 9f 56 3c e9 1b 42 3d 20 2f b2 be d0 40 f9 3c
       0.013099565 0.0473899 -0.3480158 0.030426413
0001e0 43 2b 49 3d 36 f1 ea 3d 4d 65 9f 3c 7c 19 52 3d
       0.049113523 0.114717886 0.019457484 0.051293835
0001f0 11 1e 1f bd 4b 4a 54 bd e9 a8 0c bd d3 e0 ee 3c
       -0.038847033 -0.051828664 -0.034340773 0.029159939
000200 1a 88 b5 3b 48 83 40 bd d6 bf b4 bd d2 e0 15 c0
       0.005539906 -0.0470002 -0.08825652 -2.341847
000210 1b c5 c8 3d 2d d5 46 bd df 44 e2 3c bf 07 96 bf
       0.0980322 -0.048543144 0.02762073 -1.1721114
000220 3c 93 9b bd cb 24 53 bd 57 e4 8b bd 72 c8 52 3d
       -0.07596442 -0.05154876 -0.06830662 0.05146069
000230 c9 62 b5 bc 4e 17 d9 bf c7 15 90 bd f4 c4 c0 bf
       -0.022141831 -1.6960237 -0.07035404 -1.5060105
000240 41 c5 ae be 77 0f c4 bd b9 4e 13 bd a7 fb e5 3c
       -0.34134868 -0.09573262 -0.035963748 0.028074099
000250 8d aa 38 3d c0 80 8a 3d bc 83 df 3b c3 14 d3 3c
       0.045084525 0.06762838 0.006821124 0.025766736
000260 00 9f 92 bd 45 da b0 bd 53 34 83 bf b4 d3 82 3c
       -0.07159233 -0.086353816 -1.0250343 0.015970089
000270 e3 f0 ee 3c a4 ae 34 3d c1 3f 9a 3c d2 1e c3 3c
       0.029167598 0.044111863 0.018829228 0.023818407
000280 b5 1c 43 3d 1a 25 ee bd 5e 85 cb 3d f1 64 84 bc
       0.0476348 -0.1162817 0.09937547 -0.016161414
000290 80 51 56 bc db ef 0d c0 96 64 3e 3d a0 fc 72 3c
       -0.013080955 -2.2177646 0.046482645 0.014830738
0002a0 1e 1c 8d 3d 96 04 6c 3e 77 72 ae 3c f7 4a da ba
       0.068901286 0.23048624 0.021294815 -0.0016654421
0002b0 c8 02 90 3d c9 6a 5d bd 3e 78 e6 bb a2 c7 5b 3e
       0.070317805 -0.054056916 -0.007033377 0.21462873
0002c0 26 3c ea b9 c4 45 c7 3d 13 bf 23 3e b4 e4 f9 3c
       -0.00044676772 0.097301036 0.15990858 0.030504562
0002d0 9a 0c e7 3d f2 fd 1d bc a5 07 86 bd 32 7f 0e 3d
       0.112817004 -0.009643065 -0.06544427 0.03478927
0002e0 bc 33 0b 3c 63 26 5a bc 85 6b e1 3d 7f 25 e1 bf
       0.008496221 -0.013314816 0.11006836 -1.7589568
0002f0 25 6d 12 be 17 62 13 bd e4 f6 a7 3d 85 a0 89 3e
       -0.14299448 -0.035982218 0.082013875 0.2688028
000300 af b8 cb 3c 37 e7 1f 3f df 1e be bd 19 1e af 3d
       0.024868337 0.6246218 -0.09283232 0.085506625
000310 72 19 1f c0 38 31 11 c0 cc ff fb bb 12 2a b4 bc
       -2.485928 -2.268629 -0.0076904055 -0.021992717
000320 50 89 8d bc 4e 32 f5 3c bb 50 ea bf 26 ca 77 3c
       -0.01727739 0.029931214 -1.8305887 0.01512388
000330 6d 50 0f 3d 44 a8 f7 bf 46 9d 72 bb dd 43 c7 bc
       0.03498881 -1.9348226 -0.0037020012 -0.024324352
000340 0d 63 9b 3c 03 29 a5 3d 25 cd d9 bd 94 11 fb 3d
       0.01896813 0.08064463 -0.10634831 0.12259212
000350 2d 47 f2 3a e6 c4 87 3e 55 bd 82 3c 6d 35 da bf
       0.0018484347 0.2651741 0.015959421 -1.7047554
000360 2b 14 d4 bd 17 1b 85 3d ab 95 e4 3d 6f e3 6c 3d
       -0.10355409 0.064993076 0.111613594 0.057834085
000370 4d 90 ef bc d2 c1 83 3d 24 02 98 bd f9 9f c2 bd
       -0.029243613 0.06433453 -0.07422283 -0.095031686
000380 8d 09 b0 bd ed 32 bb 3f 52 26 48 3a 58 85 b5 3d
       -0.08595572 1.4624916 0.00076351047 0.08863324
000390 2b d0 6b 3c b5 2d 99 bd 7a 2f 59 3d f7 a7 88 be
       0.014392893 -0.07479421 0.053023793 -0.26690647
0003a0 99 9e 56 bd 02 e1 c0 bb bb e4 17 c0 34 99 f5 3c
       -0.052397344 -0.005886198 -2.3733356 0.02998028
0003b0 de 6f 07 3b 84 23 01 be 53 d4 d8 bf da ad 9a 3d
       0.0020666043 -0.12611204 -1.6939796 0.07552691
0003c0 21 3b 83 bd 1f f9 3d 3d ce 0c 27 3d 42 16 0b be
       -0.06407762 0.04638016 0.040783696 -0.1358271
0003d0 b2 a0 99 bd 41 34 ac 3d f7 80 87 bd 56 60 b0 3d
       -0.07501353 0.08408404 -0.06616395 0.086121246
0003e0 3e 9c 3f bd 28 bc cd bd 7c 36 5f 3d 38 c6 65 bd
       -0.046779864 -0.100456536 0.05449532 -0.05609724
0003f0 31 3d 2e bd 7b 27 e5 3d 5d 59 a9 bf 06 5a b3 3d
       -0.042538825 0.11189171 -1.3230397 0.08757405

net.2.bias f4 [64]
000000 95 26 08 be a2 cc 52 3c 43 e2 58 3c b1 97 35 bb
       -0.13295968 0.012866171 0.013237539 -0.0027708823
000010 2d ec 16 bd e0 32 77 bb 79 70 bf bc 69 78 98 bd
       -0.03684633 -0.0037719533 -0.02336906 -0.074448414
000020 48 bd 8b 3d 6f 84 6b 3d d0 c7 87 bd fd f9 58 bc
       0.06823212 0.057499345 -0.06629908 -0.013243196
000030 e9 78 ba 3d ee 17 0c bc cf e7 59 3d 4c ea 90 bc
       0.09105093 -0.008550627 0.053199586 -0.017689846
000040 b2 d1 a2 3c 90 5a 95 bd 48 bc 4d 3d 57 79 19 bd
       0.019875381 -0.07292664 0.050228387 -0.037469234
000050 d6 94 b3 3c fa ae 89 3d d4 8b c9 3c 64 03 9d bc
       0.021921556 0.06722827 0.024602808 -0.019166656
000060 08 3c 34 bd e0 99 9c ba a7 57 82 bb a7 85 16 3d
       -0.044002563 -0.0011947714 -0.003977734 0.036748555
000070 c4 94 31 3c ca 76 16 3b b8 56 cb 3d a6 19 9f 3d
       0.010838691 0.0022958987 0.0992865 0.07768564
000080 39 93 91 bd 0f 6d 4e bd a0 95 65 3d f6 9b 4d bd
       -0.071081586 -0.050396975 0.056050897 -0.050197564
000090 8f 69 03 3d a4 cf c1 bd 7a c4 a7 bd 35 19 3d 3c
       0.03208309 -0.094634324 -0.08191772 0.011541654
0000a0 33 d3 7f 3d 70 62 d5 3d 5b ec 8b 3d d3 fd 9a 3d
       0.062457275 0.10419166 0.068321906 0.075679444
0000b0 4c 1f aa bd e2 08 91 3c bf ca c7 bc 3a 75 14 3d
       -0.08306751 0.017704431 -0.024388669 0.03624461
0000c0 75 30 c4 3c 70 99 b5 3d 62 5b 69 3d 63 06 cc 3d
       0.023948887 0.088671565 0.056971915 0.09962156
0000d0 0e 7a 83 bd 76 04 af bd f8 49 f3 3b 68 5f 8a 3d
       -0.064197645 -0.08545773 0.0074245892 0.067564785
0000e0 37 b9 b3 3d 1f d8 f5 3d 5a a4 ba ba 3e 51 6c 3d
       0.08775561 0.120041125 -0.0014239654 0.057694666
0000f0 79 e3 39 bc a2 3a 67 bd 7a ab 55 bd 74 ab 8d bc
       -0.011345738 -0.0564524 -0.052165486 -0.01729367

net.4.weight f4 [32, 64]
000000 e9 6e 81 bc 1a 93 dc bd bb 1b 12 bd 2b 7e f7 3c
       -0.015799956 -0.10770245 -0.035670977 0.030211529
000010 ce 51 0a bd 53 ab 12 bd 12 24 4b 3c f0 ca 20 3c
       -0.03376942 -0.03580792 0.012398737 0.009814009
000020 9d 77 7d 3d 9d 57 05 3e 96 2c 3e 3d ec cf a8 3b
       0.06188165 0.13021703 0.04642924 0.0051517393
000030 93 3c f2 3c 6f 01 b3 bd 25 c6 eb bd 25 aa b4 bc
       0.0295699 -0.08740508 -0.115124024 -0.022053787
000040 c7 14 b3 3c db f5 91 3c ea 13 90 3c 7c 40 3d bc
       0.021860493 0.017817428 0.01758762 -0.011551019
000050 91 72 be 3d 7d fb 86 bb 0c 16 26 bd 1f ce b1 bd
       0.092991956 -0.004119335 -0.04054837 -0.086818926
000060 be 51 58 3b 59 ba 88 3d 98 88 0a bd 35 dd 79 bc
       0.0033007707 0.06676168 -0.033821672 -0.015250494
000070 91 12 7f bd d0 04 b7 3d 36 07 24 3d 6b 98 45 3d
       -0.062273566 0.08936465 0.04004594 0.04824106
000080 e8 eb 09 3e 55 f3 95 bd 3e 2a ab bc 2b 50 37 3d
       0.13468897 -0.073218025 -0.020894166 0.04475419
000090 de 24 d8 3d 2f 6e d3 bd 9d c3 9f 3c 06 ea 2b 3d
       0.10553907 -0.1032375 0.019502455 0.04197123
0000a0 39 8d 5b 3c 47 67 08 3d 8f 13 6a 3c 0c 40 94 39
       0.013400369 0.033301618 0.01428689 0.00028276478
0000b0 cc 32 2f 3d 0a f4 56 bd a5 7a bf bd 77 54 d4 3d
       0.042773053 -0.052478828 -0.093495645 0.10367673
0000c0 3f 68 02 be 2f 6e 13 3d 4b 8d df bd 9f 51 62 3c
       -0.12735079 0.03599375 -0.10915621 0.013813405
0000d0 d0 4f 30 bc c1 6b 9e bc c6 0d 32 3d e8 87 a2 3d
       -0.010761216 -0.01933849 0.043470167 0.07936078
0000e0 59 cb e4 3d 33 34 0c bd 14 e1 ec 3d e1 41 cb 3d
       0.11171598 -0.03422947 0.11566368 0.09924675
0000f0 16 6c cc 3d 41 68 83 bd a9 63 c6 3d 9c fa 05 3e
       0.09981553 -0.06416369 0.096869774 0.13083881
000100 5a 4f ad bd 9b 83 9d bc 29 ef 20 bd b7 75 8f bd
       -0.08462401 -0.019227793 -0.03929058 -0.07004874
000110 a0 c3 1c be 1c b2 15 bd 93 f3 e9 3c 20 f7 86 bd
       -0.15309 -0.03654681 0.028558528 -0.06590104
000120 75 15 1b 3d ae 41 ea bd 36 3c 89 bd cb 4a 1c be
       0.03786226 -0.11438309 -0.067009374 -0.15262906
000130 03 d0 80 bd a0 27 c8 bd c8 67 05 be 7c 5d da bd
       -0.06289675 -0.09773183 -0.1302787 -0.10662362
000140 ed d0 12 be 90 d0 1a bd 6a 11 ca bd 7a 3e e9 3d
       -0.14337511 -0.037796557 -0.09866603 0.113888696
000150 db e7 9b bd 2e cc 25 bc c8 c4 cf 3c 28 e4 c8 bd
       -0.07612582 -0.010119481 0.025362387 -0.09809142
000160 da cf 1a bd a0 5f 91 bd a0 6d 6c bc b1 aa c4 bd
       -0.03779588 -0.07098317 -0.0144304335 -0.09602869
000170 4c 25 75 3d e2 a6 e2 3d b2 7d b2 3d 66 87 25 be
       0.059850022 0.110669866 0.08715381 -0.16164932
000180 c2 97 88 3d f8 4c c0 bc e2 39 b4 3d a7 5c 1a be
       0.066695705 -0.023474202 0.08800103 -0.15074407
000190 54 af 1c be 14 92 09 3d 1c 91 f1 bd 00 d1 a8 3c
       -0.15301257 0.033586577 -0.117952555 0.020607471
0001a0 3f a6 39 3d 2c 04 5c 3c 20 7b 78 3d ad 54 4c bd
       0.04532456 0.013428729 0.060664296 -0.04988544
0001b0 20 97 f6 bb 2c 92 19 3d c0 e5 c6 bc 68 08 f8 bd
       -0.0075253397 0.037492916 -0.024279475 -0.12110978
0001c0 1c 1c 3b bd a6 2a b1 3d 28 ca 18 3d a8 c9 22 bb
       -0.045681104 0.08650713 0.037302166 -0.0024839435
0001d0 51 32 bc bb 4e 73 bc bd 6a a1 b7 bd b4 48 eb 3d
       -0.005743303 -0.0920168 -0.08966334 0.114884764
0001e0 91 cb b8 bc ba 94 9f bd a3 f1 dc bd 20 1e 77 bd
       -0.022558006 -0.07792039 -0.10788276 -0.060331464
0001f0 1e 9b be 3d a4 9d 29 3d f8 b2 1e bd e6 b6 a0 3d
       0.0930693 0.041410103 -0.038744897 0.07847385
000200 2f 63 b9 bd 96 d6 20 bd e9 9f 8e bc cb a3 02 be
       -0.09052121 -0.039267145 -0.017410235 -0.12757795
000210 8e a7 05 be 18 97 c3 bd fe 58 81 bd b8 4b f4 bd
       -0.13052198 -0.09550303 -0.06315802 -0.11928505
000220 01 b3 cf 3c f9 24 83 bc b3 54 21 bd db 7c 95 bd
       0.02535391 -0.01600884 -0.039387416 -0.07299205
000230 47 87 b6 3d 64 76 c5 bd 36 d1 05 bc 52 fb a7 bd
       0.08912521 -0.09641722 -0.008167556 -0.082022324
000240 bb 79 cf bc c1 7a ad bd cc 5c 88 bd 66 9e 4d bd
       -0.0253266 -0.08470679 -0.066583246 -0.05019989
000250 2b 53 db bd 9b 9c 9c 3c 4b e1 5f bc d2 2d b5 bd
       -0.107092224 0.019117644 -0.013664554 -0.0884663
000260 f2 c7 86 bd e8 84 dd bd 49 4f 8a 3c c0 66 0c be
       -0.06581105 -0.108163655 0.01688351 -0.13711071
000270 66 2f d4 3d 8a d1 dc bd 4b 22 48 3d b8 a7 65 3d
       0.10360603 -0.10782154 0.04886083 0.056068152
000280 02 b1 be bd f0 26 76 bc 94 fd 0f bc e9 bd fd bd
       -0.09311105 -0.015023932 -0.008788485 -0.12389738
000290 79 8b 8c bd a1 ea 1e 3c cb 12 da 3b 1c cb 4c 3d
       -0.0686254 0.009699495 0.0066550723 0.049998388
0002a0 2d d1 d1 bc 06 a7 bd 3c 29 10 b1 3d 43 a8 fb 3c
       -0.025612438 0.023150932 0.086456604 0.030719882
0002b0 20 74 b3 bd 26 f9 1c be 31 dd ba bb 49 11 66 3d
       -0.087623835 -0.15329418 -0.0057026376 0.05616883
0002c0 c0 5a 88 bd 9d 67 e2 3d b5 d5 84 3d 0b 71 04 bc
       -0.06657934 0.11054919 0.06486074 -0.008083592
0002d0 49 01 b3 bd 67 ff bf bc 57 6c 5f 3d be 85 95 bd
       -0.087404795 -0.023437215 0.05454668 -0.073009
0002e0 bf 18 79 bc b2 9c 13 be 45 b9 68 3d 94 98 9f bc
       -0.015203654 -0.14415243 0.05681731 -0.019481935
0002f0 50 c5 f2 3c 38 2f b1 bc 9d 6f c5 3d 00 a4 f3 3b
       0.029635102 -0.021628961 0.09640429 0.007435322
000300 bf da b8 3c 40 49 1a 3e 79 c8 65 bd 03 6e 9b bd
       0.022565244 0.15067005 -0.05609939 -0.075893424
000310 5b 0e 02 be 10 e9 6b 3c e2 82 08 3e e0 11 44 bc
       -0.12700789 0.014398828 0.13331178 -0.011967152
000320 b7 43 3c 3d 0f 67 09 3c 38 c8 01 bd 6c 5d bb 3c
       0.045963015 0.0083863875 -0.031685084 0.022871695
000330 52 64 1e be 08 82 38 be 7b d4 a2 3d ce 4a 88 3d
       -0.15467957 -0.18018353 0.07950684 0.06654893
000340 9d dc 83 3d 48 c6 9f bd fe 83 ed bc 40 fc 63 3c
       0.06438563 -0.07801491 -0.028993603 0.013915122
000350 de 7e e4 3d 4e 3e 74 bc 13 15 88 bd df 5f ac bd
       0.111570105 -0.014907433 -0.066446446 -0.084167235
000360 90 cc 87 3c 45 ae 4d 3e 4a 26 86 3d f5 3e fe bc
       0.016577035 0.2008601 0.06550272 -0.03103588
000370 6f 0c 95 3d c2 a3 b4 3d 62 ab 9a 3c 15 44 28 3d
       0.07277762 0.08820297 0.01888055 0.041080553
000380 73 d1 f2 3c 50 00 f6 bd a2 4e 17 be 86 fa c8 bc
       0.029640889 -0.12011778 -0.1477609 -0.024533521
000390 fb ee 03 bc 50 8c c5 bc fb ec 9b 3d c2 cd af 3d
       -0.008052583 -0.024114758 0.0761356 0.08584167
0003a0 a0 58 06 be 57 a4 19 3e 37 7e c1 3d b5 b0 44 3d
       -0.13119745 0.15004097 0.09447902 0.048020083
0003b0 a0 61 56 bc c2 a0 b0 3d 89 9a 0a bb f7 53 1a be
       -0.013084799 0.08624412 -0.002114924 -0.15071093
0003c0 d0 da d1 bd eb b1 df 3d 94 fa 00 3d 28 90 a6 3d
       -0.10246813 0.10922607 0.03148897 0.081329644
0003d0 b5 ed 57 bd 0d db 69 bd 5e 38 e4 3d ba 33 e5 bd
       -0.05271693 -0.05709367 0.11143564 -0.11191507
0003e0 d9 21 3e 3d b8 73 73 be e4 59 0a 3d c9 c5 c9 bc
       0.046419 -0.23774612 0.033777133 -0.024630444
0003f0 94 fd b4 bd 2a 07 97 bd f0 9e 42 3c 6d 7f a0 bd
       -0.08837429 -0.07374413 0.011878714 -0.078368045

net.4.bias f4 [32]
000000 db a6 ee 3d dd 9e f4 3c e7 01 d4 bc 64 08 fa bb
       0.11652919 0.029860908 -0.025879813 -0.007630395
000010 4a f7 49 3c 9c 23 e4 3d a7 64 d0 3d d8 70 fb bc
       0.012327025 0.111396044 0.10175448 -0.030693457
000020 20 50 9a bd 72 77 bc 3d 41 5d 1e 3d 96 52 de bd
       -0.07534814 0.0920247 0.038663153 -0.10855596
000030 4f 6d 19 3e 91 91 ad bd 2c 04 48 3d 50 28 77 bd
       0.14983104 -0.0847503 0.048832104 -0.06034118
000040 2d 30 ae 3c 13 cd e5 3d 70 9b d2 3c 0c fb a6 3d
       0.021263206 0.112207554 0.025708884 0.08153352
000050 fa 78 c6 3d 4a 27 8c 3c e3 d7 a3 3d 8b 9c db bd
       0.09691043 0.017108578 0.080001615 -0.107232176
000060 5c fc 2e 3d 93 77 da 3d 22 2a f3 3d eb b8 92 3d
       0.042721137 0.10667338 0.118732706 0.071641766
000070 45 ad eb 3c da 50 ef bd 24 41 f8 3d d7 e2 8c 3d
       0.028769145 -0.11685343 0.121217996 0.06879204

net.6.weight f4 [1, 32]
000000 cf 26 b5 3d 1f 81 0e be fd 53 19 3e 55 ff e6 3c
       0.08845293 -0.13916443 0.14973445 0.028197924
000010 13 33 83 3d 05 a2 b4 be d3 43 1d 3e 7f 65 27 be
       0.06406226 -0.3527986 0.15357904 -0.16347311
000020 29 38 63 bd a7 c6 8a 3d d0 a9 3c be fa 8f 98 3d
       -0.05547348 0.06776171 -0.18424153 0.07449336
000030 c8 8b d4 be c8 97 1b bd 2b 4c d3 3d 39 a1 8b be
       -0.41512895 -0.037986547 0.10317262 -0.2727144
000040 14 81 4e be e9 3b 3a 3e c4 4a f6 3c a5 6b d6 bd
       -0.20166427 0.18186916 0.030064948 -0.1046975
000050 50 83 73 bf 70 1a 5c 3e e7 73 a3 3d 98 e3 a0 bd
       -0.9512224 0.2149446 0.07981091 -0.0785591
000060 bb 86 d3 3d ce e4 00 3e 55 56 11 be e0 8d 28 3d
       0.10328432 0.12587282 -0.1419309 0.041150928
000070 2a 15 d1 bc 4e 33 23 3e 72 7c 4e be e0 f2 61 be
       -0.025522787 0.1593754 -0.2016466 -0.22065306
